phone/src/main/assets/fer2013.tflite (tflite, 236264 bytes, 43 tensors)

conv2d_1/Conv2D_bias f4 [8]
-0.5822589 -0.15944934 0.1779485 0.73324823 0.20363523 0.0066834968 -0.21497087 0.63444847
00000000: eb0e 15bf b046 23be 2238 363e 28b6 3b3f
00000010: c185 503e 3c01 db3b 5321 5cbe 376b 223f

conv2d_1/kernel f4 [1, 3, 3, 8]
0.026909513 0.0966481 1.5500532 0.3961201 1.6340779 -0.57361233 0.13897672 -2.990341
-0.324842 0.17882353 1.2917074 -0.2033976 0.6036325 -0.0038969547 0.1295459 -0.18909885
-0.33352908 0.17067267 -1.0677186 -0.8052927 1.3206401 0.69200456 0.08203272 -0.908619
0.20025453 -0.7225177 1.9161873 0.7272487 0.20415291 0.2918826 0.2508639 -1.7328097
-0.3660556 -0.3342013 0.83274144 -3.5855045 -1.3049254 -0.41742387 0.23080656 0.49366656
-0.4009246 0.0770293 -1.6197332 -0.95721287 0.6007652 0.6285736 0.07284966 0.49400258
0.17661121 -0.56609195 -0.3998088 3.568743 -1.2670331 -4.3761253 0.13360424 1.1870284
-0.19496933 -0.69729173 -0.4497931 1.8228425 -2.6532748 1.4673954 0.13177705 2.4699814
-0.20022757 -0.1059519 -1.8359525 -0.5139365 0.5224354 2.5123773 0.023039445 0.958734
00000000: 5771 dc3c 70ef c53d 2568 c63f 41d0 ca3e
00000010: 7729 d13f 42d8 12bf ea4f 0e3e bf61 3fc0
00000020: b151 a6be 841d 373e ab56 a53f 7647 50be
00000030: a987 1a3f 0d64 7fbb aea7 043e 21a3 41be
00000040: 53c4 aabe d1c4 2e3e 01ab 88bf aa27 4ebf
00000050: bc0a a93f 3627 313f c500 a83d 419b 68bf
00000060: 860f 4d3e ecf6 38bf a045 f53f f92c 3a3f
00000070: 760d 513e a371 953e 3c71 803e b5cc ddbf
00000080: a46b bbbe 6f1c abbe 8b2e 553f e878 65c0
00000090: cc07 a7bf 95b8 d5be 8e58 6c3e ddc1 fc3e
000000a0: fd45 cdbe 8ac1 9d3d 6b53 cfbf e70b 75bf
000000b0: c0cb 193f 33ea 203f 3432 953d e8ed fc3e
000000c0: 92d9 343e 67eb 10bf bdb3 ccbe 4966 6440
000000d0: 242e a2bf 3809 8cc0 8dcf 083e 8cf0 973f
000000e0: 0aa6 47be b681 32bf 484b e6be e752 e93f
000000f0: 41cf 29c0 9dd3 bb3f 90f0 063e 2d14 1e40
00000100: 7508 4dbe 4ffd d8bd 7e00 ebbf 5891 03bf
00000110: 54be 053f caca 2040 38bd bc3c 976f 753f

conv2d_2/Conv2D_bias f4 [8]
1.5094873 1.0326017 0.48002926 1.0141978 2.0123582 -1.3460101 0.40355572 0.66244954
00000000: e136 c13f 4b2c 843f 65c6 f53e 3cd1 813f
00000010: 7aca 0040 0f4a acbf db9e ce3e 4b96 293f

conv2d_2/kernel f4 [8, 3, 3, 8]
0.081565484 0.044161115 -0.1487574 -0.08311738 -0.17356274 -0.03628488 0.003396796 -0.17893662
0.07295836 0.15194914 -0.115643874 -0.24481693 0.07188934 -0.043987874 0.023493169 -0.33796903
0.04678013 0.18867624 -0.12519562 -0.23809044 0.0583491 0.038145494 0.04762046 -0.2542673
0.113182135 -0.05676842 -0.03938406 0.22320475 -0.01941077 -0.040118318 -0.004122695 -0.046361744
0.08689019 0.040622953 -0.17602628 0.09660753 0.04000579 -0.18030132 0.011411942 -0.05929201
0.043042805 0.09403059 -0.10892351 -0.035370406 0.11508197 -0.0774905 0.02148366 0.0817677
0.054020587 -0.08665522 -0.1763707 0.16532035 -0.11020458 0.009879241 -0.0018212711 -0.01419221
0.039241884 -0.037630152 -0.15321925 0.09773318 -0.21934912 -0.121137336 0.0022703172 0.102963254
0.00089366006 0.0030826882 -0.0014112507 -0.09066251 -0.046720978 -0.015707966 -0.0058758482 0.11137457
-0.012509447 -0.10030395 -0.041377343 -0.069675215 -0.028587902 -0.036635518 0.060718033 -0.04046922
-0.026401388 -0.07301661 0.018436013 -0.1053475 0.037685655 -0.05527788 0.06595124 -0.06385558
-0.039369702 -0.06467425 0.0970797 -0.11315957 0.12089433 0.021370245 0.06925489 -0.06169634
-0.00064400095 -0.106826134 0.023715498 -0.07824318 -0.050282165 -0.002234557 0.041036922 -0.08982601
-0.009051303 -0.073371015 0.08076211 -0.07873161 0.022242049 -0.014880333 0.046481404 -0.11478995
-0.020681696 -0.051184252 0.08382641 -0.041689664 0.056891 0.06989573 0.050543454 -0.08504804
0.011848723 -0.09521972 0.07257451 -0.05397055 0.070434585 0.03421941 0.011264177 -0.1363914
0.011227563 -0.05963824 0.06555025 -0.056006305 0.07924198 0.0032099518 0.020806361 -0.10786127
0.004232697 -0.050467465 0.050872687 -0.034063328 0.055953976 0.04772469 0.030843992 -0.026041184
0.032092676 0.07597149 0.01830345 0.0007795867 0.03629427 -0.18092282 -0.06450416 -0.13074726
0.03539039 0.11191221 -0.024837477 -0.07288531 0.062352367 -0.09411189 -0.052599262 -0.12081315
0.031135948 0.11767723 -0.07504947 -0.08614266 0.07631068 0.031767163 -0.03836855 -0.06796566
0.062386863 0.0983441 0.04962866 -0.042694695 0.032730225 -0.0661844 -0.06330103 -0.150214
0.059574053 0.12551387 0.006930161 -0.06642843 0.042471547 -0.0393926 -0.048562475 -0.032354686
0.047430895 0.14854725 -0.053073484 -0.08368395 0.08524215 0.06288026 -0.030862313 0.05935948
0.06478846 0.13597275 0.015281087 -0.046135426 0.13073365 -0.002881301 -0.06845934 -0.060680475
0.059812523 0.15886247 -0.044878334 -0.08362284 0.07837423 0.013903937 -0.050868113 0.056465775
0.061341442 0.17396873 -0.08474659 -0.023079405 0.08083018 0.06070791 -0.03964332 0.081393465
-0.05703023 0.013175284 -0.04199816 0.16785271 -0.041240092 -0.07619539 0.01909684 0.1794378
-0.08087709 0.06419131 -0.06340572 -0.035658076 0.06901144 -0.13013151 0.006093477 0.06790184
-0.12281069 -0.0003646342 -0.15004314 0.046543565 0.005129287 0.06184771 -0.0060271816 0.086312965
-0.041452706 -0.02524738 0.010545961 -0.0027702972 -0.051611014 -0.23585923 0.029788567 -0.23849057
-0.07941937 0.056954306 -0.11909465 -0.18371446 0.14810722 -0.023933547 0.003310417 -0.121624514
00000000: ce0b a73d 49e2 343d dc53 18be 7239 aabd
00000010: 6eba 31be 749f 14bd c89c 5e3b 293b 37be
00000020: 316b 953d 8e98 1b3e b2d6 ecbd 4ab1 7abe
00000030: b83a 933d a12c 34bd bf74 c03c 470a adbe
00000040: 869c 3f3d 5834 413e 4833 00be fbcd 73be
00000050: 77ff 6e3d 733e 1c3d ac0d 433d 532f 82be
00000060: 09cc e73d 0186 68bd 2e51 21bd c98f 643e
00000070: 5603 9fbc 1b53 24bd ac17 87bb d0e5 3dbd
00000080: 7cf3 b13d 4164 263d 3c40 34be 2bda c53d
00000090: 1cdd 233d e9a0 38be 27f9 3a3c 2edc 72bd
000000a0: a74d 303d 1c93 c03d 4a13 dfbd 8fe0 10bd
000000b0: 19b0 eb3d 57b3 9ebd 80fe af3c d375 a73d
000000c0: b144 5d3d 4b78 b1bd 859a 34be bd49 293e
000000d0: f0b2 e1bd 8adc 213c b8b7 eeba 7186 68bc
000000e0: 19bc 203d 1322 1abd 82e5 1cbe 5528 c83d
000000f0: 0e9d 60be da16 f8bd 9ac9 143b 66de d23d
00000100: 8344 6a3a ed06 4a3b b7f9 b8ba 44ad b9bd
00000110: 7f5e 3fbd fead 80bc 308a c0bb 5a18 e43d
00000120: 6cf4 4cbc 286c cdbd 4a7b 29bd e1b1 8ebd
00000130: 2d31 eabc 200f 16bd 79b3 783d 0ec3 25bd
00000140: b947 d8bc bc89 95bd 1f07 973c 6ec0 d7bd
00000150: 465c 1a3d 0f6b 62bd 7211 873d b7c6 82bd
00000160: 2042 21bd ef73 84bd b9d1 c63d 34c0 e7bd
00000170: 7297 f73d a710 af3c 82d5 8d3d 4db5 7cbd
00000180: 2cd2 28ba a9c7 dabd 0147 c23c f63d a0bd
00000190: acf4 4dbd a571 12bb 5516 283d b3f6 b7bd
000001a0: eb4b 14bc 8b43 96bd 9b66 a53d 0a3e a1bd
000001b0: f534 b63c a4cc 73bc 4963 3e3d fe16 ebbd
000001c0: a96c a9bc 94a6 51bd 2ead ab3d c8c2 2abd
000001d0: 8a06 693d 7e25 8f3d a706 4f3d ab2d aebd
000001e0: 2521 423c 8e02 c3bd f2a1 943d 3910 5dbd
000001f0: 0240 903d a729 0c3d 628d 383c 30aa 0bbe
00000200: d0f3 373c 3a47 74bd 363f 863d de66 65bd
00000210: 9f49 a23d 0e5e 523b 1a72 aa3c 5fe6 dcbd
00000220: 70b2 8a3b f9b6 4ebd e15f 503d fd85 0bbd
00000230: ff2f 653d f77a 433d 8aac fc3c 5254 d5bc
00000240: 9c73 033d f196 9b3d 1ef1 953c 2e5d 4c3a
00000250: 4da9 143d d543 39be c21a 84bd 9ce2 05be
00000260: 83f5 103d 3b32 e53d f777 cbbc e544 95bd
00000270: 3265 7f3d bcbd c0bd 5372 57bd e36c f7bd
00000280: d110 ff3c c200 f13d 89b3 99bd 906b b0bd
00000290: c648 9c3d 491e 023d 5728 1dbd 9431 8bbd
000002a0: 5e89 7f3d a268 c93d 6c47 4b3d a2e0 2ebd
000002b0: 2110 063d b08b 87bd f8a3 81bd b3d1 19be
000002c0: ec03 743d b586 003e 6716 e33b a10b 88bd
000002d0: a5f6 2d3d 235a 21bd 72e9 46bd 5986 04bd
000002e0: e646 423d c51c 183e 9563 59bd 7e62 abbd
000002f0: 7093 ae3d 5ec7 803d f6d2 fcbc ed22 733d
00000300: d0af 843d 713c 0b3e 865d 7a3c 80f8 3cbd
00000310: 0bdf 053e 36d4 3cbb 6934 8cbd 178c 78bd
00000320: fafd 743d d8ac 223e 58d2 37bd 7442 abbd
00000330: ab82 a03d 57cd 633c 155b 50bd a848 673d
00000340: 2a41 7b3d dc24 323e 9f8f adbd 0511 bdbc
00000350: 4b8a a53d dca8 783d 0961 22bd 9eb1 a63d
00000360: 8898 69bd 25dd 573c 4306 2cbd 95e1 2b3e
00000370: 5feb 28bd 540c 9cbd fa70 9c3c 8bbe 373e
00000380: e3a2 a5bd bc76 833d dcda 81bd 340e 12bd
00000390: df55 8d3d 3241 05be caab c73b 1f10 8b3d
000003a0: 2c84 fbbd 602c bfb9 e9a4 19be 77a4 3e3d
000003b0: 9413 a83b 0654 7d3d aa7f c5bb dac4 b03d
000003c0: 50ca 29bd 98d3 cebc f7c8 2c3c e08d 35bb
000003d0: 1266 53bd 1585 71be 2707 f43c df36 74be
000003e0: 9fa6 a2bd eb48 693d e5e7 f3bd a51f 3cbe
000003f0: 6ba9 173e 4910 c4bc 95f3 583b 4616 f9bd

conv2d_3/Conv2D_bias f4 [16]
0.76037693 -0.21073179 -0.10212817 -0.07811043 -0.094046235 0.8645555 1.943516 -1.238223
-0.78891224 1.7202796 0.30767697 -0.04910455 -1.431944 -1.469096 0.51785636 -0.99042815
00000000: 10a8 423f 13ca 57be 9328 d1bd 5cf8 9fbd
00000010: 509b c0bd 8253 5d3f 22c5 f83f 177e 9ebf
00000020: 27f6 49bf 1f32 dc3f d687 9d3e da21 49bd
00000030: f149 b7bf 560b bcbf 3c92 043f b38c 7dbf

conv2d_3/kernel f4 [16, 1, 1, 8]
0.076627634 -0.16446832 -0.44914082 -0.16087492 -0.34295705 -0.12388606 -0.27327985 0.55080014
-0.13012008 0.24605142 -0.63583916 -0.21017815 0.3568254 0.18854222 0.75227296 -0.63695914
0.12651064 -0.578092 -0.6991566 -0.12118306 -0.05154083 -0.71645087 0.024425216 0.8837837
0.09278422 -0.2168922 -0.29443687 -0.6569257 0.5319218 -0.16994219 0.80783665 -0.3937409
-0.111766085 0.12021858 0.40056637 -0.2735135 0.5035031 -0.48366535 -0.06515547 -0.385835
0.07255109 -0.12238356 -0.3832859 0.3317373 -0.52124155 -0.5358844 -0.18568261 -0.04112084
-1.0367002 -0.18853994 -0.665992 -0.21207847 -0.022056157 0.49981028 -0.44047984 -0.4037526
0.20694211 -0.17682447 0.5588491 -0.042107474 0.71509606 -0.041101236 -0.10286242 0.20318177
0.19712897 0.40670288 0.17938812 0.15762648 0.7271455 0.4985731 0.12874493 -0.44707105
0.12228723 -0.7231633 -0.5963539 0.02718356 -0.965654 0.13829075 -0.30263576 -0.3595701
0.06712607 -0.5579008 0.42566597 0.26449546 -0.66420454 0.7985664 -0.07620499 0.24459794
-0.23083776 0.047905102 -0.3089558 0.27763727 -0.15613016 -0.46741256 0.5623158 -0.3253632
0.9500967 -0.4018961 0.7057916 0.30744004 -0.08138157 -0.19229877 -0.010172262 0.41110423
0.4233875 0.70099574 0.5127478 0.32617807 -0.16138875 0.14142714 -0.09828611 0.48868325
-0.52327496 0.6751179 -0.5412124 -0.21347427 -0.1736473 0.20336775 0.40905026 -0.30057785
0.11008676 0.3462715 1.0376217 -0.22950934 0.10451812 0.19016437 -0.087062344 0.31881902
00000000: f3ee 9c3d 626a 28be c9f5 e5be 65bc 24be
00000010: 1198 afbe fab7 fdbd 56eb 8bbe 3d01 0d3f
00000020: 333e 05be e7f4 7b3e 5bc6 22bf f138 57be
00000030: d2b1 b63e 3611 413e f694 403f c10f 23bf
00000040: 018c 013e d6fd 13bf edfb 32bf d32e f8bd
00000050: 7a1c 53bd 5369 37bf 6417 c83c a63f 623f
00000060: a705 be3d fd18 5ebe 6ec0 96be 482c 28bf
00000070: 072c 083f 5305 2ebe 62ce 4e3f 6898 c9be
00000080: 9ee5 e4bd 2935 f63d 0917 cd3e f609 8cbe
00000090: 94e5 003f fca2 f7be 3b70 85bd 2a8c c5be
000000a0: aa95 943d 3ba4 fabd 0d3e c4be 79d9 a93e
000000b0: 1670 05bf b82f 09bf 9523 3ebe 536e 28bd
000000c0: 98b2 84bf 9d10 41be 747e 2abf 192b 59be
000000d0: 1daf b4bc 22e7 ff3e 9386 e1be a9b8 cebe
000000e0: a2e8 533e 7911 35be bc10 0f3f e378 2cbd
000000f0: 8910 373f c559 28bd 88a9 d2bd e20e 503e
00000100: 2ddc 493e 5c3b d03e 85b1 373e d668 213e
00000110: 3526 3a3f f944 ff3e b6d5 033e 7fe6 e4be
00000120: ba71 fa3d 3b21 39bf a6aa 18bf 0fb0 de3c
00000130: 1a35 77bf 179c 0d3e 13f3 9abe 9219 b8be
00000140: 6579 893d 96d2 0ebf e4f0 d93e f36b 873e
00000150: 4f09 2abf d96e 4c3f 5d11 9cbd e277 7a3e
00000160: bc60 6cbe 2438 443d 742f 9ebe 7926 8e3e
00000170: 96e0 1fbe b350 efbe eef3 0f3f 0196 a6be
00000180: 8a39 733f 53c5 cdbe c2ae 343f c868 9d3e
00000190: 61ab a6bd f8e9 44be 8fa9 26bc 417c d23e
000001a0: 3fc6 d83e 7574 333f 7143 033f d000 a73e
000001b0: 1843 25be 47d2 103e 3a4a c9bd b134 fa3e
000001c0: 59f5 05bf 87d4 2c3f e58c 0abf 0099 5abe
000001d0: 99d0 31be a33f 503e 096f d13e 57e5 99be
000001e0: 2b75 e13d 804a b13e cad0 843f 7f04 6bbe
000001f0: 990d d63d 73ba 423e be4d b2bd 3f3c a33e

conv2d_4/Conv2D_bias f4 [32]
0.19486165 -0.8205868 0.14450832 0.1184861 -0.88291186 0.006378509 -0.35967287 -0.22510071
-1.4640846 -0.033649225 0.17113553 -0.7789082 -0.0570477 -0.07180144 -0.61680365 0.054790393
-0.77289385 -0.7421537 0.05373616 0.77083504 0.3788786 0.6797996 0.6987307 0.67957807
0.19535886 1.153523 0.028963456 0.42159027 0.4638074 0.19057286 -1.2470745 -0.3855894
00000000: d089 473e fa11 52bf fdf9 133e d7a8 f23d
00000010: 8306 62bf d002 d13b 0b27 b8be cd80 66be
00000020: 2067 bbbf c5d3 09bd 273e 2f3e 8766 47bf
00000030: d9aa 69bd a20c 93bd d8e6 1dbf e46b 603d
00000040: 5fdc 45bf c9fd 3dbf 731a 5c3d 7255 453f
00000050: 60fc c13e 5907 2e3f 04e0 323f d4f8 2d3f
00000060: 270c 483e a4a6 933f c544 ed3c aeda d73e
00000070: 2a78 ed3e 8825 433e 23a0 9fbf f96b c5be

conv2d_4/kernel f4 [32, 1, 1, 16]
-0.038791295 -0.079140894 -0.13730514 -0.037596922 0.055443544 0.05597069 -0.023381902 -0.2765337
-0.09306049 0.065433905 -0.17433524 0.011789101 0.018021822 0.040594593 -0.031055303 -0.018053466
0.08064213 -0.05186611 0.048734184 -0.0074267117 0.09487427 0.06933387 0.13043015 0.0808726
0.049196746 -0.0059689097 -0.053868614 -0.10149557 0.086667486 -0.008779974 0.02975618 0.09856928
-0.11027986 -0.06497156 0.07685759 -0.063315034 -0.115071245 0.13860178 0.16108178 -0.07426191
-0.11179678 -0.040753208 -0.07288352 0.018616468 -0.39902508 0.073003635 0.020050451 0.09539787
-0.10170921 -0.13220869 -0.012736194 -0.048151564 0.061975744 0.08230449 0.108194485 -0.09203859
0.00543541 0.06661107 -0.15828755 0.15064976 0.027292656 0.14843585 -0.15772226 -0.010659278
0.1872609 0.10308074 0.10380396 -0.17483601 0.2750848 0.08990833 -0.07560535 0.08835655
0.022935485 0.12185166 -0.12751092 -0.09432255 -0.15071638 -0.08143655 0.008547594 0.14128828
0.10621183 0.097055 -0.15578772 -0.23818201 0.13374726 -0.17748074 -0.13542016 0.110675536
0.038055617 0.11612796 -0.08773668 0.011342952 0.21653791 -0.0534637 0.24018137 -0.27568305
0.20200366 0.043144286 0.1136229 -0.12355498 0.0082799 0.05483416 -0.013241608 0.01706124
0.06499883 -0.0014851401 0.002206821 -0.02868256 -0.00072041777 -0.18582644 0.14034392 0.07785713
-0.030156087 -0.3095103 -0.026600465 0.09551892 0.17069174 0.19785571 -0.14104211 -0.3270819
-0.07808773 -0.019383287 0.00024239032 0.08833626 -0.20136093 0.09539058 0.010528962 0.061693575
0.26697397 -0.14141391 -0.045401733 0.16586591 0.07870536 0.33941785 -0.01975768 -0.14823487
0.13102259 0.071011834 0.14826992 0.10758164 0.036535922 -0.10127886 -0.050098877 0.25755876
-0.07201342 0.043689992 -0.033105172 0.030783799 -0.0117143905 -0.0703369 -0.061272535 -0.016117599
0.0367721 -0.07834521 -0.05033562 0.10373263 -0.09111889 0.015734157 0.05156231 -0.12658377
0.04252407 0.05670139 0.10359127 0.0015607708 -0.095351316 0.07579516 -0.11373697 -0.016154736
-0.042058866 0.07280624 0.15560696 -0.05038174 -0.08460275 -0.16509503 -0.1292634 -0.06731718
0.033145864 0.06955855 -0.14179581 0.07927279 -0.02973746 -0.042161003 -0.11015758 -0.10628573
0.17052186 0.1532512 0.13670065 0.06745853 0.12809156 0.021432124 -0.19735855 0.15645738
0.029677408 0.010809303 -0.070100494 -0.058627985 -0.046692118 -0.10272573 0.060842734 0.07703828
0.080801904 -0.0067995256 0.035305843 -0.07066565 0.18554074 -0.116116956 -0.035371024 0.05068332
-0.043442015 0.06356325 -0.074025445 0.2148121 -0.14810248 -0.012941754 0.061819937 0.09125969
-0.05435302 0.00012311559 0.035190493 0.082703784 0.062159352 0.036725823 -0.047765095 0.13981931
0.094153404 0.01510357 0.028289475 -0.034483958 0.11597906 -0.12742533 0.013608203 0.09898659
0.11162862 -0.0037390057 -0.05559956 0.05306879 0.023951719 -0.073704675 -0.018237816 0.19486892
0.08438675 -0.12004793 0.010555495 -0.0669392 0.07186539 -0.04519999 -0.06558329 -0.16591007
-0.018863803 -0.0025664303 0.0050514666 0.14226514 -0.07639014 -0.078318395 -0.0115658855 -0.089160286
00000000: 9fe3 1ebd 9f14 a2bd b899 0cbe 3bff 19bd
00000010: c518 633d 8641 653d 678b bfbc d395 8dbe
00000020: 8096 bebd 3602 863d f084 32be 1327 413c
00000030: 80a2 933c 8446 263d b167 febc dde4 93bc
00000040: b327 a53d 8f71 54bd 7f9d 473d c65b f3bb
00000050: 714d c23d ebfe 8d3d 7b8f 053e 89a0 a53d
00000060: 8782 493d d896 c3bb 56a5 5cbd e9dc cfbd
00000070: b97e b13d e1d9 0fbc 3bc3 f33c b1de c93d
00000080: 68da e1bd cf0f 85bd 8367 9d3d 50ab 81bd
00000090: 79aa ebbd a0ed 0d3e 9ff2 243e a116 98bd
000000a0: b6f5 e4bd d6ec 26bd f443 95bd 9081 983c
000000b0: 044d ccbe ee82 953d d840 a43c f55f c33d
000000c0: eb4c d0bd b761 07be 78ab 50bc 933a 45bd
000000d0: 47da 7d3d 428f a83d 1295 dd3d ba7e bcbd
000000e0: 861b b23b 626b 883d 2216 22be ee43 1a3e
000000f0: d994 df3c 91ff 173e f281 21be 41a4 2ebc
00000100: 52c1 3f3e ff1b d33d 2c97 d43d 3608 33be
00000110: ead7 8c3e dc21 b83d fad6 9abd 47f4 b43d
00000120: 33e3 bb3c 5d8d f93d 3992 02be 2e2c c1bd
00000130: 6555 1abe 35c8 a6bd 350b 0c3c e0ad 103e
00000140: 9785 d93d c6c4 c63d d186 1fbe fce5 73be
00000150: 0bf5 083e 83bd 35be 95ab 0abe dba9 e23d
00000160: 35e0 1b3d 7fd4 ed3d 4aaf b3bd cad7 393c
00000170: 1dbc 5d3e c1fc 5abd 1bf2 753e 5426 8dbe
00000180: 0cda 4e3e 10b8 303d 1fb3 e83d 650a fdbd
00000190: 6ba8 073c c999 603d 54f3 58bc 03c4 8b3c
000001a0: 1b1e 853d 08a9 c2ba 50a0 103b b0f7 eabc
000001b0: 6bda 3cba 4949 3ebe 51b6 0f3e 8f73 9f3d
000001c0: e609 f7bc 2278 9ebe 38e9 d9bc 6c9f c33d
000001d0: d1c9 2e3e b09a 4a3e 586d 10be 4777 a7be
000001e0: 76ec 9fbd b3c9 9ebc 282a 7e39 a4e9 b43d
000001f0: 8f31 4ebe 235c c33d ab81 2c3c 67b2 7c3d
00000200: d0b0 883e cfce 10be 2bf7 39bd c1d8 293e
00000210: 4730 a13d 2dc8 ad3e dcda a1bc e2ca 17be
00000220: c92a 063e a76e 913d 12d4 173e c353 dc3d
00000230: b1a6 153d 4a6b cfbd 7b34 4dbd bede 833e
00000240: c67b 93bd 47f4 323d 4a99 07bd 4e2e fc3c
00000250: b7ed 3fbc cb0c 90bd e9f8 7abd 0e09 84bc
00000260: 579e 163d 7473 a0bd b92c 4ebd c671 d43d
00000270: 8a9c babd ebe4 803c 0033 533d 2d9f 01be
00000280: b82d 2e3d b73f 683d a927 d43d c792 cc3a
00000290: 8d47 c3bd 7e3a 9b3d eeee e8bd f056 84bc
000002a0: eb45 2cbd 701b 953d 6e57 1f3e 155d 4ebd
000002b0: 3544 adbd ac0e 29be a05d 04be 97dd 89bd
000002c0: f5c3 073d b774 8e3d ec32 11be c659 a23d
000002d0: f99b f3bc 04b1 2cbd 4c9a e1bd 55ac d9bd
000002e0: 489d 2e3e e2ed 1c3e 41fb 0b3e b327 8a3d
000002f0: 6f2a 033e 6c92 af3c 5c18 4abe 5d36 203e
00000300: 091e f33c 8119 313c d990 8fbd e623 70bd
00000310: 3c40 3fbd de61 d2bd 3b36 793d 3fc6 9d3d
00000320: 787b a53d 8ece debb dc9c 103d 27b9 90bd
00000330: 64fe 3d3e bace edbd 35e1 10bd 5099 4f3d
00000340: 41f0 31bd 732d 823d a79a 97bd b4f7 5b3e
00000350: 2da8 17be a709 54bc e736 7d3d 5ce6 ba3d
00000360: 46a1 5ebd 9718 0139 e823 103d 9a60 a93d
00000370: ce9a 7e3d d16d 163d 55a5 43bd cb2c 0f3e
00000380: 80d3 c03d f774 773c 54bf e73c 0d3f 0dbd
00000390: 6e86 ed3d c97b 02be f1f4 5e3c 7bb9 ca3d
000003a0: 8c9d e43d 1b0a 75bb 5dbc 63bd a95e 593d
000003b0: 6536 c43c 7af2 96bd 7967 95bc b88b 473e
000003c0: f6d2 ac3d b0db f5bd f4f0 2c3c 6b17 89bd
000003d0: 292e 933d a023 39bd 8850 86bd 54e4 29be
000003e0: 4388 9abc 8e31 28bb c686 a53b f4ad 113e
000003f0: 6f72 9cbd 6565 a0bd d77e 3dbc ab99 b6bd

conv2d_5/Conv2D_bias f4 [64]
-0.40376562 0.74295306 -0.6484653 -0.6212404 -0.9673315 -0.11371206 -0.10376524 -0.040105507
0.6748987 0.6355114 0.6192932 -0.25334814 0.33185694 -1.0552702 0.16336882 -0.90075856
0.14572687 -0.61869854 -0.7730075 0.66267776 -0.6239109 0.20256892 -0.5276352 0.23940511
-0.08556214 0.19699667 0.29824734 0.0978642 0.071053535 1.1512579 -0.35451177 0.0737948
-0.39982274 0.8040841 0.2058275 0.5477601 -0.230188 -0.09958559 0.6304167 -0.51339984
0.18049961 -0.29746574 0.37253556 0.16859953 -0.44923696 -0.92632484 0.20251633 0.31801248
-0.6630213 -0.0008827594 0.49335384 -0.3707546 0.31932274 0.32437575 -0.64582294 -0.9812038
-0.3159687 -7.926195e-05 -0.064351134 0.42287883 -0.26525313 0.8344121 -0.46839207 1.1340984
00000000: 5eba cebe 2c32 3e3f d201 26bf 9c09 1fbf
00000010: 0aa3 77bf dee1 e8bd df82 d4bd ac45 24bd
00000020: 29c6 2c3f e0b0 223f 008a 1e3f d9b6 81be
00000030: 27e9 a93e 1813 87bf 284a 273e 1d98 66bf
00000040: 6d39 153e 0763 1ebf d2e3 45bf 40a5 293f
00000050: a0b8 1fbf 3a6e 4f3e 1a13 07bf 9d26 753e
00000060: 343b afbd 7fb9 493e e0b3 983e 076d c83d
00000070: 8484 913d 6b5c 933f 9182 b5be ba21 973d
00000080: 91b5 ccbe 75d8 4d3f 72c4 523e 023a 0c3f
00000090: 67b6 6bbe 88f3 cbbd fd62 213f 2c6e 03bf
000000a0: e4d4 383e 6e4d 98be fbbc be3e 5ba5 2c3e
000000b0: 6302 e6be a023 6dbf 7160 4f3e 88d2 a23e
000000c0: c4bb 29bf fb68 67ba e098 fc3e 8cd3 bdbe
000000d0: 457e a33e 9414 a63e a754 25bf 2c30 7bbf
000000e0: a6c6 a1be 6f39 a6b8 87ca 83bd 9383 d83e
000000f0: 42cf 87be 089c 553f 16d1 efbe 232a 913f

conv2d_5/kernel f4 [64, 1, 1, 32]
-0.040177386 0.026181016 0.005105779 0.00035305417 0.013369398 0.020039404 0.015253378 0.03989972
-0.018053455 0.036419462 0.022985449 0.0135574145 0.0376271 0.0019408728 0.023561796 -0.039301008
-0.01853282 0.023275798 -0.020121451 -0.012363331 0.006527399 0.027187059 0.01923314 0.0049702665
0.027785424 0.021180158 -0.043294206 0.035760615 -0.013609534 -0.04494671 0.0049520023 0.0046717953
0.03210277 -0.06565984 0.010618198 -0.10726929 -0.0045586294 -0.14026193 -0.020244587 -0.07149868
0.0056970767 -0.10823022 0.021422697 0.008656041 -0.07716168 -0.06285624 -0.040256746 0.026020542
-0.0419855 -0.013530197 0.113308825 0.0048755207 0.0075147743 -0.090729475 -0.03726975 -0.14439274
0.0032961946 0.018337075 0.041676976 -0.1284767 -0.023247045 -0.061722394 -0.036464337 -0.027243156
0.06395512 0.06851433 0.01924998 -0.04437028 0.01310627 0.026141224 -0.030146472 0.008695216
0.10317955 -0.039527826 0.051786903 0.06393742 0.03900993 0.0012840668 0.035374302 0.04229255
-0.0143182315 0.063526526 0.0070925876 -0.039805647 -0.023442011 0.0365005 -0.078174256 0.0803977
0.08192142 -0.0222896 0.051006965 0.0245844 0.023103455 -0.013968882 0.06151684 -0.031832185
0.047172647 0.030956233 -0.026190415 0.10049102 0.03809086 -0.016256893 0.059138097 0.10268018
0.068199 -0.005905158 0.028798936 0.014735392 -0.0009595197 -0.043237086 -0.03203401 0.014215073
0.020266894 -0.05880314 0.0591596 -0.031470362 0.06981882 0.017311761 -0.050834823 0.06082498
-0.071410224 0.02686475 0.008442997 0.06601268 -0.021420388 0.031419463 -0.053576995 0.062524855
0.02504883 0.08631307 0.040702183 0.001105546 -0.0071847606 -0.0030905441 0.057795364 0.03661402
0.05990595 0.047579776 0.031424418 0.052104298 -0.051869627 0.060557958 0.106349856 -0.023124829
0.081894234 -0.00095504796 0.017438577 0.02957032 0.03217757 0.03965668 -0.02900908 0.0053083072
0.009021465 0.056379758 0.040404964 0.032203376 -0.016510835 -0.051846456 0.023298055 0.015624692
-0.01095235 0.0071122493 0.07698875 -0.04225956 0.048701067 0.077433586 0.025844222 -0.062300436
0.013932484 0.03197319 0.060982604 -0.06195126 -0.06219348 0.010057886 0.017357435 0.0100535825
-0.03004074 -0.036539104 -0.07235347 -0.024556184 0.02531856 -0.00081574393 -0.055896387 -0.027190456
-0.08248778 0.045993693 -0.10361128 -0.039586402 -0.015232208 0.023282649 -0.081064016 0.06903416
-0.007854303 -0.0555302 -0.04596417 -0.046731327 -0.14592293 -0.020050276 -0.08888231 0.028241163
-0.07390496 -0.044724844 0.0630974 0.06226761 0.02421914 -0.024361717 -0.020914022 0.04276103
0.057585474 -0.09219141 -0.002428126 -0.053024273 0.049674988 -0.07170299 0.054727525 0.082478076
-0.13366751 0.13759261 0.082248665 0.01658584 0.07370882 -0.041646153 0.118396245 0.06377983
0.054349903 -0.0067713666 -0.09509003 0.0034626494 -0.122637555 -0.0074905674 -0.050160665 0.102644295
0.047302887 -0.064884454 0.13893993 0.09142854 -0.029011624 0.15236637 -0.0750152 0.05224625
0.07232598 0.15074618 0.016069803 -0.11201313 0.058778446 0.09117011 -0.025772756 -0.07608193
0.19570127 0.007216376 -0.037152108 -0.07208997 -0.041927844 -0.10739292 0.05389736 -0.15015662
00000000: 0b91 24bd 9279 d63c 614e a73b 211a b939
00000010: 520b 5b3c ad29 a43c 4ee9 793c e46d 233d
00000020: d7e4 93bc 932c 153d fb4b bc3c eb1f 5e3c
00000030: e01e 1a3d e264 fe3a ab04 c13c 18fa 20bd
00000040: 24d2 97bc e3ac be3c bed5 a4bc 928f 4abc
00000050: cbe3 d53b 65b7 de3c d18e 9d3c 9edd a23b
00000060: 429e e33c 0382 ad3c 4455 31bd b979 123d
00000070: 86fa 5ebc 0b1a 38bd 6844 a23b dc15 993b
00000080: 327e 033d ab78 86bd f3f7 2d3c 00b0 dbbd
00000090: 8e60 95bb d3a0 0fbe fad7 a5bc e66d 92bd
000000a0: 8bae ba3b cea7 ddbd a77e af3c 11d2 0d3c
000000b0: f106 9ebd c6ba 80bd 42e4 24bd 0829 d53c
000000c0: fdf8 2bbd c2ad 5dbc 750e e83d d5c2 9f3b
000000d0: 7f3e f63b 60d0 b9bd 2aa8 18bd b1db 13be
000000e0: f804 583b a237 963c 7ab5 2a3d 658f 03be
000000f0: 9670 bebc 9fd0 7cbd a15b 15bd 0a2d dfbc
00000100: e7fa 823d 3e51 8c3d 22b2 9d3c 9cbd 35bd
00000110: aebb 563c 1f26 d63c bcf5 f6bc 6176 0e3c
00000120: cd4f d33d eee7 21bd 811e 543d 9ff1 823d
00000130: e0c8 1f3d 224e a83a a5e4 103d f43a 2d3d
00000140: 0497 6abc 321a 823d f068 e83b 3f0b 23bd
00000150: 7609 c0bc 8c81 153d d319 a0bd 8da7 a43d
00000160: 6bc6 a73d ae98 b6bc aeec 503d 3965 c93c
00000170: 7543 bd3c bddd 64bc 15f9 7b3d 7762 02bd
00000180: 1b38 413d ed97 fd3c 488d d6bc 3cce cd3d
00000190: 2905 1c3d 2d2d 85bc ca3a 723d fc49 d23d
000001a0: ebab 8b3d 0e80 c1bb bfeb eb3c b76c 713c
000001b0: 4788 7bba 5f19 31bd 1836 03bd 56e6 683c
000001c0: c206 a63c 90db 70bd 5651 723d 11e7 00bd
000001d0: 2bfd 8e3d 65d1 8d3c 2d38 50bd 9d23 793d
000001e0: 863f 92bd 7713 dc3c 7f54 0a3c a831 873d
000001f0: cf79 afbc b2b1 003d 8d73 5bbd 080d 803d
00000200: 3433 cd3c e8c4 b03d 55b7 263d f8e7 903a
00000210: 246e ebbb ba8a 4abb d5ba 6c3d 95f8 153d
00000220: f15f 753d 03e3 423d e4b6 003d 516b 553d
00000230: 3f75 54bd 9f0b 783d f4cd d93d 4870 bdbc
00000240: 2ab8 a73d 2f5c 7aba 59db 8e3c 753d f23c
00000250: a1cc 033d 0b6f 223d 73a4 edbc 4ff1 ad3b
00000260: c4ce 133c 76ee 663d ad7f 253d b0e7 033d
00000270: bb41 87bc f35c 54bd 90db be3c b5fe 7f3c
00000280: 7c71 33bc df0d e93b 47ac 9d3d 5c18 2dbd
00000290: c57a 473d 8095 9e3d 43b7 d33c be2e 7fbd
000002a0: 1345 643c 52f6 023d e5c8 793d 9bc0 7dbd
000002b0: 97be 7ebd d5c9 243c 2e31 8e3c c8b7 243c
000002c0: ff17 f6bc 07aa 15bd 0e2e 94bd 0d2a c9bc
000002d0: de68 cf3c a6d7 55ba 9cf3 64bd 85be debc
000002e0: 5aef a8bd e263 3c3d 2732 d4bd 5a25 22bd
000002f0: 8390 79bc 41bb be3c e404 a6bd c861 8d3d
00000300: 56af 00bc a373 63bd ed44 3cbd 5969 3fbd
00000310: d26c 15be 7a40 a4bc ee07 b6bd 035a e73c
00000320: 7c5b 97bd 6631 37bd 3639 813d 520c 7f3d
00000330: 3867 c63c 3992 c7bc e253 abbc 3126 2f3d
00000340: bfde 6b3d dace bcbd 3221 1fbb fb2f 59bd
00000350: 0078 4b3d 04d9 92bd f829 603d 44ea a83d
00000360: 23e0 08be 14e5 0c3e fd71 a83d 07df 873c
00000370: a6f4 963d 2895 2abd bb79 f23d 009f 823d
00000380: 019e 5e3d 57e2 ddbb 90be c2bd 9eed 623b
00000390: 6629 fbbd 6f73 f5bb 4575 4dbd 2c37 d23d
000003a0: acc0 413d 24e2 84bd 4546 0e3e e33e bb3d
000003b0: c9a9 edbc ee05 1c3e 92a1 99bd 2a00 563d
000003c0: a51f 943d 355d 1a3e d2a4 833c 2467 e5bd
000003d0: abc1 703d 65b7 ba3d 6321 d3bc d8d0 9bbd
000003e0: ea65 483e 5977 ec3b cf2c 18bd e8a3 93bd
000003f0: 88bc 2bbd d2f0 dbbd 7ac3 5c3d a8c2 19be

conv2d_6/Conv2D_bias f4 [128]
-0.106479265 -0.107425556 -0.032452654 -0.2620733 -0.43939096 -0.2923182 -0.65927297 -0.30003113
-0.40711492 -0.5470709 0.17846225 -0.566246 -0.37338606 -0.2180322 -0.22305542 -0.43942013
-0.059543204 -0.16993454 -0.22907846 -0.58848006 -0.32280338 -0.3883038 -0.37015525 -0.50881946
-0.37563244 -0.26765963 -0.34372896 0.010809631 -0.13254988 -0.3185535 -0.20670289 -0.11176998
-0.009785451 -0.18445167 -0.2083642 -0.5447986 0.25574863 -0.5323544 -0.03665098 -0.32094425
-0.55901617 -0.8593708 0.035848744 -0.2568062 -0.27268523 -0.05599544 0.09165828 -0.15181728
-0.3863141 -0.06901365 -0.3760819 -0.262661 -0.09431297 -0.24944797 -0.3427829 -0.23638824
-0.18659692 -0.3033293 -0.3610179 -0.5539796 -0.39463598 0.035038505 0.033665854 -0.19152635
-0.19504778 -0.4735468 -0.3021957 -0.24720767 -0.31651425 -0.1874871 -0.4312318 0.113596916
0.12904824 -0.17325394 0.11718282 -0.28341734 -0.07785882 -0.23942532 -0.15261766 -0.30035722
-0.36545095 -0.18416296 0.028465502 -0.06905339 -0.0842591 -0.6395639 -0.22838126 -0.2603651
-0.027798828 -0.090446815 -0.4840603 -0.382856 -0.2273829 -0.34328166 -0.26318657 -0.11741857
-0.543651 -0.061140645 -0.056586966 -0.27418086 -0.55404514 0.2567751 -0.13274014 0.31405088
-0.1239838 -0.3328669 -0.5399482 0.024620138 -0.43105242 -0.01050842 -0.17916542 -0.2976125
-0.38442025 -0.118602075 -0.24686714 -0.35255128 -0.32260928 -0.33677566 -0.24794427 -0.32945392
-0.36244303 -0.10076896 -0.17484856 -0.38418823 0.0056081503 0.15853699 -0.3399811 -0.3299966
00000000: cd11 dabd ee01 dcbd 13ed 04bd 792e 86be
00000010: daf7 e0be bbaa 95be 1dc6 28bf ae9d 99be
00000020: 5e71 d0be d70c 0cbf cfbe 363e 7ff5 10bf
00000030: 752c bfbe d543 5fbe a468 64be adfb e0be
00000040: 93e3 73bd 5203 2ebe 8b93 6abe a1a6 16bf
00000050: 7c46 a5be c1cf c6be fd84 bdbe fe41 02bf
00000060: e552 c0be af0a 89be 3efd afbe e11a 313c
00000070: 28bb 07be 7219 a3be eca9 53be a9e7 e4bd
00000080: 2853 20bc e6e0 3cbe 6d5d 55be ec77 0bbf
00000090: 7cf1 823e 6148 08bf 571f 16bd ce52 a4be
000000a0: af1b 0fbf baff 5bbf 22d6 123d 1a7c 83be
000000b0: 669d 8bbe 795b 65bd 56b7 bb3d fd75 1bbe
000000c0: f6ca c5be 0757 8dbd cf8d c0be 817b 86be
000000d0: 2927 c1bd 4a6f 7fbe 3e81 afbe c20f 72be
000000e0: 4313 3fbe fa4d 9bbe 57d7 b8be 9bd1 0dbf
000000f0: ba0d cabe 8984 0f3d 35e5 093d 7c1f 44be
00000100: 9bba 47be ba74 f2be 65b9 9abe 0224 7dbe
00000110: 280e a2be 9efc 3fbe 6aca dcbe 80a5 e83d
00000120: 3925 043e 7b69 31be 8cfd ef3d 141c 91be
00000130: 7274 9fbd e92b 75be ce47 1cbe 6cc8 99be
00000140: 631c bbbe 3795 3cbe 7c30 e93c dd6b 8dbd
00000150: 0990 acbd 76ba 23bf c7dc 69be 934e 85be
00000160: 5eba e3bc 2e3c b9bd c0d6 f7be b405 c4be
00000170: 10d7 68be 9dc2 afbe 64c0 86be 2679 f0bd
00000180: b62c 0bbf 9d6e 7abd bcc7 67bd 6f61 8cbe
00000190: e7d5 0dbf 0778 833e 08ed 07be 47cb a03e
000001a0: 38eb fdbd 886d aabe 0c3a 0abf 2cb0 c93c
000001b0: e7b2 dcbe 822b 2cbc 2477 37be aa60 98be
000001c0: bbd2 c4be a5e5 f2bd bdca 7cbe 9a81 b4be
000001d0: 0b2d a5be dc6d acbe 1ae5 7dbe 2fae a8be
000001e0: 2292 b9be f55f cebd 800b 33be 52b4 c4be
000001f0: 93c4 b73b 8557 223e 0112 aebe 50f5 a8be

conv2d_6/kernel f4 [128, 1, 1, 64]
-0.0050744093 0.014375347 -0.0029298852 -0.040144548 -0.025337555 0.0073624034 0.006585718 -0.017282333
0.0150459325 0.017182035 -0.0024116193 0.031954676 -0.014646995 -8.766173e-05 0.019575108 -0.032512788
-0.016737372 -0.01773768 -0.019024834 0.038449094 -0.0002153997 -0.016299881 -0.03595487 0.004765984
0.0110836625 -0.004279841 0.01648193 -0.028870372 0.008061887 0.00036767946 -0.021503013 -0.010128421
-0.021373892 0.004265949 -0.00041107694 -0.007069301 -0.012988996 0.004436776 -0.0023214333 -0.005721208
0.0024657499 -0.008186602 0.025708737 0.0169305 0.0053141164 -0.025204701 -0.017344527 -0.0022595215
-0.01769792 0.0022711572 0.0073038116 -0.018047098 -0.009789998 -0.009503572 -0.015150371 -0.02788777
-0.019422952 -0.015760966 0.0035332916 0.020417169 0.015912864 -0.020205209 -0.007989507 -0.022748707
0.02577729 -0.017298164 0.01812119 0.0049374085 0.0051766215 -0.04082611 -0.011205596 0.00304242
0.0041953796 0.00035369906 0.03703045 0.011810318 -0.00066332705 -0.012587036 -0.010337847 0.024730867
-0.034383144 -0.009653939 -0.06715224 0.016698819 -0.03912346 -0.015326672 -0.034242734 0.01608948
-0.082482085 -0.010622127 0.026376821 -0.024198502 -0.006041662 0.046834208 0.02479565 0.015339722
-0.044756744 0.0037245038 0.0015333665 0.020837847 0.004854775 -0.0118363425 0.026001057 0.0069258423
-0.0118454145 -0.0048535485 0.021554478 5.55026e-05 -0.03422859 -0.036483247 -0.0056812703 0.030405195
-0.014854785 -0.016499387 0.005793653 -0.020120036 -0.015249403 -0.04112514 -0.016005736 -0.010771399
-0.01142133 -0.025464855 0.009873764 -0.029429395 0.012650371 0.04271273 -0.029235657 -0.046197776
-0.017261898 -0.02139975 0.022790419 -0.009052576 -0.024697144 -0.022862846 -0.012989745 0.009561842
-0.020960344 -0.0079096155 0.0036545377 0.00022369863 0.007291733 -0.038400065 -0.017543858 -0.004718188
0.0055445405 -0.009266216 -0.04105399 0.026599893 -0.022562316 -0.013120324 -0.034869105 -0.037811846
-0.012862131 -0.012450361 0.026870705 -0.012756706 -0.024398318 0.016193675 -0.0055478695 0.02030138
-0.035845798 0.011118629 0.010993604 -0.001670763 0.005506609 -0.009238116 0.0076295747 0.0177366
0.0070280014 0.017800149 -0.009212676 -0.009963999 -0.036047388 0.0030276717 -0.013731226 -0.005384219
-0.0609892 -0.009561907 0.015679205 0.01567606 0.035285994 0.00662883 -0.06304028 -0.02865422
-0.014343855 0.02189425 -0.0034949197 0.019226843 -0.0052613043 0.02167967 -0.002690195 -0.027603792
0.037981994 0.028840175 -0.03926136 -0.018946227 -0.016524965 0.017100623 0.021682376 0.006085871
-0.015466442 -0.013787589 0.02379611 -0.017351283 -0.007648307 -0.01589067 -0.031200655 0.015511681
-0.0014053296 -0.0050487258 -0.045799013 0.011459923 -0.0025103386 0.021093564 -0.008126028 -0.01349502
-0.0059086126 -0.014925781 0.011672035 -0.020577356 0.0043229805 0.011102284 -0.017635321 -0.008701444
-0.0001652385 -0.0015993529 0.019420791 0.027843036 -0.0019206011 0.02482408 -0.00074472977 0.012542416
-0.005047615 0.008216829 0.010270973 -0.019078366 -0.022340363 -0.021104675 -0.0027285651 0.0053720195
-0.029344948 -0.007134711 -0.021729816 0.008361819 0.0015143316 -0.011352648 0.010458215 -0.05360076
0.0002976728 0.0061064935 0.0036082917 0.024609195 -0.0035584802 0.025528723 -0.019686732 0.0044574193
00000000: 3b47 a6bb 9386 6b3c 5103 40bb 9c6e 24bd
00000010: b490 cfbc 5140 f13b 02cd d73b ae93 8dbc
00000020: 3783 763c 57c1 8c3c 420c 1ebb e8e2 023d
00000030: f3f9 6fbc 08d7 b7b8 fa5b a03c 212c 05bd
00000040: d01c 89bc 9c4e 91bc f8d9 9bbc cc7c 1d3d
00000050: ebdc 61b9 5487 85bc 6a45 13bd f92b 9c3b
00000060: 4098 353c e93d 8cbb 1d05 873c 8f81 ecbc
00000070: 0116 043c 1ac5 c039 1627 b0bc adf1 25bc
00000080: 4d18 afbc 60c9 8b3b d085 d7b9 98a5 e7bb
00000090: cccf 54bc 6062 913b 3023 18bb f978 bbbb
000000a0: 6b98 213b 1921 06bc 219b d23c d5b1 8a3c
000000b0: 0a22 ae3b 177a cebc 1c16 8ebc 7b14 14bb
000000c0: 3afb 90bc b2d7 143b d054 ef3b 82d7 93bc
000000d0: 3a66 20bc dfb4 1bbc 4339 78bc e574 e4bc
000000e0: e21c 9fbc 241d 81bc cc8e 673b e841 a73c
000000f0: b25b 823c 6585 a5bc 6ce6 02bc 7f5b babc
00000100: e52a d33c e1b4 8dbc e472 943c fcc9 a13b
00000110: a6a0 a93b 4739 27bd ad97 37bc 5663 473b
00000120: 6579 893b af70 b939 3ead 173d 1080 413c
00000130: 20e3 2dba db39 4ebc 1360 29bc 6398 ca3c
00000140: 57d5 0cbd 8e2b 1ebc 1d87 89bd f6cb 883c
00000150: ec3f 20bd b91c 7bbc 1c42 0cbd 16ce 833c
00000160: 5eec a8bd 6e08 2ebc 3414 d83c f03b c6bc
00000170: 22f9 c5bb 3ad5 3f3d 3f20 cb3c 7553 7b3c
00000180: d952 37bd ce16 743b 3efb c83a 22b4 aa3c
00000190: ce14 9f3b 38ed 41bc 2b00 d53c 2df2 e23b
000001a0: 4513 42bc 840a 9fbb 0493 b03c 77cb 6838
000001b0: 4733 0cbd 756f 15bd f329 babb 5114 f93c
000001c0: 7c61 73bc b929 87bc afd8 bd3b c6d2 a4bc
000001d0: a2d8 79bc d672 28bd 761e 83bc 867a 30bc
000001e0: 8820 3bbc ac9b d0bc 91c5 213c ea15 f1bc
000001f0: 8043 4f3c 8bf3 2e3d 9e7f efbc e139 3dbd
00000200: d368 8dbc 874e afbc f9b2 ba3c 4151 14bc
00000210: aa51 cabc dd4a bbbc f0d2 54bc 46a9 1c3c
00000220: 07b5 abbc 5597 01bc f880 6f3b a590 6a39
00000230: 7def ee3b 6349 1dbd 23b8 8fbc 089b 9abb
00000240: faae b53b 54d1 17bc 3b28 28bd 05e8 d93c
00000250: 9bd4 b8bc a1f6 56bc e8d2 0ebd 98e0 1abd
00000260: b0bb 52bc 99fc 4bbc f41f dc3c 8101 51bc
00000270: fbde c7bc 99a8 843c e7ca b5bb 144f a63c
00000280: 0bd3 12bd e92a 363c 841e 343c 81fd daba
00000290: c970 b43b 785b 17bc 8301 fa3b 594c 913c
000002a0: 264b e63b 9ed1 913c c4f0 16bc 0a40 23bc
000002b0: 6da6 13bd e76b 463b f0f8 60bc 1a6e b0bb
000002c0: d0cf 79bd 8ba9 1cbc ad71 803c 156b 803c
000002d0: 0c88 103d a836 d93b 431b 81bd 41bc eabc
000002e0: 7d02 6bbc 925b b33c 060b 65bb 9d81 9d3c
000002f0: 0567 acbb 9099 b13c fc4d 30bb 5921 e2bc
00000300: 0293 1b3d 3b42 ec3c 85d0 20bd 1e35 9bbc
00000310: 5d5f 87bc 9b16 8c3c 3d9f b13c fc6b c73b
00000320: f666 7dbc 57e5 61bc 0ff0 c23c 4724 8ebc
00000330: a69e fabb 262d 82bc 8498 ffbc b524 7e3c
00000340: 0933 b8ba c86f a5bb bf97 3bbd 67c2 3b3c
00000350: 7e84 24bb 69cc ac3c 0823 05bc 371a 5dbc
00000360: 099d c1bb 438b 74bc 103c 3f3c d891 a8bc
00000370: caa7 8d3b 5be6 353c f377 90bc 8090 0ebc
00000380: df43 2db9 61a1 d1ba 5a18 9f3c 1417 e43c
00000390: aebc fbba de5b cb3c f839 43ba b57e 4d3c
000003a0: 7766 a5bb e19f 063c 9547 283c 3c4a 9cbc
000003b0: 2303 b7bc b6e3 acbc bad1 32bb c407 b03b
000003c0: d164 f0bc 4bca e9bb ba02 b2bc 0300 093c
000003d0: 897c c63a 7500 3abc ef58 2b3c 788c 5bbd
000003e0: f810 9c39 fb18 c83b 1779 6c3b 3999 c93c
000003f0: 6435 69bb 9d21 d13c 1246 a1bc 8b0f 923b

conv2d_7/Conv2D_bias f4 [7]
0.019427938 -0.15980875 0.044900972 0.012828896 0.047817636 -0.06362338 -0.022297252
00000000: 5727 9f3c e8a4 23be 15ea 373d 4a30 523c
00000010: 6ddc 433d fa4c 82bd baa8 b6bc

conv2d_7/kernel f4 [7, 3, 3, 128]
-0.012063387 0.1134087 -0.014900648 0.07494546 -0.008233521 0.039758373 -0.050129976 -0.08837753
-0.0029046559 -0.06374372 0.03776087 -0.032869246 0.031114532 -0.118675016 -0.06463848 0.032398935
0.057944503 -0.0849971 -0.049853675 0.018635966 -0.008862437 0.04231008 0.0071491934 -0.12321383
0.28011373 0.0742122 0.038759097 -0.101562545 -0.061338644 -0.14781208 0.06651235 -0.04563635
-0.0573241 0.14608413 -0.045895685 -0.18694437 -0.036553156 -0.11223842 0.029108822 0.0014110014
-0.097357646 0.035346434 -0.060002252 0.1531567 -0.05364836 0.07609031 0.08744011 0.23701215
-0.09160874 0.03734393 0.02569186 0.031057395 0.03090029 0.053347446 0.093235865 0.07800594
0.0010013729 0.034782268 0.002078021 0.16072887 0.07618813 0.12413595 -0.033156265 -0.05774997
-0.008415566 -0.05845917 0.15435526 0.10100012 0.05132048 -0.0050656665 -0.051295962 0.0011256245
-0.12776443 0.016459987 -0.08791862 -0.12766054 0.0040434357 -0.015079851 -0.034365367 0.06435333
0.07661055 0.03785037 0.05020445 -0.034015086 0.012538716 0.018581016 -0.050634954 0.09690921
-0.012012019 0.085129365 -0.12843813 -0.012721604 -0.036885895 -0.03588444 -0.047659285 -0.0574854
0.024001839 0.08497201 -0.06730204 0.045941357 0.041467868 -0.10921939 -0.015141736 -0.097632125
0.016063396 -0.024032718 -0.020134374 0.07945236 0.008440316 0.025514869 0.008511168 -0.04987308
0.04598913 0.113202795 -0.14117327 -0.02262315 0.13409954 -0.10473611 -0.010088369 0.105399854
-0.23360245 -0.07047826 -0.029295972 -0.093276985 -0.12748328 0.09158479 0.036401484 -0.15726598
-0.05203259 0.090851314 0.04805739 0.06864681 -0.03593182 -0.036112275 -0.07249416 -0.13571769
-0.019766618 -0.036079045 0.0459662 -0.061976835 0.010518215 -0.034803286 -0.027995735 0.048537884
-0.04185675 0.050943866 -0.06339472 0.02164209 0.1197546 0.005749055 -0.015330511 0.011930449
0.21191719 0.050043933 -0.035499785 -0.042020608 -0.06803882 -0.04434045 0.09717829 0.018347764
-0.00845602 -0.006856699 -0.030636285 -0.061563328 0.062814586 -0.03339353 0.036612004 0.019245923
-0.09945875 0.06404772 -0.11565305 0.13566595 -0.009867911 -0.0076576266 0.13826391 0.09017651
-0.10662588 0.045778487 0.014551201 -0.060628567 0.057696823 -0.0017055348 0.14283687 0.020446371
0.075966746 0.0010555221 -0.05120412 0.076431185 0.11487291 0.1695792 0.05373799 -0.024839776
-0.01106164 -0.012618072 -0.014008557 -0.00044290652 0.04307188 -0.06913981 -0.00901383 0.03827873
-0.07028575 0.10638138 -0.10637821 0.037307173 0.030736804 0.025802387 -0.1367576 0.07156935
0.044275783 0.042467296 0.02148764 -0.052984502 0.011149139 -0.067430705 0.092780136 0.06037953
0.0076311976 -0.0006050237 -0.09261194 -0.008393751 -0.03370751 0.07702522 0.067428514 0.05555098
0.07960784 -0.00927872 -0.0825229 -0.12586755 0.044921238 0.013973327 0.014856719 -0.13459069
0.02314094 0.11829466 -0.018458301 0.0499325 -0.010489437 0.0018355156 -0.00026950237 -0.037703976
-0.023172617 0.08120206 -0.13947049 0.009580825 0.079495504 -0.04891354 -0.059613023 0.025472833
-0.14820366 -0.086403646 0.03966723 -0.03462104 -0.07379699 -0.05449038 0.10097494 -0.08784016
00000000: 83a5 45bc d242 e83d d921 74bc 017d 993d
00000010: e4e5 06bc add9 223d 1755 4dbd 47ff b4bd
00000020: 0a5c 3ebb 118c 82bd 24ab 1a3d e7a1 06bd
00000030: e7e3 fe3c e30b f3bd 2e61 84bd bfb4 043d
00000040: 3757 6d3d f612 aebd 5e33 4cbd 74aa 983c
00000050: c133 11bc 564d 2d3d c843 ea3b 8857 fcbd
00000060: 116b 8f3e 91fc 973d dcc1 1e3d 0600 d0bd
00000070: 3b3e 7bbd 0d5c 17be a137 883d 2eed 3abd
00000080: adcc 6abd 1497 153e 1dfd 3bbd 586e 3fbe
00000090: c3b8 15bd 42dd e5bd a075 ee3c 5af1 b83a
000000a0: 7263 c7bd 6cc7 103d ecc4 75bd 1cd5 1c3e
000000b0: 62be 5bbd 3dd5 9b3d cd13 b33d 50b3 723e
000000c0: 5d9d bbbd f3f5 183d bc77 d23c 146c fe3c
000000d0: 9b22 fd3c da82 5a3d 72f2 be3d 94c1 9f3d
000000e0: 8040 833a da77 0e3d 682f 083b 1c96 243e
000000f0: 8608 9c3d fd3a fe3d ddce 07bd 3c8b 6cbd
00000100: 71e1 09bc e272 6fbd 4e0f 1e3e 27d9 ce3d
00000110: 6c35 523d e4fd a5bb b71b 52bd b189 933a
00000120: aed4 02be 18d7 863c ad0e b4bd 72b9 02be
00000130: cc7e 843b 7b11 77bc b3c2 0cbd aecb 833d
00000140: fee5 9c3d fd08 1b3d 2ea3 4d3d 6753 0bbd
00000150: 306f 4d3c 3737 983c 9966 4fbd 5678 c63d
00000160: 0fce 44bc 4e58 ae3d 4985 03be 466e 50bc
00000170: aa15 17bd 90fb 12bd 6236 43bd d075 6bbd
00000180: 819f c43c ce05 ae3d a7d5 89bd 012d 3c3d
00000190: 36da 293d 6aae dfbd 0b15 78bc 5af3 c7bd
000001a0: 6297 833c 43e0 c4bc d8f0 a4bc ebb7 a23d
000001b0: 4049 0a3c 8f04 d13c 6d72 0b3c b747 4cbd
000001c0: 195f 3c3d ded6 e73d ba8f 10be 2f54 b9bc
000001d0: 6451 093e e37f d6bd b049 25bc e1db d73d
000001e0: 7b35 6fbe e856 90bd 1bfe efbc 0108 bfbd
000001f0: fa8a 02be ce90 bb3d b919 153d 550a 21be
00000200: 2020 55bd 4110 ba3d d3d7 443d b396 8c3d
00000210: 3e2d 13bd 77ea 13bd d177 94bd 94f9 0abe
00000220: 9aed a1bc 9fc7 13bd 0e47 3c3d 6cdb 7dbd
00000230: 9754 2c3c e48d 0ebd 5057 e5bc a9cf 463d
00000240: fc71 2bbd 84aa 503d 17d5 81bd c14a b13c
00000250: e641 f53d 9262 bc3b d32c 7bbc ee77 433c
00000260: d200 593e defa 4c3d 3968 11bd cd1d 2cbd
00000270: f057 8bbd 559e 35bd 6905 c73d 0d4e 963c
00000280: 1e8b 0abc 29ae e0bb f2f8 fabc d429 7cbd
00000290: efa4 803d a7c7 08bd 78f6 153d a0a9 9d3c
000002a0: 07b1 cbbd 732b 833d 82db ecbd 04ec 0a3e
000002b0: 05ad 21bc d4ec fabb 0e95 0d3e 76ae b83d
000002c0: ab5e dabd 3982 3b3d 2968 6e3c a955 78bd
000002d0: 8153 6c3d 408c dfba d443 123e 267f a73c
000002e0: 7494 9b3d 7259 8a3a 69bb 51bd f487 9c3d
000002f0: 7d42 eb3d 2ba6 2d3e 5e1c 5c3d c97c cbbc
00000300: e23b 35bc 08bc 4ebc 2684 65bc e835 e8b9
00000310: 246c 303d 2c99 8dbd beae 13bc 28ca 1c3d
00000320: faf1 8fbd 7bde d93d d2dc d9bd 68cf 183d
00000330: c0cb fb3c 875f d33c 2f0a 0cbe f492 923d
00000340: 865a 353d 30f2 2d3d d906 b03c 4706 59bd
00000350: e1aa 363c 1c19 8abd 8303 be3d 8750 773d
00000360: 200f fa3b 749a 1eba 54ab bdbd f285 09bc
00000370: e310 0abd 66bf 9d3d f617 8a3d 6d89 633d
00000380: 6f09 a33d c605 18bc c401 a9bd 6ce3 00be
00000390: 55ff 373d 62f0 643c 9969 733c 24d2 09be
000003a0: 1292 bd3c 7844 f23d dd35 97bc 0586 4c3d
000003b0: e3db 2bbc af95 f03a ff4b 8db9 7c6f 1abd
000003c0: 80d4 bdbc 444d a63d 5ad1 0ebe e5f8 1c3c
000003d0: 8ace a23d 9059 48bd c92c 74bd 67ac d03c
000003e0: b3c2 17be 65f4 b0bd 1b7a 223d cbce 0dbd
000003f0: e022 97bd 4e31 5fbd f3cb ce3d 8be5 b3bd

separable_conv2d_1/depthwise_kernel f4 [1, 3, 3, 8]
-0.31255946 0.104930535 -0.12391859 0.13967367 -0.2805156 0.037345964 0.15695173 -0.3609175
-0.18652734 0.07188474 0.2941548 -0.22817145 -0.1722589 -0.24062142 0.36553434 -0.07880322
-0.08960062 0.043815985 -0.17149365 0.11781004 -0.27566153 0.0698229 0.18437088 0.24716492
0.3135062 0.11588503 0.30509728 0.22588047 0.405281 -0.3340308 -0.012659453 -0.060567126
0.29039428 -0.2730357 -0.068008535 -0.59429383 0.31694597 -0.0600074 -0.22598277 -0.18411689
0.06776773 -0.11962566 -0.05653569 0.18952477 -0.20511639 -0.099161364 0.14364935 0.12720212
0.13588056 0.005000254 -0.11879353 -0.09531968 -0.08536114 -0.43484554 -0.24974152 0.071582824
0.12542161 -0.03855233 0.17349997 -0.3468756 0.20854664 -0.034727108 -0.25596997 0.1933066
-0.3108551 0.19121398 -0.14226165 0.25722307 0.12290831 0.15495338 -0.15972768 -0.0017755511
00000000: cb07 a0be d2e5 d63d 08c9 fdbd 9d06 0f3e
00000010: be9f 8fbe 15f8 183d f4b7 203e 2eca b8be
00000020: 0601 3fbe 4e38 933d 759b 963e c7a5 69be
00000030: a364 30be 7665 76be 5127 bb3e 9563 a1bd
00000040: 8880 b7bd 6478 333d 089c 2fbe 6446 f13d
00000050: 8223 8dbe 4fff 8e3d b8cb 3c3e cd18 7d3e
00000060: e283 a03e 2155 ed3d b635 9c3e 364d 673e
00000070: fe80 cf3e 1606 abbe 9869 4fbc 3c15 78bd
00000080: 8fae 943e 56cb 8bbe 0f48 8bbd a423 18bf
00000090: be46 a23e 52ca 75bd 0768 67be 2389 3cbe
000000a0: cfc9 8a3d 4cfe f4bd f891 67bd c812 423e
000000b0: 080a 52be 1d15 cbbd d118 133e 4641 023e
000000c0: 4624 0b3e 2cd9 a33b 064a f3bd f736 c3bd
000000d0: d2d1 aebd 13a4 debe 3ebc 7fbe 049a 923d
000000e0: 866e 003e 0ce9 1dbd faa9 313e ae99 b1be
000000f0: 408d 553e 033e 0ebd 7f0e 83be 2af2 453e
00000100: 6628 9fbe 99cd 433e 0aad 11be beb2 833e
00000110: 5ab7 fb3d 19ac 1e3e a78f 23be 9cb9 e8ba

separable_conv2d_1/pointwise_kernel f4 [16, 1, 1, 8]
0.749031 0.90350556 0.74010724 0.48768967 -0.12749356 1.4731234 2.1283104 -0.9380857
-1.8492328 -0.5860052 0.10766672 -0.6661889 1.768439 0.42904994 1.1901067 -0.055102203
0.6199339 0.37376824 1.6283681 -1.2501599 1.2337646 -0.21407016 -0.67141974 -1.1527644
0.014144334 -0.2726003 1.405361 -0.173784 -0.8814023 1.2724586 -1.7295052 0.9102914
-0.62099665 -0.331486 1.6508527 0.47712576 0.58755505 1.2726517 -1.3406674 -1.1967475
-0.41201383 -0.24110916 -0.1727483 1.6618843 -0.7645638 0.31707925 -0.5696749 -0.90444803
0.30819792 -0.27321574 -0.4988418 0.787242 -0.99795574 0.8881456 -1.2233926 -0.53699845
-0.3748106 0.7235947 0.49856904 1.6724288 0.15909974 0.016971769 1.9562991 -0.11019035
1.2335012 -0.18996266 1.5871577 0.8472103 0.1632679 -1.1739734 0.8935324 -0.26022
1.3266813 0.40033314 1.1117296 -0.6986827 0.2847673 0.6718845 0.6045993 2.1826887
-0.8593845 -0.31257808 -0.06665389 0.6127071 -1.8537047 1.1846124 -0.5748605 0.76841295
1.9746852 -0.30854917 0.6867673 0.74483985 -1.5559005 0.0055395155 -0.47866297 0.86666805
0.50974125 0.064576715 0.9972074 -0.53848344 -1.6158661 0.75195754 0.70161843 1.3210274
0.8580152 -0.39051658 -0.74315935 0.91106987 0.20476857 1.8357906 0.6942355 -0.051722415
-0.6579515 0.716334 0.25133044 1.5400933 -1.4073836 0.8258983 -0.12141455 0.76970047
1.551505 1.8490449 -0.47970948 -0.25656968 -1.846673 -0.2845456 -0.68851995 -0.48586947
00000000: 7fc0 3f3f 244c 673f ab77 3d3f 76b2 f93e
00000010: ac8d 02be 4f8f bc3f 3d36 0840 6226 70bf
00000020: a9b3 ecbf 7004 16bf 5f80 dc3d 5b8b 2abf
00000030: 365c e23f 6fac db3e 6b55 983f d9b2 61bd
00000040: fdb3 1e3f 8d5e bf3e 5e6e d03f 3d05 a0bf
00000050: 00ec 9d3f 3535 5bbe 2ae2 2bbf c98d 93bf
00000060: a3bd 673c 4492 8bbe dfe2 b33f 6ff4 31be
00000070: 95a3 61bf ecdf a23f 6d60 ddbf db08 693f
00000080: a3f9 1ebf 88b8 a9be 244f d33f d449 f43e
00000090: 026a 163f 40e6 a23f fd9a abbf 062f 99bf
000000a0: 7af3 d2be 52e5 76be eee4 30be a0b8 d43f
000000b0: 74ba 43bf 3658 a23e 37d6 11bf e889 67bf
000000c0: 1ecc 9d3e efe2 8bbe 3168 ffbe b188 493f
000000d0: 077a 7fbf 835d 633f 2198 9cbf bb78 09bf
000000e0: 2de7 bfbe 813d 393f 7144 ff3e 2612 d63f
000000f0: 0beb 223e 6108 8b3c 0268 fa3f 7aab e1bd
00000100: 5ee3 9d3f 9285 42be fc27 cb3f c6e2 583f
00000110: b32f 273e c344 96bf 8abe 643f 8e3b 85be
00000120: b1d0 a93f 77f8 cc3e 284d 8e3f dfdc 32bf
00000130: 05cd 913e 9f00 2c3f 05c7 1a3f 2cb1 0b40
00000140: 9f00 5cbf 3c0a a0be d681 88bd 5fda 1c3f
00000150: 3246 edbf 61a1 973f 0f2a 13bf b6b6 443f
00000160: 7cc2 fc3f 28fa 9dbe fbcf 2f3f d3ad 3e3f
00000170: bf27 c7bf d384 b53b 5013 f5be f5dd 5d3f
00000180: 677e 023f cc40 843d fc48 7f3f 0dda 09bf
00000190: b3d4 cebf 4a80 403f 449d 333f 6d17 a93f
000001a0: e2a6 5b3f caf1 c7be b13f 3ebf e03b 693f
000001b0: daae 513e 30fb ea3f 6bb9 313f e2da 53bd
000001c0: 826f 28bf aa61 373f 62ae 803e c721 c53f
000001d0: 2525 b4bf 126e 533f 31a8 f8bd 170b 453f
000001e0: b797 c63f 81ad ec3f 7b9c f5be 1a5d 83be
000001f0: c85f ecbf f6af 91be d842 30bf e2c3 f8be

separable_conv2d_1/separable_conv2d/depthwise_bias f4 [8]
0.0 0.0 0.0 0.0 0.0 0.0 0.0 0.0
00000000: 0000 0000 0000 0000 0000 0000 0000 0000
00000010: 0000 0000 0000 0000 0000 0000 0000 0000

separable_conv2d_1/separable_conv2d_bias f4 [16]
0.4603895 -0.24082007 -0.69639236 0.36464864 0.42735028 0.33952987 0.6008976 0.68994063
-0.07900627 -0.20804152 0.59926546 0.20895398 -0.09852387 0.75631595 1.0122806 -0.44454157
00000000: 2cb8 eb3e 8999 76be c546 32bf 3ab3 ba3e
00000010: a8cd da3e dcd6 ad3e 6dd4 193f f39f 303f
00000020: 0ace a1bd d608 55be 7669 193f 08f8 553e
00000030: e2c6 c9bd ec9d 413f 6992 813f f49a e3be
