phone/src/main/assets/fer2013.tflite (tflite, 236264 bytes, 43 tensors)

conv2d_1/Conv2D_bias f4 [8]
-0.7708738 -0.14930587 0.25910562 1.2292751 0.37011766 -0.28928423 -0.2738479 1.0247548
00000000: fc57 45bf a3e3 18be 7ea9 843e e358 9d3f
00000010: 1080 bd3e 101d 94be cb35 8cbe 2a2b 833f

conv2d_1/kernel f4 [1, 3, 3, 8]
-8.118457e-34 0.2961435 0.76242876 0.08793461 0.3105776 5.5625576e-05 0.046553634 -1.6749647
-4.3046677e-33 0.2061965 0.6231988 -0.43198806 0.7752604 5.102975e-05 0.1495143 -1.4601436
-3.714624e-33 0.13875924 -0.3187106 -0.13094756 1.0610093 4.1917938e-05 0.094392 -0.84564316
-3.588169e-33 -0.12081021 1.4076954 0.64278746 -0.6529786 6.36639e-06 -0.014668661 -1.4462836
1.8136366e-33 -0.41798696 0.5723943 -2.3763657 0.035975356 5.5727494e-05 0.31486246 0.30965456
-1.5777592e-33 -0.3714801 -0.9515314 -1.818471 1.1162266 5.5149103e-05 0.33749092 0.7786733
-2.169708e-34 -0.27439338 0.29075968 3.380296 -1.7842071 -0.000119088596 -0.04797755 0.24768832
-2.7161367e-33 -0.73373944 -0.93718874 2.1007488 -1.2592039 3.1732045e-05 0.32774967 2.413355
-3.668054e-33 -0.569504 -1.5410949 -0.6653928 0.46733856 2.630707e-05 0.24297899 1.797072
00000000: 19e4 8688 1fa0 973e 882e 433f 1017 b43d
00000010: 0704 9f3e 824f 6938 06af 3e3d 3e65 d6bf
00000020: 14cf b289 2d25 533e f589 1f3f 8a2d ddbe
00000030: 7777 463f c708 5638 471a 193e fce5 babf
00000040: a84c 9a89 e716 0e3e 092e a3be 1e17 06be
00000050: 27cf 873f 0bd1 2f38 9850 c13d 127c 58bf
00000060: f50b 9589 586b f7bd 5d2f b43f b88d 243f
00000070: 9b29 27bf e09e d536 d354 70bc d21f b9bf
00000080: c9ab 1609 6302 d6be 6f88 123f 6016 18c0
00000090: e55a 133d f1bc 6938 a735 a13e 0b8b 9e3e
000000a0: 3a13 0389 a432 bebe 9097 73bf a8c3 e8bf
000000b0: 83e0 8e3f e64f 6738 9ccb ac3e 2257 473f
000000c0: ab33 9087 4a7d 8cbe 74de 943e c556 5840
000000d0: e660 e4bf 34bf f9b8 1c84 44bd 02a2 7d3e
000000e0: d7a5 6189 59d6 3bbf 9aeb 6fbf ab72 0640
000000f0: 982d a1bf 0618 0538 cece a73e 6974 1a40
00000100: 715d 9889 04cb 11bf 9942 c5bf 2f57 2abf
00000110: 0047 ef3e 01ae dc37 7ccf 783e 7506 e63f

conv2d_2/Conv2D_bias f4 [8]
0.96186614 1.3632021 0.7755105 0.7189591 2.5876067 -1.5524498 -0.041724686 0.4271068
00000000: dc3c 763f 687d ae3f db87 463f b40d 383f
00000010: 599b 2540 adb6 c6bf 81e7 2abd bead da3e

conv2d_2/kernel f4 [8, 3, 3, 8]
3.732717e-34 0.08948668 -0.018272884 -0.0053175134 -0.09343462 -2.8659353e-14 -0.016242106 -0.11814074
-1.0204364e-34 0.09680178 -0.07494071 -0.18647742 0.046100248 -6.0801204e-14 0.00042461086 -0.16886342
2.0308396e-34 0.08667587 -0.11252815 -0.1733071 0.031461548 -1.6730902e-13 0.032639094 -0.049627233
-6.6401903e-34 0.080881804 -0.024248388 0.17680414 -0.11668132 -2.7347765e-15 -0.019205777 -0.10195653
-3.5380236e-34 0.051937804 -0.12116901 0.02239082 0.0013677791 -5.7778828e-15 -0.0106322905 -0.057605583
6.6926013e-34 0.017684534 -0.103168406 -0.1012037 0.06697585 5.7718895e-16 0.016061548 0.06997182
1.3377586e-33 0.0041318433 -0.045001674 0.13529168 -0.11503951 -2.009142e-15 -0.010859834 0.09616117
1.2973251e-33 -0.01974454 -0.09261367 0.1369777 -0.12948434 5.5636847e-15 -0.019417625 0.16707155
1.1754413e-33 -0.03886454 0.0071237516 0.030420925 -0.06167015 2.318495e-14 -0.016017599 0.03885393
-3.55076e-34 -0.039490692 0.033401206 -0.0010189974 -0.022015193 1.7433488e-13 0.06883989 -0.009578537
-3.6974807e-34 -0.028314484 0.05215368 0.0010648577 -0.007795853 8.408478e-14 0.06915242 -0.03251269
-3.6119123e-34 -0.016921185 0.087956436 -0.03608603 0.048081167 4.807847e-14 0.053872917 -0.09607531
-4.067329e-34 -0.049819596 0.07524751 -0.02893908 -0.015488633 3.8615687e-14 0.047367465 -0.07833229
-4.06383e-34 -0.021392766 0.101261966 -0.02395845 0.031387463 2.4019937e-14 0.0438302 -0.13156052
-4.4099846e-34 0.009426994 0.08248677 -0.024015762 0.055204805 2.1778957e-14 0.03283154 -0.20120415
-4.6705518e-34 0.0041840533 0.11554174 -0.037134893 0.102846235 1.3849564e-14 0.0324513 -0.12910524
-4.8298487e-34 0.022821551 0.06648543 -0.0030289805 0.09451574 1.378319e-14 0.03622136 -0.114098445
-4.6685915e-34 0.032829683 -0.01725382 0.027040547 0.045686934 3.0482696e-14 0.03135517 -0.10614663
-1.0906862e-33 0.17390417 -0.0027611041 -0.04120614 -0.03026985 -4.2795823e-17 -0.03024727 -0.020131342
-1.0583147e-33 0.18112262 -0.0248271 -0.070318915 -0.017241454 -5.398162e-17 -0.03915342 -0.045276083
-1.2363575e-33 0.16938959 -0.024741877 -0.06345469 0.010567909 3.58997e-15 -0.07468892 -0.08366314
-8.582123e-34 0.21111609 0.02386196 0.042770322 -0.0558693 -4.629286e-20 -0.015956774 -0.07352222
-9.170482e-34 0.21581271 0.02123699 -0.04116648 0.02086306 -7.136594e-20 -0.024718734 -0.09381723
-9.314914e-34 0.22683813 0.021259116 -0.088514835 0.06488158 2.7390576e-16 -0.053083986 -0.06936002
-8.908181e-34 0.203448 0.046464797 0.10889879 -0.012060851 1.5648865e-22 -0.014593584 -0.08020677
-8.8647445e-34 0.23376417 0.030989604 0.011862543 0.039577708 2.2468133e-20 -0.012962548 -0.05318529
-9.408466e-34 0.24226165 0.030031124 -0.026989564 0.041984573 4.0430722e-17 -0.032403756 0.006544987
-8.696054e-34 0.03296518 0.050948333 0.040967114 -0.06852269 -1.00779946e-13 -0.005082501 0.055795908
-1.4557945e-33 0.036693323 0.07007057 -0.010348555 -0.01842002 -5.563366e-15 -0.015880162 0.0028210194
3.6637025e-34 -0.03197014 -0.019527778 0.058035675 0.032380275 -1.0562048e-15 -0.026433622 0.054964557
-9.609902e-34 0.046083428 0.080833696 0.18941829 -0.11026843 -2.933216e-13 -0.033385195 -0.16274078
-1.2429409e-33 0.0018322696 -0.029806029 -0.15257561 0.098003455 -4.942985e-16 -0.01897135 0.0004678032
00000000: e414 f807 cb44 b73d 04b1 95bc 893e aebb
00000010: a65a bfbd fc11 01a9 2a0e 85bc c6f3 f1bd
00000020: a7a3 0787 0340 c63d 847a 99bd f0f3 3ebe
00000030: 9dd3 3c3d 82e9 88a9 4e9e de39 88ea 2cbe
00000040: f2f8 8607 1e83 b13d 2975 e6bd 6b77 31be
00000050: d3dd 003d 8b5f 3caa 92b0 053d ed45 4bbd
00000060: 7ea8 5c88 5ca5 a53d 8ea4 c6bc 250c 353e
00000070: 9ef6 eebd b90f 45a7 6f55 9dbc 96ce d0bd
00000080: 5a24 eb87 bcbc 543d 7527 f8bd f46c b73c
00000090: 0d47 b33a 902b d0a7 0f33 2ebc d5f3 6bbd
000000a0: 5b66 5e08 28df 903c f549 d3bd e343 cfbd
000000b0: a22a 893d 075d 2626 8293 833c 634d 8f3d
000000c0: f545 de08 6a64 873b ad53 38bd e789 0a3e
000000d0: d699 ebbd 21c6 10a7 72ed 31bc 26f0 c43d
000000e0: 1b8e d708 4dbf a1bc 3cac bdbd e243 0c3e
000000f0: 8b97 04be ef73 c827 b611 9fbc ce14 2b3e
00000100: be4d c308 6d30 1fbd 5c6e e93b 4e35 f93c
00000110: d799 7cbd dbd4 d028 5737 83bc 4c25 1f3d
00000120: 0dfd eb87 fec0 21bd b4cf 083d e18f 85ba
00000130: 3559 b4bc 9c48 442a eefb 8c3d 4cef 1cbc
00000140: 60bd f587 c7f3 e7bc 199f 553d b292 8b3a
00000150: 5b74 ffbb 9357 bd29 c99f 8d3d 072c 05bd
00000160: 810d f087 4c9e 8abc 8122 b43d f2ce 13bd
00000170: c2f0 443d b486 5829 d9a9 5c3d 22c3 c4bd
00000180: 0229 0788 a20f 4cbd 5e1b 9a3d a611 edbc
00000190: 09c4 7dbc dbe8 2d29 6304 423d ae6c a0bd
000001a0: 3e0b 0788 e23f afbc 6f62 cf3d 8344 c4bc
000001b0: 2490 003d 345a d828 4c87 333d cdb7 06be
000001c0: 008c 1288 ae73 1a3c d3ee a83d b4bc c4bc
000001d0: 6f1e 623d db2a c428 5d7a 063d 7608 4ebe
000001e0: a934 1b88 621a 893b 26a1 ec3d c21a 18bd
000001f0: 0ca1 d23d d77d 7928 a8eb 043d 2a34 04be
00000200: cf7f 2088 43f4 ba3c 8329 883d dc81 46bb
00000210: 7891 c13d bf4b 7828 d95c 143d 72ac e9bd
00000220: fc23 1b88 6b78 063d e257 8dbc 2384 dd3c
00000230: 3922 3b3d 2848 0929 476e 003d 6863 d9bd
00000240: a938 b588 ef13 323e a4f3 34bb c5c7 28bd
00000250: 7af8 f7bc 645c 45a4 1fc9 f7bc 7cea a4bc
00000260: bbd7 af88 3578 393e 3462 cbbc 5d03 90bd
00000270: f33d 8dbc 40f2 78a4 565f 20bd 6a73 39bd
00000280: d56c cd88 7774 2d3e 7aaf cabc 88f4 81bd
00000290: 0625 2d3c a157 8127 81f6 98bd 9557 abbd
000002a0: 5098 8e88 d12e 583e 287a c33c ef2f 2f3d
000002b0: 35d7 64bd a29c 5a9f c8b7 82bc d192 96bd
000002c0: eb5e 9888 02fe 5c3e 32f9 ad3c 2f9e 28bd
000002d0: 02e9 aa3c 1082 a89f f17e cabc 3f23 c0bd
000002e0: 43c5 9a88 4148 683e 9927 ae3c 4447 b5bd
000002f0: a2e0 843d 5be5 9d25 986e 59bd a00c 8ebd
00000300: 3603 9488 ac54 503e df51 3e3d 5406 df3d
00000310: e09a 45bc e42e 3d1b ee19 6fbc 7243 a4bd
00000320: 744a 9388 e05f 6f3e e9dd fd3c 1d5b 423c
00000330: 3c1c 223d 9d34 d41e de60 54bc d2d8 59bd
00000340: 3053 9c88 7013 783e d503 f63c 3819 ddbc
00000350: 04f8 2b3d 2c74 3a24 cdb9 04bd 5577 d63b
00000360: ec7c 9088 7f06 073d 33af 503d 22cd 273d
00000370: a055 8cbd afef e2a9 1c8b a6bb 408a 643d
00000380: a6e2 f188 bd4b 163d 2981 8f3d fc8c 29bc
00000390: 95e5 96bc ff70 c8a7 1d17 82bc dae0 383b
000003a0: ab7e f307 1ff3 02bd b8f8 9fbc d1b6 6d3d
000003b0: 2ea1 043d 1437 98a6 538b d8bc 8422 613d
000003c0: 01ac 9f88 fac1 3c3d 238c a53d def6 413e
000003d0: 6ad4 e1bd 1920 a5aa eabe 08bd 85a5 26be
000003e0: dc84 ce88 c428 f03a c62b f4bc c83c 1cbe
000003f0: 09b6 c83d cb78 0ea6 ce69 9bbc 7c43 f539

conv2d_3/Conv2D_bias f4 [16]
-0.13949488 0.13905807 -0.39924383 -1.296101 -0.78735095 0.80281156 1.2538863 -1.6720597
-1.3060863 2.444364 0.52510196 0.38027337 -1.3091581 -1.8483555 0.31079847 -0.92637056
00000000: bfd7 0ebe 3d65 0e3e b069 ccbe a3e6 a5bf
00000010: d58f 49bf 0f85 4d3f 597f a03f 0d06 d6bf
00000020: d62d a7bf 7670 1c40 156d 063f 31b3 c23e
00000030: 7e92 a7bf ea96 ecbf fa20 9f3e 9f26 6dbf

conv2d_3/kernel f4 [16, 1, 1, 8]
0.037370607 -0.12948363 -0.16339648 0.036634102 -0.085192055 -0.06675945 -0.051466934 0.29368347
-0.1741619 0.43648285 -0.35178038 -0.20212944 0.22726648 -0.04850082 0.35351673 -0.58433294
0.20580359 -0.601098 -0.88120186 0.2751546 -0.13721491 -0.53685516 0.13026072 0.87811077
0.21267338 0.13039124 0.11804281 -0.36877838 0.28512475 -0.26291487 1.2520331 -0.2501236
0.06930792 0.1648372 0.35307795 -0.061536677 0.4062226 -0.16996107 -0.098819934 -0.26287207
-0.051709514 -0.1016461 -0.47332263 0.2089651 -0.31816146 -0.006985293 0.12438973 0.08408057
-0.54456496 -0.07118856 -0.501958 0.0139721995 0.12668864 0.11972161 -0.2133528 -0.35537508
0.26451835 0.14498787 0.5391015 0.14714491 0.55304563 -0.19074824 0.0037778115 0.16987513
0.053183485 0.41535696 0.28695694 0.023621133 0.7090293 0.38131377 0.10438108 -0.22632962
0.17459084 -0.7530856 -0.47747883 -0.114915855 -1.2502652 0.26673934 -0.008035575 -0.4441908
-0.04593285 -0.38298398 1.1549677 -0.00590313 -0.72161525 0.49369168 -0.13764402 0.4360442
-0.25133765 0.20414543 -0.23036616 0.036217533 -0.21600726 -0.47015455 0.30273485 -0.40616152
0.50176835 -0.42734376 0.6246586 0.29190177 -0.08581211 -0.51784635 -0.114856064 0.43134296
0.35294947 0.5558763 0.12126124 0.28520828 -0.06096059 0.4081511 0.039087515 0.15397775
-0.25192487 0.73099303 -0.41835713 -0.12162604 -0.14217809 0.25493822 0.5667849 -0.19057351
0.1416732 0.03151975 0.69617605 0.017784169 0.10284221 0.037384283 -0.34718016 0.26870894
00000000: ec11 193d 5b97 04be 6851 27be a40d 163d
00000010: 2c79 aebd 2eb9 88bd fece 52bd ae5d 963e
00000020: 7f57 32be ae7a df3e 8f1c b4be 05fb 4ebe
00000030: 8bb8 683e cca8 46bd 2500 b53e d896 15bf
00000040: 2dbe 523e 8fe1 19bf 7296 61bf 10e1 8c3e
00000050: 1182 0cbe 576f 09bf 1163 053e decb 603f
00000060: 0dc7 593e 4885 053e 6ec0 f13d 85d0 bcbe
00000070: dffb 913e c79c 86be 9f42 a03f 3310 80be
00000080: 50f1 8d3d 15cb 283e a2c6 b43e e20d 7cbd
00000090: 69fc cf3e 460a 2ebe 1b62 cabd 2b97 86be
000000a0: 5bcd 53bd d52b d0bd 5857 f2be f2fa 553e
000000b0: 0fe6 a2be e2e4 e4bb 0bc0 fe3d 6f32 ac3d
000000c0: 9c68 0bbf 4fcb 91bd 5280 00bf a7eb 643c
000000d0: abba 013e 9a30 f53d 2879 5abe b9f3 b5be
000000e0: f36e 873e b377 143e 8e02 0a3f 28ad 163e
000000f0: 6694 0d3f 8253 43be 2995 773b bff3 2d3e
00000100: edd6 593d aba9 d43e 05ec 923e 1b81 c13c
00000110: f282 353f 8f3b c33e bfc5 d53d f4c2 67be
00000120: f1c7 323e 38ca 40bf 1b78 f4be 0159 ebbd
00000130: b108 a0bf 0f92 883e a5a7 03bc fa6c e3be
00000140: 1624 3cbd 7a16 c4be fbd5 933f 0b6f c1bb
00000150: c7bb 38bf 28c5 fc3e 8ef2 0cbe 2f41 df3e
00000160: 54af 80be 800b 513e 1be5 6bbe d658 143d
00000170: 0231 5dbe 19b8 f0be 1000 9b3e 67f4 cfbe
00000180: e473 003f cdcc dabe a0e9 1f3f 2674 953e
00000190: 42be afbd 9491 04bf a839 ebbd fcd8 dc3e
000001a0: cbb5 b43e e94d 0e3f d057 f83d d206 923e
000001b0: d0b1 79bd 2ef9 d03e 3b1a 203d 58ac 1d3e
000001c0: 4cfc 80be 5c22 3b3f e832 d6be 1317 f9bd
000001d0: 2297 11be 4387 823e d118 113f b425 43be
000001e0: c812 113e da1a 013d 9838 323f 1bb0 913c
000001f0: f09e d23d 4320 193d 99c1 b1be 3894 893e

conv2d_4/Conv2D_bias f4 [32]
0.012731139 -0.3616528 -0.046938647 -0.13520612 -0.639868 0.12334617 -0.12106695 -0.5476761
-0.86154777 -0.2714686 0.16318497 -0.76254284 -0.03632301 0.053811565 -0.6653148 -0.4053603
-0.897303 -0.51169723 0.11340134 0.16402452 0.07175423 0.134306 -0.13711423 0.16613372
0.45738816 0.603108 -0.19328645 -0.012485024 0.3621201 0.06693145 -1.2868745 -0.17331761
00000000: 4496 503c 8e2a b9be bd42 40bd 7973 0abe
00000010: 64ce 23bf eb9c fc3d f3f1 f7bd 8034 0cbf
00000020: 658e 5cbf effd 8abe f619 273e 0236 43bf
00000030: 70c7 14bd 8469 5c3d 1252 2abf 638b cfbe
00000040: a6b5 65bf 97fe 02bf f63e e83d 0bf6 273e
00000050: e2f3 923d 8387 093e ac67 0cbe f51e 2a3e
00000060: c82e ea3e 4965 1a3f e2ec 45be fc8d 4cbc
00000070: ce67 b93e 5b13 893d 4eb8 a4bf 2c7a 31be

conv2d_4/kernel f4 [32, 1, 1, 16]
0.014509442 -0.08747433 -0.036416166 -0.0106094675 0.029997379 -0.008496577 -0.07099026 -0.12287601
-0.051983763 0.035006776 -0.09637465 0.0012316756 -0.010769327 -0.015997577 0.010055161 -0.012037901
0.008154708 -0.005042595 -0.0065070167 -0.003214927 0.011105165 -0.0022475605 0.038810577 0.03330379
0.017863743 0.0020470573 -0.045481343 -0.009936988 0.029910646 0.010561269 -0.006632149 0.017008374
-0.09812892 0.053428855 0.08963675 0.06580894 -0.046969082 0.16364482 0.12876698 0.033156697
-0.023067858 -0.0028172517 -0.16049086 0.09162459 -0.21430747 0.17140733 0.01962289 -0.024529452
-0.055908307 -0.039352622 -0.017932696 -0.061470635 0.047192566 0.033140074 0.10677212 -0.030452695
0.037062604 0.066140905 -0.14058588 0.12002558 0.06870775 0.10421132 -0.09827435 0.051290166
0.17485513 0.025791096 0.10309271 -0.13053632 0.20202403 0.015626486 -0.11700332 0.06895523
0.023311306 0.03700825 -0.026494924 -0.082009666 -0.08942695 -0.10586942 -0.015428776 0.09969039
0.04719268 0.13971487 -0.06826598 -0.19146922 0.021457633 -0.11582918 -0.083691046 0.018625334
-0.034012593 0.084121704 -0.051615883 -0.011610387 0.01673242 -0.077153094 0.16543974 -0.18471982
0.07642089 0.051787954 0.09742702 0.0049910774 -0.051382955 -0.002410763 -0.048334766 0.07314707
0.057592183 -0.08364453 -0.003773166 -0.06661666 -0.018036762 -0.13613667 0.100032635 0.032542247
0.03106973 -0.16497606 -0.019421393 0.020300688 0.08306661 0.08993307 -0.078032784 -0.1806944
0.024510166 -0.039720066 -0.021657694 0.13096334 -0.14113656 0.051420942 -0.08328864 0.10340527
0.29954326 -0.19884107 0.0065104533 0.10461011 0.1066766 0.29465005 0.021214379 -0.1419963
0.18777974 0.07619823 0.083692014 0.10173316 -0.031476073 -0.013710975 0.0033257923 0.20586841
-0.09042917 0.03204711 -0.021907587 -0.025888516 -0.059771974 -0.053188656 -0.09783042 -0.042818367
-0.046352755 -0.046382137 -0.043526474 0.059556313 -0.062047616 0.042710524 0.03182188 -0.10082852
0.03577774 -0.011234739 0.058038905 -0.048397087 -0.036468077 0.0069474746 -0.04664929 -0.03894076
-0.048078272 0.015876183 0.03033337 -0.056850452 -0.042908482 -0.11156957 -0.068831146 -0.020099146
0.001910321 0.052100386 -0.044080857 0.054134224 -0.018101212 0.02519593 -0.027371716 -0.023540203
0.08284639 0.046015814 0.022113206 0.09576103 0.019128637 0.041476946 -0.067572474 0.06407528
0.022000702 0.0036432275 -0.06791181 -0.08205688 -0.014433697 -0.047032423 0.023792723 -0.0011823348
0.037870236 0.007872293 0.037474655 -0.13759004 0.066570014 -0.075801596 0.009169594 0.043112896
0.007443084 0.04690185 -0.012463055 0.158572 -0.05831206 -0.0042296518 0.048110582 0.048838347
0.030190984 0.029263794 0.013244711 0.055604506 0.0037897252 0.040452834 -0.0061362456 0.047558222
0.08345985 -0.028772205 0.085715525 -0.044433378 0.097281925 -0.04695344 -0.0056979065 0.038037516
0.0807873 0.012525297 -0.060539987 0.03407589 0.07486988 -0.042826224 -0.0055233273 0.13408065
0.033382088 -0.121845625 -0.025512906 -0.096227475 0.058416247 -0.035103627 -0.011681422 -0.13701488
-0.057897255 0.043943804 -0.017455475 0.07796299 -0.027061759 -0.010891022 -0.033999115 -0.027671183
00000000: 03b9 6d3c be25 b3bd 1e29 15bd 55d3 2dbc
00000010: 10bd f53c 3a35 0bbc 5763 91bd 6ba6 fbbd
00000020: edec 54bd 4463 0f3d 1360 c5bd 2d70 a13a
00000030: d571 30bc 5a0d 83bc 67be 243c 9e3a 45bc
00000040: 539b 053c 5a3c a5bb d038 d5bb 86b1 52bb
00000050: 70f2 353c cf4b 13bb d7f7 1e3d 8e69 083d
00000060: fc56 923c ec27 063b a54a 3abd c0ce 22bc
00000070: 2c07 f53c 2c09 2d3c 8052 d9bb 2555 8b3c
00000080: d1f7 c8bd 37d8 5a3d 7993 b73d d6c6 863d
00000090: a762 40bd 8292 273e 7edb 033e 51cf 073d
000000a0: cef8 bcbc a4a1 38bb b757 24be aca5 bb3d
000000b0: 6b73 5bbe 6785 2f3e 2fc0 a03c fdf1 c8bc
000000c0: 1c00 65bd 3730 21bd 97e7 92bc a2c8 7bbd
000000d0: fe4c 413d e3bd 073d 57ab da3d ee77 f9bc
000000e0: f5ce 173d e274 873d bff5 0fbe f9cf f53d
000000f0: a6b6 8c3d bf6c d53d 1044 c9bd a315 523d
00000100: 390d 333e d947 d33c 4522 d33d 50ab 05be
00000110: 63df 4e3e 1e03 803c 709f efbd 6638 8d3d
00000120: 5af7 be3c f695 173d e20b d9bc aff4 a7bd
00000130: 7a25 b7bd 11d2 d8bd fac8 7cbc 7a2a cc3d
00000140: 1d4d 413d 6a11 0f3e 09cf 8bbd 8210 44be
00000150: ebc7 af3c d937 edbd 3666 abbd 2894 983c
00000160: ca50 0bbd 0048 ac3d 2d6b 53bd 7e39 3ebc
00000170: 6e12 893c 7102 9ebd 0969 293e 3127 3dbe
00000180: 8e82 9c3d 9b1f 543d d187 c73d 318c a33b
00000190: ef76 52bd e4fd 1dbb adfa 45bd 22ce 953d
000001a0: c8e5 6b3d d34d abbd 3947 77bb 516e 88bd
000001b0: d5c1 93bc 6967 0bbe e9dd cc3d 054b 053d
000001c0: f285 fe3c 7cef 28be 9d19 9fbc a14d a63c
000001d0: d41e aa3d d42e b83d a7cf 9fbd f407 39be
000001e0: 8bc9 c83c 82b1 22bd 7a6b b1bc 411b 063e
000001f0: 1a86 10be c49e 523d 3c93 aabd 24c6 d33d
00000200: bc5d 993e fe9c 4bbe a455 d53b d33d d63d
00000210: 4379 da3d 5fdc 963e c7c9 ad3c 7a67 11be
00000220: 5549 403e d10d 9c3d b866 ab3d 7a59 d03d
00000230: 0eed 00bd ffa3 60bc 89f5 593b 2bcf 523e
00000240: ee32 b9bd d543 033d 8a77 b3bc 2714 d4bc
00000250: 75d3 74bd 59dc 59bd 515b c8bd 5062 2fbd
00000260: 63dc 3dbd 32fb 3dbd d148 32bd 52f1 733d
00000270: a425 7ebd 3bf1 2e3d a957 023d 2f7f cebd
00000280: ae8b 123d e911 38bc 34ba 6d3d 063c 46bd
00000290: 8d5f 15bd a4a7 e33b 5313 3fbd 5980 1fbd
000002a0: b9ed 44bd c50e 823c b07d f83c 05dc 68bd
000002b0: cec0 2fbd 967e e4bd 58f7 8cbd f7a6 a4bc
000002c0: bc63 fa3a 3767 553d 218e 34bd d9bb 5d3d
000002d0: fe48 94bc b267 ce3c a63a e0bc 62d7 c0bc
000002e0: 5eab a93d 147b 3c3d c126 b53c 5c1e c43d
000002f0: a9b3 9c3c bbe3 293d 7063 8abd e739 833d
00000300: d13a b43c 37c3 6e3b 5915 8bbd 700d a8bd
00000310: 507b 6cbc 12a5 40bd f5e8 c23c 93f8 9aba
00000320: d21d 1b3d cafa 003c 067f 193d 67e4 0cbe
00000330: dc55 883d de3d 9bbd 113c 163c 2697 303d
00000340: 1de5 f33b 271c 403d d731 4cbc b360 223e
00000350: a0d8 6ebd e498 8abb 9a0f 453d b80a 483d
00000360: 1553 f73c a0ba ef3c 5800 593c 8dc1 633d
00000370: 0a5d 783b dfb1 253d 8f12 c9bb 69cc 423d
00000380: ffec aa3d b0b3 ebbc 9f8b af3d c6ff 35bd
00000390: bf3b c73d 4052 40bd 81b5 babb 3acd 1b3d
000003a0: d073 a53d e736 4d3c c7f8 77bd 2993 0b3d
000003b0: 6155 993d 8d6a 2fbd 07fd b4bb 704c 093e
000003c0: a8bb 083d 338a f9bd 7100 d1bc e912 c5bd
000003d0: e045 6f3d d2c8 0fbd 6f63 3fbc a14d 0cbe
000003e0: ac25 6dbd 6bfe 333d c9fe 8ebc 0fab 9f3d
000003f0: 9fb0 ddbc 4270 32bc a842 0bbd adae e2bc

conv2d_5/Conv2D_bias f4 [64]
-0.32708696 0.54213136 -0.59104073 -0.8253211 -1.048174 -0.4260954 -0.27395263 -0.5614181
0.28862792 -0.04800778 0.34527114 -0.34514737 0.29439223 -1.6726216 0.10805751 -1.1694536
-0.37018582 -0.44485337 -0.7777229 0.4608966 -1.1185344 -0.31958744 -0.7238733 -0.5313695
-0.4750305 -0.0025979027 -0.4222464 -0.26932755 -0.39817294 0.8027492 -0.52510995 -0.31209078
-0.008517089 0.33827236 0.12894684 0.43105808 -0.13088498 -0.23801094 0.20758793 -0.394148
-0.109869994 -0.374987 0.20159955 -0.64496374 -0.5942562 -1.1118009 0.104187645 0.13446105
-0.7202406 -0.19317268 0.14847216 -0.73788726 -0.20797712 0.21849135 -0.8901785 -1.4357532
-0.5325561 0.35830995 -0.36549112 0.23842049 -0.44090366 0.17022851 -0.50792176 0.82810354
00000000: f177 a7be 1fc9 0a3f 724e 17bf 3e48 53bf
00000010: 912a 86bf 2d29 dabe 8543 8cbe 19b9 0fbf
00000020: 0ac7 933e cea3 44bd 61c7 b03e 28b7 b0be
00000030: 94ba 963e 7718 d6bf 414d dd3d a8b0 95bf
00000040: ff88 bdbe d2c3 e3be d918 47bf a4fa eb3e
00000050: 232c 8fbf f7a0 a3be c34f 39bf d507 08bf
00000060: 3337 f3be 9341 2abb ae30 d8be 4de5 89be
00000070: 53dd cbbe f980 4d3f 9b6d 06bf 5dca 9fbe
00000080: 438b 0bbc 0932 ad3e a40a 043e a5b3 dc3e
00000090: b606 06be 24b9 73be ee91 543e c4cd c9be
000000a0: 8503 e1bd 4cfe bfbe 1d70 4e3e 581c 25bf
000000b0: 2d21 18bf 7e4f 8ebf 5560 d53d 28b0 093e
000000c0: b061 38bf 0fcf 45be 1609 183e 2ee6 3cbf
000000d0: f4f7 54be 32bc 5f3e bde2 63bf c3c6 b7bf
000000e0: 9955 08bf 6774 b73e a721 bbbe 8024 743e
000000f0: 20be e1be 6250 2e3e 2907 02bf 98fe 533f

conv2d_5/kernel f4 [64, 1, 1, 32]
-0.019409573 0.019135136 0.025970167 -0.0140267955 0.026935546 -0.0024481437 -0.0028471046 0.052112933
-0.009171312 0.017763792 0.03718325 0.038025778 0.016752414 -0.011929755 0.04117725 -0.009528002
-0.03262907 0.033143688 -0.033700556 0.015260012 0.028856702 0.0047163544 -0.0066055 -0.017500747
-0.0030494512 0.02358961 -0.03140408 0.082410365 0.0024020544 -0.027358288 0.012545769 -0.008100038
0.0919375 -0.06716865 0.051976867 -0.04764298 0.051471666 -0.06882048 0.018984051 -0.019830098
-0.05420902 -0.03862476 -0.038724862 0.0064264974 -0.09824735 -0.06618586 -0.035347644 0.015755495
-0.009628474 0.0405028 0.0865592 0.010585569 0.08011575 -0.08518577 -0.055210996 -0.17137651
0.01415313 0.0018335471 0.08280503 -0.071912654 -0.092464335 -0.038798578 -0.022441873 -0.06704498
0.084541544 0.052826814 0.060472034 -0.015429153 0.0064315465 0.029102141 0.0070862384 0.034742557
0.1110231 0.040697314 0.03095608 0.03284711 0.03223216 -0.036620203 0.040343426 0.06484869
0.036184873 0.040111456 0.022945467 -0.04631465 -0.004155396 0.058873445 -0.055117078 0.053246766
0.027729988 -0.04356923 0.10341391 0.01675726 0.029202232 -0.00028444757 0.07453912 -0.09723703
0.029871615 0.027326861 -0.0196692 0.08563649 0.026134288 -0.08140599 0.07858724 0.034294844
0.09105622 -0.06771907 0.02638893 0.029760214 -0.0061715753 -0.014485836 -0.04229645 -0.069202796
-0.018410496 -0.056586087 0.0550443 0.0118316235 0.099119954 -0.041190825 -0.07203253 0.053328376
-0.040574044 0.03571436 -0.055881366 0.07469157 0.024199473 0.05778888 -0.01957497 0.09595758
0.0014368687 0.06110903 0.004674894 -0.0171052 -0.01181452 -0.0125875855 0.06755 0.0015307538
0.055605814 0.027391683 -0.017322678 0.049345758 -0.024730142 0.034947958 0.05756627 0.020970117
0.042195976 -0.0044260146 0.011833029 0.009892629 -0.0129614 0.012410342 -0.012864967 -0.025905635
0.023292048 0.026500547 0.032079957 -0.020155987 -0.0015060684 -0.024333656 0.0070271343 0.02292268
-0.012474966 -0.009599443 0.05056744 -0.0015478705 0.030656982 0.0416248 0.014272407 -0.04186404
-0.0021585752 -0.0069937403 -0.0038071964 -0.06676007 -0.035032284 0.01823325 -0.024581872 -0.025145566
0.0020625312 -0.021126034 -0.021120273 -0.0014684503 0.0007262697 0.020698683 -0.023776563 -0.0049475865
-0.040125843 0.038067535 -0.06622368 -0.041073233 0.0017393202 0.03813821 -0.10789697 0.010903443
-0.01726336 -0.003273482 -0.06704189 -0.025996247 -0.1463059 0.0026883783 -0.085501626 -0.0059278226
-0.031678773 -0.047593646 0.068971574 0.027205976 0.06995629 -0.0384463 -0.027730761 0.12880737
0.08083014 -0.011557973 0.032450996 -0.026792353 -0.04015084 -0.08476895 0.06619904 0.02263773
-0.1801063 0.16707718 0.08995928 -0.004382871 0.020720745 -0.07431617 0.08223918 -0.0036314132
0.06253892 -0.029392673 -0.0769638 -0.044224188 -0.10255688 -0.005576309 -0.028527223 0.07326162
0.03114331 -0.12023182 0.0888431 -0.017350394 -0.07159045 0.18432327 -0.031757724 -0.020767214
0.105808504 0.08593988 0.074647054 -0.13094246 0.10705692 0.012505213 -0.043654032 -0.007179309
0.1448956 0.04140663 0.08353102 -0.02878297 -0.06399709 -0.062955156 0.07710342 -0.15213491
00000000: d300 9fbc 4ac1 9c3c 63bf d43c a5d0 65bc
00000010: efa7 dc3c 0971 20bb 7d96 3abb 5f74 553d
00000020: 4543 16bc 5f85 913c 774d 183d ebc0 1b3d
00000030: 5c3c 893c 0575 43bc 7aa9 283d 561b 1cbc
00000040: 0fa6 05bd adc1 073d 9809 0abd 2105 7a3c
00000050: e464 ec3c a68b 9a3b f372 d8bb ba5d 8fbc
00000060: 4dd9 47bb ff3e c13c 91a1 00bd c4c6 a83d
00000070: c96b 1d3b 7d1e e0bc c58c 4d3c 06b6 04bc
00000080: ba49 bc3d b88f 89bd b2e5 543d 4925 43bd
00000090: f4d3 523d c0f1 8cbd 7184 9b3c bb72 a2bc
000000a0: 470a 5ebd ff34 1ebd f69d 1ebd 5e95 d23b
000000b0: e835 c9bd 748c 87bd b1c8 10bd ab11 813c
000000c0: bfc0 1dbc 44e6 253d f345 b13d 186f 2d3c
000000d0: ba13 a43d e175 aebd ed24 62bd 537d 2fbe
000000e0: 88e2 673c a253 f03a af95 a93d f146 93bd
000000f0: f15d bdbd 42eb 1ebd 05d8 b7bc e14e 89bd
00000100: 1e24 ad3d ee60 583d 86b1 773d 8fca 7cbc
00000110: b9bf d23b 9d67 ee3c ad33 e83b 364e 0e3d
00000120: 1460 e33d 3ab2 263d 9b97 fd3c b18a 063d
00000130: df05 043d 11ff 15bd 263f 253d 64cf 843d
00000140: 9736 143d e94b 243d 22f8 bb3c 6eb4 3dbd
00000150: fd29 88bb 4825 713d 72c2 61bd 4819 5a3d
00000160: 002a e33c a675 32bd acca d33d 8546 893c
00000170: 8539 ef3c e821 95b9 f7a7 983d 3524 c7bd
00000180: 51b5 f43c 95dc df3c 4d21 a1bc 2f62 af3d
00000190: 9317 d63c 2fb8 a6bd 59f2 a03d c078 0c3d
000001a0: af7b ba3d 4cb0 8abd 992d d83c b1cb f33c
000001b0: ed3a cabb 0056 6dbc 0b3f 2dbd 32ba 8dbd
000001c0: 9cd1 96bc d0c6 67bd 2276 613d 6dd9 413c
000001d0: 67ff ca3d b6b7 28bd cb85 93bd db6e 5a3d
000001e0: f830 26bd 3949 123d dce3 64bd e5f7 983d
000001f0: f93d c63c 08b4 6c3d b05b a0bc 6885 c43d
00000200: 5055 bc3a 764d 7a3d da2f 993b 3420 8cbc
00000210: b091 41bc 293c 4ebc a857 8a3d 93a3 c83a
00000220: ecc2 633d 8664 e03c 4ae8 8dbc c71e 4a3d
00000230: de96 cabc 9725 0f3d 9cca 6b3d 86c9 ab3c
00000240: b0d5 2c3d 1a08 91bb 52df 413c b214 223c
00000250: 0d5c 54bc bf54 4b3c 95c7 52bc 0e38 d4bc
00000260: f7ce be3c ad17 d93c 4666 033d 2b1e a5bc
00000270: 4567 c5ba 6057 c7bc e043 e63b 58c8 bb3c
00000280: cd63 4cbc fb46 1dbc ce1f 4f3d eae1 caba
00000290: 5a24 fb3c c47e 2a3d d0d6 693c a179 2bbd
000002a0: e276 0dbb bf2b e5bb 2882 79bb 81b9 88bd
000002b0: 037e 0fbd e65d 953c ec5f c9bc 13fe cdbc
000002c0: 882b 073b 8110 adbc 6c04 adbc 0479 c0ba
000002d0: 2263 3e3a 4990 a93c 11c7 c2bc 5d1f a2bb
000002e0: ff5a 24bd b4ec 1b3d 48a0 87bd 683c 28bd
000002f0: e7f9 e33a d036 1c3d 16f9 dcbd 5ba4 323c
00000300: e46b 8dbc ea87 56bb 424d 89bd 15f6 d4bc
00000310: 37d1 15be 812f 303b 7a1b afbd 2e3e c2bb
00000320: 9ac1 01bd 8ef1 42bd f840 8d3d 11df de3c
00000330: 3e45 8f3d de79 1dbd 9f2b e3bc 14e6 033e
00000340: 468a a53d a75d 3dbc 56eb 043d a37b dbbc
00000350: 3575 24bd 589b adbd 5d93 873d c372 b93c
00000360: c96d 38be 4816 2b3e 923c b83d 309e 8fbb
00000370: 8dbe a93c 1333 98bd 046d a83d 01fd 6dbb
00000380: 6814 803d e7c8 f0bc 329f 9dbd 6c24 35bd
00000390: 5709 d2bd 78b9 b6bb ecb1 e9bc 300a 963d
000003a0: 4120 ff3c 1a3c f6bd 5ff3 b53d 6a22 8ebc
000003b0: 049e 92bd 3dbf 3c3e 6314 02bd 0120 aabc
000003c0: 21b2 d83d 3f01 b03d 8ee0 983d c815 06be
000003d0: a940 db3d aae2 4c3c 92ce 32bd 6940 ebbb
000003e0: 835f 143e 009a 293d 5012 ab3d 43ca ebbc
000003f0: e810 83bd a2ee 80bd 66e8 9d3d 41c9 1bbe

conv2d_6/Conv2D_bias f4 [128]
-0.2887013 -0.16946374 -0.37625566 -0.32799003 -0.40007815 -0.30622002 -0.29442444 -0.33452722
-0.30724776 -0.38042644 -0.17892428 -0.37039655 -0.42752495 -0.37010458 -0.40184847 -0.24934159
-0.33597934 -0.35800976 -0.2481229 -0.30848444 -0.4954551 -0.41575494 -0.29078808 -0.38252854
-0.3502117 -0.28797483 -0.38090944 -0.36445388 -0.4549632 -0.38494098 -0.34058115 -0.3497908
-0.36153093 -0.3618028 -0.4033708 -0.42664158 -0.2979725 -0.4328878 -0.3823608 -0.35537222
-0.39390713 -0.5174991 -0.2641024 -0.4580064 -0.32767853 -0.34894785 -0.32156003 -0.39325625
-0.31500727 -0.34080264 -0.37486213 -0.31035247 -0.17805034 -0.42230904 -0.4404601 -0.34042144
-0.26741338 -0.3598241 -0.3134892 -0.4212905 -0.5040124 -0.37086082 -0.29974282 -0.53175545
-0.3100145 -0.54811025 -0.3784902 -0.42414486 -0.37021342 -0.4251341 -0.43309817 -0.27215037
-0.35201737 -0.33271036 -0.2699938 -0.33684698 -0.40070504 -0.2858091 -0.36013976 -0.27901244
-0.36977428 -0.46565127 -0.3326745 -0.31490812 -0.320744 -0.3838578 -0.38972864 -0.39864954
-0.31137615 -0.32034588 -0.40286702 -0.34369788 -0.52691406 -0.4651986 -0.36236078 -0.29464343
-0.33143577 -0.36170208 -0.3767844 -0.40403455 -0.27779725 -0.25230825 -0.35851097 -0.33708048
-0.42792642 -0.30649707 -0.35107523 -0.15115368 -0.36764356 -0.18516713 -0.38612247 -0.23569395
-0.31223503 -0.30589405 -0.33244014 -0.38041747 -0.44207653 -0.29868212 -0.4074369 -0.31117398
-0.30550656 -0.34488088 -0.3195245 -0.41417712 -0.3094919 -0.24977522 -0.44765523 -0.36131102
00000000: a8d0 93be e787 2dbe 95a4 c0be 4fee a7be
00000010: 0bd7 ccbe dfc8 9cbe cdbe 96be 2747 abbe
00000020: 944f 9dbe 41c7 c2be ed37 37be 9ea4 bdbe
00000030: 8de4 dabe 597e bdbe 15bf cdbe 6753 7fbe
00000040: 7c05 acbe 0e4d b7be ee13 7ebe acf1 9dbe
00000050: 4aac fdbe d5dd d4be 2de2 94be c8da c3be
00000060: f34e b3be 7071 93be 9006 c3be b399 babe
00000070: f0f0 e8be fc16 c5be a760 aebe c817 b3be
00000080: 951a b9be 373e b9be 9e86 cebe c470 dabe
00000090: da8f 98be 78a3 ddbe cbc4 c3be 59f3 b5be
000000a0: 32ae c9be d27a 04bf 6e38 87be d17f eabe
000000b0: 7bc5 a7be 4ba9 b2be 84a3 a4be e258 c9be
000000c0: a248 a1be af7d aebe eeed bfbe 85e6 9ebe
000000d0: d452 36be e438 d8be fc83 e1be b84b aebe
000000e0: 68ea 88be dd3a b8be a881 a0be 63b3 d7be
000000f0: f506 01bf 78e1 bdbe e477 99be 2021 08bf
00000100: 38ba 9ebe f450 0cbf 78c9 c1be 8429 d9be
00000110: 9d8c bdbe 2dab d9be 0bbf ddbe 4b57 8bbe
00000120: 9f3b b4be 0359 aabe a13c 8abe 3577 acbe
00000130: 3629 cdbe 9255 92be 3d64 b8be b8da 8ebe
00000140: 0e53 bdbe d869 eebe 5054 aabe a33b a1be
00000150: 8f38 a4be 0289 c4be 838a c7be cb1b ccbe
00000160: b26c 9fbe 6004 a4be 9644 cebe 2bf9 afbe
00000170: d7e3 06bf 832e eebe 5a87 b9be 81db 96be
00000180: f3b1 a9be 0431 b9be e3e9 c0be 9edd cebe
00000190: 713b 8ebe 8c2e 81be c08e b7be d095 acbe
000001a0: 2c19 dbbe 2fed 9cbe 22c0 b3be 08c8 1abe
000001b0: c73b bcbe 749c 3dbe d8b1 c5be c159 71be
000001c0: 45dd 9fbe 259e 9cbe 9835 aabe 14c6 c2be
000001d0: db57 e2be ddec 98be 929b d0be 3252 9fbe
000001e0: 5b6b 9cbe 3a94 b0be b798 a3be 060f d4be
000001f0: b975 9ebe 13c5 7fbe 1133 e5be c2fd b8be

conv2d_6/kernel f4 [128, 1, 1, 64]
0.0053727715 0.010266571 -0.0061730137 -0.012330774 -0.007945939 -0.00100202 0.0056907195 -0.005388772
0.010086185 0.0016366568 0.003699171 0.0009800398 -0.0031416193 0.0046151215 0.00826783 -0.012423152
-0.0025795803 -0.008665605 -0.0079767965 0.023362884 0.004442275 -0.006154122 -0.012064873 0.0057148905
0.0047665345 0.001491647 0.010213198 -0.011026431 0.0044214097 0.005521766 -0.009898301 0.0060537593
-0.0069897473 0.001097126 0.009149771 -0.007983661 -0.005372112 -0.0023348425 -0.0053210966 -0.002210228
0.005222631 0.0024750915 0.012534818 0.007569796 -0.0031752735 -0.00046393363 -0.000100545934 0.00077211036
-0.0035387045 0.006846574 -0.0075943363 -0.0013698501 0.0027058923 -0.0068582324 -0.007525384 -0.0063766274
-0.0010351548 -0.00490009 0.005629439 0.009096209 0.0047493773 -0.0013707398 -0.00047385992 -0.004289422
0.0077094026 0.0011919235 0.01153814 0.0036140683 -0.009381054 -0.01639537 -0.01664634 -0.005955137
-0.011739916 -0.010653453 0.010948376 -0.0048818295 0.0007482576 -0.014690658 -0.008006985 0.0024180657
-0.024569694 -0.0072904876 -0.032104187 0.0007240836 -0.0112891365 -0.025667764 -0.022974242 -0.0025239547
-0.032139365 -0.008390802 0.017322125 -0.0032726498 -0.0053302045 0.021740789 -0.008222625 -0.005485544
-0.03381502 -5.460189e-05 0.0035161395 0.0024348956 -0.0053428905 0.005212662 0.019958152 0.0036280837
-0.013101953 0.004064676 0.009126822 0.0030713298 -0.024477113 -0.017588446 -0.00540898 0.0016816944
-0.016858278 -0.010421186 -0.00502486 -0.02057445 -0.011385225 -0.022137547 -0.011166004 -0.015309522
-0.0073817386 -0.010810594 0.012970192 -0.015559331 0.0040188525 0.029168038 -0.015836284 -0.02408743
-0.00029083434 -0.0028305254 0.004866509 -0.0013363281 -0.010719535 -0.0031046574 -0.0023054248 6.1638915e-05
-0.0067459987 -0.005999588 0.008514491 0.00021895746 0.004633083 -0.0125794355 -0.0036952693 -0.007824111
0.006338192 -0.00993494 -0.014840042 0.012926097 -0.013306386 -0.0064031673 -0.015770769 -0.013903358
0.0005707946 -0.009552942 0.014672694 0.0006497702 -0.0075124246 0.012583624 -0.0030799354 0.0014385679
-0.015948564 -0.00058509014 0.009860716 0.00029500408 0.00464252 0.0018003555 0.0074501196 0.0043571554
0.0043846057 0.010168911 0.0018759737 -0.0018734225 -0.011996997 -0.0038166093 -0.0005536129 -0.004898671
-0.022035696 -0.007879147 0.0035553884 0.0044065807 0.010477034 0.0034824358 -0.017991923 -0.013523829
-0.00660194 0.0007785221 0.0024436591 0.0049098046 0.002969068 0.008778311 -0.0028525165 -0.0074123456
0.027507387 0.01660196 -0.0152087 -0.010682711 0.004001851 0.001812694 0.0152694 -0.003712116
-0.008766286 -0.01825193 0.019280914 -0.007877239 -0.0110426005 -0.006177565 -0.013682319 -0.0019850498
-0.0056948424 -0.0031742183 -0.030678224 0.019692957 -0.003700775 0.012870256 -0.008828726 -0.008976807
0.0064487956 0.0013076175 0.0028033461 -0.014860985 0.011181027 0.0061506815 -0.017978502 -0.0011498614
0.0045371824 -0.00056825724 0.017461943 0.008212312 -0.0029269916 0.016054938 -0.015090401 0.0053297444
-0.012800682 0.0022260323 0.008355286 -0.002545618 -0.0048645088 -0.016672213 -0.0002539685 0.0007168811
-0.011839403 0.0017380012 -0.017965974 -0.004329612 0.019452317 -0.005867088 0.0054642945 -0.039394088
-0.00025403523 0.012177413 0.013821046 0.0016349709 -0.014114527 0.017624306 -0.014311516 -0.012480816
00000000: 130e b03b 1f35 283c fe46 cabb 0407 4abc
00000010: af2f 02bc 3656 83ba 3779 ba3b 4c94 b0bb
00000020: 8740 253c 1785 d63a ca6d 723b ae74 803a
00000030: a0e3 4dbb 723a 973b cb75 073c 7a8a 4bbc
00000040: 2d0e 29bb 2ffa 0dbc 1cb1 02bc 8563 bf3c
00000050: 8190 913b 84a8 c9bb bfab 45bc fa43 bb3b
00000060: 9730 9c3b 5e83 c33a 4255 273c 34a8 34bc
00000070: 79e1 903b eeef b43b 7c2c 22bc 9d5e c63b
00000080: 400a e5bb 71cd 8f3a ece8 153c e7cd 02bc
00000090: 8b08 b0bb 2804 19bb 985c aebb 79d9 10bb
000000a0: 9b22 ab3b 2535 223b d65e 4d3c 0d0c f83b
000000b0: 4018 50bb 1e3c f3b9 30dc d2b8 7367 4a3a
000000c0: 9ce9 67bb 3a59 e03b e9d9 f8bb 8b8c b3ba
000000d0: 5755 313b 06bb e0bb 7f97 f6bb 07f3 d0bb
000000e0: 08ae 87ba ef90 a0bb 2877 b83b 4408 153c
000000f0: aaa0 9b3b 65aa b3ba 6770 f8b9 488e 8cbb
00000100: 289f fc3b 513a 9c3a 770a 3d3c 01da 6c3b
00000110: feb2 19bc 954f 86bc e85d 88bc 4f23 c3bb
00000120: c758 40bc d28b 2ebc d160 333c c1f7 9fbb
00000130: b826 443a 16b1 70bc bb2f 03bc 6978 1e3b
00000140: 6246 c9bc 0be5 eebb ae7f 03bd 6ed0 3d3a
00000150: 12f6 38bc 3445 d2bc 7a34 bcbc ef68 25bb
00000160: 91a4 03bd 9379 09bc 21e7 8d3c f479 56bb
00000170: ffa8 aebb bd19 b23c 30b8 06bc 14c0 b3bb
00000180: 9e81 0abd 5504 65b8 086f 663b c592 1f3b
00000190: 6a13 afbb face aa3b 477f a33c 25c5 6d3b
000001a0: 93a9 56bc f930 853b ab88 153c 5d48 493b
000001b0: 3a84 c8bc a515 90bc d03d b1bb 4d6c dc3a
000001c0: 5f1a 8abc 9fbd 2abc 95a7 a4bb c08b a8bc
000001d0: 1889 3abc cd59 b5bc 9ef1 36bc cad4 7abc
000001e0: 83e2 f1bb eb1e 31bc ee80 543c 90ec 7ebc
000001f0: 94b0 833b cff1 ee3c 18bb 81bc 0153 c5bc
00000200: 207b 98b9 5680 39bb 3d77 9f3b bb27 afba
00000210: fda0 2fbc 8277 4bbb 9c16 17bb 2444 8138
00000220: 8a0d ddbb 3198 c4bb 5d80 0b3c f297 6539
00000230: 1ed1 973b fa19 4ebc 552c 72bb b330 00bc
00000240: 9cb0 cf3b 29c6 22bc a623 73bc fbc7 533c
00000250: 0703 5abc a9d1 d1bb b331 81bc e9ca 63bc
00000260: 61a1 153a f183 1cbc bd65 703c 5755 2a3a
00000270: c92a f6bb 8b2b 4e3c bed8 49bb 548e bc3a
00000280: 90a6 82bc bc60 19ba d78e 213c c7aa 9a39
00000290: 4820 983b e8f9 eb3a 2220 f43b 78c6 8e3b
000002a0: bdac 8f3b 819b 263c 3be3 f53a a18d f5ba
000002b0: 0d8f 44bc 1420 7abb 5520 11ba 0885 a0bb
000002c0: 3484 b4bc 8a17 01bc 8501 693b 1465 903b
000002d0: dea7 2b3c 9439 643b cc63 93bc 0d93 5dbc
000002e0: 1655 d8bb bc15 4c3a cc25 203b 6de2 a03b
000002f0: b294 423b e8d2 0f3c 49f1 3abb 43e3 f2bb
00000300: 2c57 e13c d500 883c e92d 79bc 8a06 2fbc
00000310: f621 833b eb97 ed3a 812c 7a3c f946 73bb
00000320: 78a0 0fbc 1285 95bc 02f3 9d3c 890f 01bc
00000330: 06ec 34bc 2c6d cabb ce2b 60bc 9c17 02bb
00000340: cd9b babb 8c06 50bb e650 fbbc 2053 a13c
00000350: b488 72bb c4dd 523c 5ca6 10bc 7513 13bc
00000360: 6b50 d33b 5d64 ab3a 58b8 373b 7d7b 73bc
00000370: a030 373c a88b c93b a747 93bc f2b6 96ba
00000380: a5ac 943b 19f7 14ba 590c 8f3c ef8c 063c
00000390: c5d2 3fbb a585 833c bb3d 77bc 23a5 ae3b
000003a0: f4b9 51bc a0e2 113b 9ce4 083c 62d4 26bb
000003b0: 7566 9fbb 2a94 88bc 1327 85b9 14ed 3b3a
000003c0: 0efa 41bc a5cd e33a 612d 93bc 6bdf 8dbb
000003d0: 775a 9f3c b440 c0bb d30d b33b b25b 21bd
000003e0: 0830 85b9 c683 473c ab71 623c 854c d63a
000003f0: 9e40 67bc d960 903c d97a 6abc 567c 4cbc

conv2d_7/Conv2D_bias f4 [7]
0.059704084 -0.49287483 0.13072613 0.004761112 0.09832976 -0.19042408 -0.0035042209
00000000: 458c 743d 175a fcbe 12dd 053e 1a03 9c3b
00000010: 1d61 c93d 88fe 42be 12a7 65bb

conv2d_7/kernel f4 [7, 3, 3, 128]
-0.06016461 0.32516593 0.009379801 0.115394674 0.005763014 0.18406254 -0.17498882 -0.3446544
0.02665186 -0.014019821 -8.171683e-05 -0.15430975 0.15641023 0.013465512 -0.094297305 0.012724883
0.05729007 -0.16349222 -0.15298903 -0.016794167 0.019169448 0.09253692 0.022893226 -0.19918387
0.35319343 0.005676401 -0.09416784 -0.27861744 -0.1270554 -0.33367828 0.21395381 -0.29701573
0.1898177 0.42620638 -0.074018806 -0.21993701 0.06676321 -0.11962887 0.07611834 -0.019981805
-0.29978138 0.0823304 -0.12793198 0.049793523 -0.1173512 0.18639056 0.25359195 0.46517378
-0.12099871 -0.008636991 -0.00596503 0.036061224 0.09195016 0.27663165 0.14226004 -0.05913138
0.12724692 -0.17120649 0.029488698 0.27711636 0.2450317 0.2870471 -0.077322274 -0.12851807
0.09123948 -0.26387545 0.19677494 0.0033558947 0.132264 -0.0988633 -0.16564842 0.10202323
-0.16334145 -0.12001038 -0.32534215 -0.20283037 -0.062114883 0.05823871 -0.13319531 0.1710565
0.102215834 -0.046809103 0.17374852 -0.05413462 0.16881597 -0.025633791 -0.09154738 0.049124464
0.049324144 0.25867492 -0.04591551 -0.124846295 0.1322301 0.04241662 -0.08201792 -0.07241498
0.19024405 0.2350709 0.074043415 0.062598094 0.24556582 -0.30999714 0.08765869 -0.17796062
-0.11034906 0.0064583803 0.012656724 0.10241909 -0.06852261 0.19358335 0.14506279 0.015569509
0.07167896 0.2099034 -0.3781784 -0.16230287 0.1014355 -0.17907982 -0.12571222 0.15552294
-0.45383185 -0.23779422 -0.082279734 -0.0057694535 -0.18559895 0.20667647 0.102228954 -0.1920285
0.04587432 0.26614258 0.08851304 0.064747594 -0.053922594 -0.056305196 -0.19787481 -0.07235819
-0.052425694 -0.114464015 0.093210116 -0.09766543 0.1364751 -0.10312763 -0.025930023 0.04407547
-0.0850649 -0.0014470717 -0.18347634 -0.09374958 0.18093592 -0.009917289 -0.12522252 -0.07249613
0.12430482 0.016183984 -0.028014505 -0.032105822 -0.08246695 0.03357326 0.124532245 -0.121441565
-0.05358267 0.16457002 -0.00030406663 -0.21934734 0.074788734 -0.0690188 0.030881798 -0.03216665
-0.20920794 -0.07173624 -0.12522948 0.033818718 -0.06254147 -0.013533128 0.105975054 0.081460156
-0.08678417 0.13307616 0.00028705207 -0.100264914 -0.044664297 0.117941126 0.080456346 -0.1012251
0.13464904 0.017393997 -0.13266096 -0.020852743 0.3428767 0.26209545 0.075612485 -0.07675199
0.11198966 -0.06100701 -0.016666071 -0.12067978 0.049163386 -0.189789 0.020619499 0.048473995
-0.19440983 0.12766886 -0.25720352 0.012212799 0.03831511 0.09110553 -0.106040955 0.12670441
0.14435907 0.08725797 0.0057495884 -0.062443793 0.030182661 -0.1948356 0.11398585 0.0433236
0.09777474 0.037299838 -0.06358 -0.05279782 -0.08865796 0.13897005 0.10439195 0.022608394
0.13832979 0.005646365 -0.08363747 -0.17847873 0.20885457 0.0967828 -0.196576 -0.2896617
-0.14884143 0.120403074 -0.19643596 0.1531142 -0.10841741 0.16965888 -0.13785984 -0.0071847797
-0.010407137 0.16828732 -0.14556023 -0.18684219 0.21012057 -0.09507736 -0.10073847 0.057304073
-0.24177967 -0.30358738 0.050088838 -0.00916998 -0.18514952 -0.12937187 0.13269776 -0.12860367
00000000: 2b6f 76bd 267c a63e bdad 193c 0b54 ec3d
00000010: aad7 bc3b e47a 3c3e 4530 33be 8b76 b0be
00000020: 0055 da3c 64b3 65bc 645f abb8 6003 1ebe
00000030: 012a 203e 739e 5c3c f21e c1bd 077c 503c
00000040: fea8 6a3d 816a 27be 28a9 1cbe ec93 89bc
00000050: 3f09 9d3c ff83 bd3d 938a bb3c dbf6 4bbe
00000060: c5d5 b43e 1a01 ba3b 12db c0bd f2a6 8ebe
00000070: d01a 02be e1d7 aabe b516 5b3e 7212 98be
00000080: 925f 423e b937 da3e 2c97 97bd 2b37 61be
00000090: 26bb 883d fbff f4bd efe3 9b3d e2b0 a3bc
000000a0: f27c 99be d79c a83d 9a00 03be 4bf4 4b3d
000000b0: d355 f0bd 2bdd 3e3e ced6 813e 422b ee3e
000000c0: 2cce f7bd 2a82 0dbc 4c76 c3bb efb4 133d
000000d0: 5e50 bc3d aaa2 8d3e 9eac 113e bf33 72bd
000000e0: 044d 023e c150 2fbe 4892 f13c 32e2 8d3e
000000f0: 97e9 7a3e d6f7 923e 245b 9ebd 3e9a 03be
00000100: c4db ba3d af1a 87be 5f7f 493e 92ee 5b3b
00000110: 3770 073e d878 cabd bd9f 29be 8ef1 d03d
00000120: fb42 27be 01c8 f5bd 3f93 a6be c4b2 4fbe
00000130: 2d6c 7ebd b78b 6e3d 5a64 08be 6f29 2f3e
00000140: 8956 d13d e7ba 3fbd 22eb 313e 43bc 5dbd
00000150: 18de 2c3e f5fd d1bc 317d bbbd bc36 493d
00000160: 1d08 4a3d 0a71 843e e711 3cbd 6aaf ffbd
00000170: 5467 073e 0dbd 2d3d 03f9 a7bd 4e4e 94bd
00000180: 56cf 423e 6db6 703e 13a4 973d 6e33 803d
00000190: 9b75 7b3e f2b7 9ebe 6686 b33d 4f3b 36be
000001a0: b0fe e1bd d2a0 d33b 265e 4f3c 1ac1 d13d
000001b0: 9555 8cbd b73a 463e 578b 143e 4117 7f3c
000001c0: 6bcc 923d ebf0 563e 99a0 c1be b932 26be
000001d0: 6abd cf3d b360 37be b4ba 00be 6841 1f3e
000001e0: a65c e8be 5480 73be 4782 a8bd af0d bdbb
000001f0: a70d 3ebe ffa2 533e 6a5d d13d 1ea3 44be
00000200: b6e6 3b3d d743 883e 5346 b53d 639a 843d
00000210: f0dd 5cbd 47a0 66bd b29f 4abe 8830 94bd
00000220: 53bc 56bd 1c6c eabd f2e4 be3d d004 c8bd
00000230: 21c0 0b3e 9434 d3bd 336b d4bc 7b88 343d
00000240: 8236 aebd abab bdba 39e1 3bbe c8ff bfbd
00000250: 4447 393e 207c 22bc 553a 00be da78 94bd
00000260: 8793 fe3d 4694 843c ad7e e5bc 6581 03bd
00000270: 6fe4 a8bd 1d84 093d c30a ff3d 5bb6 f8bd
00000280: 8079 5bbd 0b85 283e 226b 9fb9 979c 60be
00000290: d62a 993d bb59 8dbd d3fb fc3c 2dc1 03bd
000002a0: 9b3a 56be 73ea 92bd 283c 00be 7f85 0a3d
000002b0: be15 80bd 0eba 5dbc 7309 d93d 95d4 a63d
000002c0: e6bb b1bd 1e45 083e 7a7f 9639 b157 cdbd
000002d0: e9f1 36bd 1e8b f13d 4cc6 a43d 1b4f cfbd
000002e0: 70e1 093e db7d 8e3c 46d8 07be 5fd3 aabc
000002f0: 898d af3e 6031 863e b8da 9a3d 2630 9dbd
00000300: d65a e53d 7de2 79bd 4987 88bc f626 f7bd
00000310: 8c5f 493d 0c58 42be 39ea a83c ab8c 463d
00000320: 5f13 47be a0bb 023e 2eb0 83be 3118 483c
00000330: 4ef0 1c3d 8995 ba3d 002c d9bd cdbe 013e
00000340: ddd2 133e 4eb4 b23d 0b67 bc3b 10c5 7fbd
00000350: a141 f73c fc82 47be 6a71 e93d 1674 313d
00000360: 1f3e c83d b7c7 183d 3b36 82bd 8742 58bd
00000370: 4e92 b5bd 2a4e 0e3e 72cb d53d 3d35 b93c
00000380: 53a6 0d3e 2505 b93b 1f4a abbd 21c3 36be
00000390: f9dd 553e 1036 c63d 384b 49be 8a4e 94be
000003a0: e369 18be e395 f63d 8226 49be f8c9 1c3e
000003b0: f209 debd 0fbb 2d3e 212b 0dbe 4d6e ebbb
000003c0: b282 2abc 8353 2c3e be0d 15be 8f53 3fbe
000003d0: d929 573e ebb7 c2bd f94f cebd adb7 6a3d
000003e0: 1795 77be ce6f 9bbe f429 4d3d af3d 16bc
000003f0: d697 3dbe 0f7a 04be ece1 073e aeb0 03be

separable_conv2d_1/depthwise_kernel f4 [1, 3, 3, 8]
-0.43884715 0.28441367 0.009647485 0.05328963 -0.3944128 -0.1602716 0.34663048 -0.49235502
-0.4092642 0.23432344 0.31708527 -0.20835033 -0.23069048 -0.3485952 0.48605612 0.040406737
-0.02855033 0.07324113 -0.43635762 0.11302501 -0.2702851 -0.06377527 0.09979681 0.4019912
0.5418181 0.17166919 0.4762636 0.38856432 0.6094598 -0.28643176 0.012819547 -0.20206629
0.35347682 -0.32887405 -0.01838064 -0.92169863 0.5731342 0.04779259 -0.34938812 -0.29531288
-0.0013416946 -0.305219 -0.24424298 0.3727574 -0.20693266 0.091720894 0.18413539 0.36585608
0.0039957757 -0.28765258 -0.072409935 0.0665555 -0.28836247 -0.63361764 -0.4005717 0.14848077
0.1440345 -0.16143692 0.20198394 -0.42058718 0.0723059 -0.07123864 -0.4549468 0.0024382945
-0.36897755 0.15675955 -0.06934666 0.29834878 0.12342506 0.32174408 0.054887068 0.0869224
00000000: 93b0 e0be ab9e 913e 7c10 1e3c 3a46 5a3d
00000010: 79f0 c9be 3d1e 24be 8d79 b13e f515 fcbe
00000020: 148b d1be 7cf2 6f3e 0059 a23e ca59 55be
00000030: 203a 6cbe 127b b2be 59dc f83e 8981 253d
00000040: 62e2 e9bc 72ff 953d 446a dfbe a879 e73d
00000050: cf62 8abe 9c9c 82bd 4562 cc3d cad1 cd3e
00000060: 97b4 0a3f 0cca 2f3e d3d8 f33e e7f1 c63e
00000070: 8f05 1c3f 2fa7 92be 1409 523c 77ea 4ebe
00000080: eafa b43e 2e62 a8be ff92 96bc 71f4 6bbf
00000090: ecb8 123f 2ac2 433d 00e3 b2be 4033 97be
000000a0: cddb afba aa45 9cbe d51a 7abe 0fda be3e
000000b0: 28e6 53be 2ad8 bb3d fd8d 3c3e 7d51 bb3e
000000c0: ffee 823b 3347 93be a94b 94bd 404e 883d
000000d0: 3fa4 93be c434 22bf bc17 cdbe 580b 183e
000000e0: c87d 133e b84f 25be e1d4 4e3e 3457 d7be
000000f0: 1e15 943d 90e5 91bd c9ee e8be cbcb 1f3b
00000100: a0ea bcbe 9385 203e 9f05 8ebd 2cc1 983e
00000110: 47c6 fc3d a4bb a43e 43d1 603d 5f04 b23d

separable_conv2d_1/pointwise_kernel f4 [16, 1, 1, 8]
0.54592067 0.32860544 -0.061177757 0.9380543 0.04620782 1.1074511 1.3567281 0.04057515
-1.1735474 -0.52955127 0.1948218 -0.32332197 1.7746913 0.40884084 0.42036247 -0.062212043
0.7864225 0.02881422 1.5619602 -0.8537234 0.3844034 -0.2895516 -0.10371202 -0.5869331
-0.018061254 0.8584469 1.0492259 -0.1733192 -0.17978762 0.8757865 -1.3353208 0.94002813
-0.5231026 -0.19586185 0.4692066 0.38348225 0.7986548 0.55131733 -1.0751711 -0.9732315
-0.26509193 0.11605644 0.014238464 1.6735787 -0.38332415 0.42196798 -0.27226228 -0.78062445
0.07637712 -0.25423256 -0.054096352 1.1255593 -0.73293537 1.2007145 -1.0847398 -0.38449904
0.08057183 -0.25158355 -0.024505788 1.2572371 0.3039183 0.32422277 1.2466578 0.21549068
1.0256363 -0.04971613 0.8123786 0.5007659 0.2832659 -0.81191427 0.69432235 -0.1621737
0.51579624 0.38680613 0.30352154 -0.77665293 0.22559129 0.53558666 0.2258678 1.8318524
-0.7645058 -0.1531632 -0.74329984 0.36730543 -1.3618397 0.55223334 -0.8909738 0.17953046
1.4102224 0.35569656 0.46537113 0.37262592 -0.99499357 -0.1110164 -0.0786323 0.26618573
0.35527962 0.08958896 0.2713668 -0.13167211 -1.5549778 0.77548623 0.13554023 0.5895917
0.21678 -0.5467165 -0.4351236 0.7409502 0.16995646 1.5382608 1.1681399 -0.3363571
-0.7278095 0.36128244 0.1618232 1.282949 -0.8821768 -0.033514 -0.49165133 -0.12625289
0.57065284 1.2520316 -0.013813545 -0.27365467 -1.214861 -0.18116108 0.0061785355 -0.017033178
00000000: 75c1 0b3f f93e a83e 8795 7abd 5424 703f
00000010: 6944 3d3d f5c0 8d3f 44a9 ad3f 2132 263d
00000020: cd36 96bf ac90 07bf 5e7f 473e 758a a5be
00000030: 1629 e33f 9653 d13e c039 d73e 0ed2 7ebd
00000040: fc52 493f cd0b ec3c 50ee c73f 9e8d 5abf
00000050: 86d0 c43e 1b40 94be f866 d4bd 3f41 16bf
00000060: 32f5 93bc 2dc3 5b3f 094d 863f 977a 31be
00000070: 3f1a 38be 8b33 603f cbeb aabf afa5 703f
00000080: 0dea 05bf 0290 48be d93b f03e c957 c43e
00000090: a474 4c3f 2223 0d3f 359f 89bf b325 79bf
000000a0: 21ba 87be 00af ed3d 7248 693c d437 d63f
000000b0: 1043 c4be 300c d83e f665 8bbe 01d7 47bf
000000c0: 9c6b 9c3d c52a 82be 2394 5dbd 5412 903f
000000d0: a7a1 3bbf 03b1 993f c1d8 8abf 0fdd c4be
000000e0: d802 a53d 8fcf 80be 5dc0 c8bc 25ed a03f
000000f0: 2e9b 9b3e 8700 a63e 7c92 9f3f 97a9 5c3e
00000100: 0d48 833f 24a3 4bbd 0bf8 4f3f 3232 003f
00000110: 3a08 913e 9dd9 4fbf 1cbf 313f dd10 26be
00000120: 390b 043f 740b c63e 2d67 9b3e bad2 46bf
00000130: 6701 673e 351c 093f e349 673e 247a ea3f
00000140: a7b6 43bf d0d6 1cbe e648 3ebf 750f bc3e
00000150: c350 aebf 2a5f 0d3f dc16 64bf d5d6 373e
00000160: 2b82 b43f dc1d b63e 2045 ee3e d3c8 be3e
00000170: e6b7 7ebf 915c e3bd f909 a1bd 7f49 883e
00000180: 36e7 b53e 6b7a b73d 97f0 8a3e 0ed5 06be
00000190: 8309 c7bf 4486 463f 0fcb 0a3e 7bef 163f
000001a0: 94fb 5d3e 9df5 0bbf 85c8 debe eaae 3d3f
000001b0: 1109 2e3e bbe5 c43f 9c85 953f ff36 acbe
000001c0: b951 3abf 03fa b83e fbb4 253e ac37 a43f
000001d0: 57d6 61bf fa45 09bd b9b9 fbbe 7048 01be
000001e0: 4e16 123f 9242 a03f 3552 62bc 771c 8cbe
000001f0: 9180 9bbf 4a82 39be 5075 ca3b 2a89 8bbc

separable_conv2d_1/separable_conv2d/depthwise_bias f4 [8]
0.0 0.0 0.0 0.0 0.0 0.0 0.0 0.0
00000000: 0000 0000 0000 0000 0000 0000 0000 0000
00000010: 0000 0000 0000 0000 0000 0000 0000 0000

separable_conv2d_1/separable_conv2d_bias f4 [16]
0.9660341 -0.39325365 -0.37508523 0.3828505 0.4691792 0.454581 0.6836424 0.7576069
0.04134383 -0.07692981 0.19486661 0.41898015 0.21326603 0.7696415 0.89112973 0.021322727
00000000: 034e 773f 8b58 c9be 2c0b c0be fb04 c43e
00000010: 4238 f03e d7be e83e 3003 2f3f 87f2 413f
00000020: 2658 293d 608d 9dbd 1d8b 473e 9184 d63e
00000030: 6962 5a3e 3a07 453f 1421 643f 00ad ae3c
