phone/src/main/assets/fer2013.tflite (tflite, 236264 bytes, 43 tensors)

conv2d_1/Conv2D_bias f4 [8]
00000000: 805c 21be 4f4a 85bd 7e3c 193e 9fa1 af3e
00000010: 5380 e53d e5aa 3abd 0d22 c0bd 90fb 8b3e
-0.15757942 -0.06508314 0.14964482 0.34302995 0.112061165 -0.045573134 -0.09381495 0.27340364

conv2d_1/kernel f4 [1, 3, 3, 8]
00000000: c422 11bf 346e 783f 2870 c43f 9606 d5be
00000010: 1f2a 0440 66d8 1abf a99f 2a3e 656c 52c0
00000020: 7299 85bf 1bad 573f 263e ba3f 2a6e 713f
00000030: bcf5 95bb 88c9 e3bb c361 bebd b090 2d3f
00000040: d644 2fbf d6bc 88bd 5341 5abf 4695 36bf
00000050: 79e2 7b3f 33ac 7d3f e067 963e 2606 d8bf
00000060: 040e 6d3f 26c1 05c0 75b5 b73f 4aa0 e63e
00000070: 650a e63e 1ebd 3040 6152 493e f7fb dabf
00000080: 663d 86bf 3fa3 8b3f 4e89 7f3f 4e69 75c0
00000090: d1fd 03c0 c03a c9bf 767d 44be 1953 5e3f
000000a0: f300 f63e 1169 1d3e 3869 24bf 0391 c6bc
000000b0: 1a04 903e e355 cdbf 93dd 4e3e b58c c63e
000000c0: 0afd 3dbe 8e62 4cbf c699 9cbf d99e 3740
000000d0: dabd 8cbf b579 afc0 6850 ccbe d52c e53f
000000e0: 1d40 f5bd 2e63 70bf 1007 3dbe e984 f53f
000000f0: 5445 4cc0 c809 3e40 03c2 913d 38e4 2a40
00000100: 50b5 a33e ac69 15bf c603 a9bf 24d7 703e
00000110: 57ec ac3f 56dd 1640 f2a0 753f ba73 aa3e
-0.56693673 0.97043157 1.5346727 -0.41606587 2.0650709 -0.6048645 0.16662468 -3.2878659
-1.0437453 0.84248513 1.4550216 0.9430872 -0.004576413 -0.0069515146 -0.0929599 0.677989
-0.6846441 -0.066766426 -0.85255927 -0.71321523 0.98392445 0.9909088 0.29376125 -1.6876876
0.9259951 -2.0899138 1.4352251 0.45044166 0.44929805 2.7615428 0.19660331 -1.7108144
-1.0487487 1.0909194 0.99818885 -3.8345523 -2.0623667 -1.5721054 -0.19188485 0.86845547
0.480476 0.15372111 -0.6422305 -0.024239069 0.2812813 -1.6041836 0.20201711 0.38779226
-0.18553558 -0.7983788 -1.2234428 2.8690703 -1.0995438 -5.483607 -0.39905095 1.7904307
-0.11975119 -0.93901336 -0.18459725 1.9181186 -3.1917315 2.969347 0.07117083 2.6701794
0.31974268 -0.5836437 -1.3204277 0.2351957 1.3509625 2.3572593 0.9594871 0.33291417

conv2d_2/Conv2D_bias f4 [8]
00000000: 3998 963f 35b8 8d3f 2ae4 383e 4e2e e13f
00000010: 3e62 563f 2972 e5bf d6fa a6be 1abd a43f
1.1765205 1.107184 0.18055788 1.7592256 0.83743656 -1.7925464 -0.32613248 1.2870209

conv2d_2/kernel f4 [8, 3, 3, 8]
00000000: a80f d53d 0962 7fbd d45f 9ebd fd9b d8bd
00000010: dae1 003e ecec f9bd 4f96 30bd dcf6 0bbe
00000020: 9ec7 1b3e 9c8c 243d 8003 ffbd dbba 2ebe
00000030: 7479 0a3e b74a 6f3d 167d d73c 0b16 29be
00000040: 1d5c ef3d ee03 613d feb6 adbd 7c9c 0ebe
00000050: 19a0 e63d 9e9e aebb db37 253c 1af2 cdbd
00000060: 9508 013e ff27 01bd a673 f3bd 13e1 233e
00000070: 24dc 883d b452 8cbb 5d07 0cbd b901 203d
00000080: 6f3a 823d 76f5 d83c 0ca3 3fbe eeb0 bbbc
00000090: 8a2f 31bd d042 0fbe 171e 983b a2a8 633d
000000a0: 9c59 943c 27b0 893d 87f7 1bbe c637 42be
000000b0: 8ca0 e8bd e298 5a3d 454c 923d b20a 64bd
000000c0: 7977 81bd 72e9 07be 740e 64bc 16d0 d9bc
000000d0: 45a1 76be 8749 02be d6c3 7b3c e11c 57bc
000000e0: 5ae6 48ba 045a 49bd 8f0e 0cbe a4c2 debb
000000f0: 5421 2ebe 3f0c cdbd f773 0d3d 6f43 303d
00000100: eaa3 003e c332 96bc a0d1 39be 61fa b0bd
00000110: ca19 ceba 50ed 143c f9be 903d 1747 c43d
00000120: 5f4a 02be cdbf fb3c bd8b 623d 55f1 a8bd
00000130: 5b76 5ebd 4455 283d f7ec b93c e944 29be
00000140: 15a7 aabd 7ee4 68bc 6023 1a3d 84bc 063c
00000150: 291e 67bc 51d4 983d 7bb9 88bc 46fe 8dbd
00000160: 9a76 66bd 1fde 5ebd 7847 5cbc ea71 a1bc
00000170: e5ee 303a c5a2 61bd a8bd fa3c 156e 11bc
00000180: 7c94 66bd efae 123d f3f3 d7b9 ae6d e8bc
00000190: fe7c 2b3c d4ed 5cbd a247 99bc dc13 63bd
000001a0: e890 62bd ce8a 233d 7f4f a43d 92b4 ddbd
000001b0: 7b3e 81bc 77ed b73c 40de e63b d6a1 33be
000001c0: ead0 4bbd c280 0c3d 5c3f b13c f856 18be
000001d0: 69c1 98bb ad08 bebb 6e72 953c f5b4 1dbe
000001e0: a3b8 1dbd 543b 8fbc 7273 823d 6413 2ebe
000001f0: 7180 0dbe f113 f6bc 718f a7bd cf89 41be
00000200: d8a5 24bd 5fef 03bd effc 2e3e 760e 23be
00000210: ce56 c63c 5eb3 b43d bcf6 173c 9f97 acbe
00000220: 8e74 8cbd 5665 613d 4d83 813d 2825 e9bd
00000230: 0e00 d3bb 74ed adbc 513f 60bd a697 1dbe
00000240: 74e7 5abd 0ec5 c13c a684 e33d 4935 f7bd
00000250: 2652 db3d 864a f33a 9c69 9038 2070 1cbe
00000260: 4ed7 2dbd b6d6 9f3d 0c09 ec3c 0d1b 9cbd
00000270: 6ad3 9a3d d2cc 90bd 1205 e3bc 566b abbd
00000280: b383 a3bb 3b67 ff3d cb70 273d c7c9 58bd
00000290: 4e17 053e 35b5 d9bd 1dd9 82bd 1f06 01be
000002a0: fe58 8e3c 82fa 1a3d ec61 9dbb 1d09 75bd
000002b0: 1ec1 b63d a442 96bd d028 3bbc 8ed8 c5bd
000002c0: d020 bf3c 1544 663d b3dd efbc fa57 ebbc
000002d0: 8308 263d 9145 83bd a894 09bd 0d64 b7bb
000002e0: bf25 5d3d 2540 933d 66e1 05bd 1913 86bc
000002f0: fcfb 073e 7ae6 b9bd 22dc 25bd f526 55bd
00000300: 1349 9e3c 8371 b93d 416c 45bd 8de0 b339
00000310: 27a9 b83d 2939 863b c55d 17bb a6ae 4abc
00000320: 9906 fe3c b24a 453d 42ad 62bc 80bc 4c3c
00000330: 9807 9b3d 6828 a43c 26fe a939 6980 4b3d
00000340: 63e6 503d e732 193d 4e61 633a 04de 923c
00000350: 115f 3bbd 7bbe a8bd df16 95bc 679a 053d
00000360: 978b 1fbd ef91 92bd bd9c 403e 580c 303d
00000370: 265d 69bd 25b6 0abe ff71 06be 2010 043d
00000380: 91e8 b4ba 3a30 3dbd 919e 9ebd 309b 21be
00000390: 927d aabd fe6b 573d 23a3 083d 9195 51be
000003a0: 53e0 863d 2370 d13d 2f71 b4bd c2ce 75be
000003b0: 219b e0bc 9ca9 6cba 6fe1 54bb cbcb 81bc
000003c0: 6c37 37bc 2706 69be 2612 ee3c 137d 963d
000003d0: 8d5a a13d 06ee cf3a 9c2b 863c 5ceb 78be
000003e0: 7737 42bd 8eb3 ffbd 7364 0fbe a6b5 8dbe
000003f0: 1c9b 5fbe b909 393e 1c32 023b 14d2 55be
0.10403377 -0.062349353 -0.077331215 -0.105766274 0.12586156 -0.122033924 -0.043112095 -0.13668388
0.15212867 0.040173158 -0.124518394 -0.17063467 0.13522893 0.058420863 0.026304763 -0.16512315
0.11687491 0.05493539 -0.084821686 -0.13926882 0.11261005 -0.0053289672 0.010084118 -0.10055943
0.1260093 -0.031532284 -0.118872926 0.16003828 0.066826135 -0.00428232 -0.03418671 0.039064143
0.063588016 0.026484232 -0.18714541 -0.022911515 -0.043258227 -0.1399033 0.004642259 0.055580743
0.018109135 0.067230515 -0.15231143 -0.18966588 -0.11358747 0.053368457 0.071434535 -0.055674262
-0.06321616 -0.13272646 -0.0139194615 -0.02658848 -0.24084957 -0.12723361 0.015366515 -0.013129444
-0.00076637196 -0.04915811 -0.13677429 -0.0067981053 -0.17004901 -0.100121014 0.03453442 0.04303306
0.12562528 -0.018334752 -0.18146372 -0.08641506 -0.0015724238 0.009089783 0.07067675 0.09583872
-0.12723683 0.030731106 0.055309046 -0.082491554 -0.05431209 0.04109694 0.022696001 -0.16530193
-0.083326496 -0.014214633 0.037631392 0.008223657 -0.014106312 0.07462371 -0.016690006 -0.069332644
-0.05626545 -0.05441105 -0.013444774 -0.019707639 0.0006749465 -0.05508687 0.030608013 -0.008876343
-0.05629395 0.03581136 -0.00041189752 -0.028372612 0.010466812 -0.053937748 -0.018710915 -0.05543886
-0.055313975 0.039927296 0.08022975 -0.10825457 -0.015776863 0.0224521 0.0070455372 -0.17542204
-0.049759783 0.03430248 0.021636657 -0.14876926 -0.004661728 -0.005799374 0.01824304 -0.15401061
-0.03850616 -0.017484345 0.06369676 -0.16999584 -0.13818528 -0.030038806 -0.08181656 -0.18900226
-0.040197223 -0.032210704 0.17088674 -0.15923485 0.024211314 0.08823274 0.009275135 -0.33709428
-0.068581685 0.055028282 0.06323872 -0.1138404 -0.0064392155 -0.02123139 -0.054747883 -0.1538988
-0.053443387 0.023653533 0.11109285 -0.1207071 0.10709028 0.0018561638 6.886126e-05 -0.15277147
-0.04244166 0.07804625 0.028812908 -0.07622347 0.07559855 -0.070703164 -0.027712379 -0.08370082
-0.004990065 0.124708615 0.040879052 -0.052926805 0.12997171 -0.106302656 -0.06389067 -0.12599991
0.01737642 0.03783656 -0.004802933 -0.059823144 0.08923553 -0.073369294 -0.011423305 -0.09660445
0.023331076 0.05621727 -0.02928052 -0.028728474 0.04053546 -0.06409753 -0.033589035 -0.005596644
0.053991076 0.07189969 -0.03268566 -0.016366528 0.13279718 -0.09077163 -0.040493138 -0.052039105
0.019321954 0.09054854 -0.048198942 0.00034308844 0.09016638 0.0040961695 -0.0023096662 -0.012370741
0.031009005 0.048166938 -0.013835253 0.012496114 0.07569808 0.020038798 0.00032423547 0.04968301
0.051000964 0.03740206 0.00086738623 0.01792813 -0.04574496 -0.08239456 -0.018199382 0.032617953
-0.038951483 -0.07156741 0.18809791 0.042980522 -0.0569736 -0.13546045 -0.13129424 0.03224194
-0.001380222 -0.04618857 -0.07745088 -0.15781856 -0.08324732 0.052593224 0.033358704 -0.20467211
0.06585755 0.102264665 -0.088106506 -0.24004653 -0.027417721 -0.00090279593 -0.0032483002 -0.015844246
-0.011182647 -0.22756253 0.029061388 0.07348075 0.07878599 0.0015863783 0.016378216 -0.24308532
-0.047416177 -0.12485419 -0.14003162 -0.2767765 -0.21836513 0.18070115 0.0019866293 -0.2088092

conv2d_3/Conv2D_bias f4 [16]
00000000: 77df 233f 287e 043d 449e 313e f3da 1f3f
00000010: 527d ab3e 6185 523f a42b fd3f 6f5e 3abf
00000020: 6b8c 0dbf 04ee be3f 644d 183f b856 c0bd
00000030: 5c14 b9bf 786a c0bf 5dce 173f 6e0f 60bf
0.64012855 0.032346874 0.1734553 0.62443465 0.3349405 0.8223477 1.9778943 -0.72800344
-0.55292386 1.4916387 0.5949309 -0.0939154 -1.4459338 -1.5032492 0.5929926 -0.87523544

conv2d_3/kernel f4 [16, 1, 1, 8]
00000000: 67b8 8c3d 344f 20be cb85 d3be 5252 55be
00000010: 2015 d9be cc3b 11be 98b4 37be d89f ec3e
00000020: 7d54 76be 5cbf 20bc 5099 3cbf 4058 4abe
00000030: 8de5 9f3e 602e e63e 6a11 743f 5cec f5be
00000040: f5f6 8abc 0638 ecbe f6da 42bf 6265 e6be
00000050: 9cb5 33be e586 c9be 68bc d73e a1b1 5b3f
00000060: ac3f b83e e2ba 1ebf 03db 3bbf 3422 9ebf
00000070: 4490 4b3f 1966 03bf 9200 323f f8eb 17bf
00000080: 9b9a 0abf 6203 5a3e 5a4b 173f af54 74bf
00000090: af0f f73e 395a 70bf 2f02 0dbe f7a5 0ebf
000000a0: b271 2c3e 35a3 98bd 9d96 95be 45e5 513e
000000b0: 6b34 12bf 8446 1cbf 6523 c9be 8130 1fbe
000000c0: 052a 93bf 8fc8 6fbe 662d 20bf 6e16 90be
000000d0: 630a 03be 04dd 3e3f 1065 47bf 266e 16bf
000000e0: 33e5 073f b90f c6be 89a4 003f d558 a6bd
000000f0: 5cf5 0c3f d390 9fbc 5301 f9bd 3c4c 2a3e
00000100: 9406 333e 6576 0a3f 4813 ea3c 3914 dc3d
00000110: 03b8 143f 58bf 213f 0d2e 413e 0f77 f9be
00000120: 2616 9f3d ef0c 27bf e1e8 23bf 8e5c 0cbe
00000130: db77 3cbf c3fd 303d 5548 29bf bb8b 03bf
00000140: ba6a 3b3d a320 53bf 20b0 8e3e 0bda f6bc
00000150: 4ba2 28bf 6ca4 3d3f 3f7f 87be 8ccb f93e
00000160: 696a 8abe d611 b0bd 0260 8ebe bdee 023f
00000170: 9f26 aebe a1ff adbe 5669 613f 82e2 b9be
00000180: b22d 7a3f 1c94 01be 69d1 3d3f fa56 c33e
00000190: a1b1 873e 9768 21be 71a7 493e 5fd5 a83e
000001a0: a16a 203f e69c 7e3f 18cf 393f 4bf5 a73e
000001b0: e021 9cbe 4280 26be 7e09 893d 9e01 3d3f
000001c0: 82eb 0cbf 7aa0 103f 9776 26bf 97cf fdbe
000001d0: c66f 74be 3f36 bd3e cae5 8b3e ef33 f9be
000001e0: f165 54bc 3799 0c3f 9147 573f 52b7 a3be
000001f0: 6c1f cb3e 41cb 8a3e 0d22 60be 60ea cf3e
0.068711095 -0.15655214 -0.41313013 -0.20832184 -0.4239893 -0.14182967 -0.17939985 0.462157
-0.24055667 -0.009811249 -0.73671436 -0.19760227 0.3122982 0.44957256 0.9533907 -0.4803189
-0.016963461 -0.46136492 -0.7611536 -0.44999224 -0.17549747 -0.3936073 0.4213593 0.85817915
0.35986078 -0.6200391 -0.7338106 -1.2354188 0.79517007 -0.51327664 0.6953212 -0.59344435
-0.5414216 0.21290353 0.5909935 -0.95441717 0.48254153 -0.9388767 -0.13770364 -0.5572199
0.16840246 -0.07453004 -0.2921647 0.20497616 -0.57111233 -0.610451 -0.39284816 -0.15545847
-1.1497198 -0.23416351 -0.6256927 -0.28142112 -0.12796931 0.74555993 -0.77888584 -0.58761823
0.53084105 -0.3868387 0.5025106 -0.08122412 0.5506189 -0.019478237 -0.12158456 0.16630644
0.17482978 0.54086906 0.028573647 0.10746045 0.5809328 0.6318259 0.18865223 -0.48723647
0.07767896 -0.6525411 -0.6402722 -0.13707182 -0.73620385 0.043210756 -0.66125995 -0.51385087
0.04575608 -0.82471675 0.27868748 -0.030133268 -0.6587264 0.7407901 -0.2646427 0.48788106
-0.2703431 -0.08597152 -0.27807623 0.51145536 -0.3401384 -0.33984092 0.88051355 -0.36305624
0.97725976 -0.12654155 0.7414766 0.38152295 0.26502708 -0.15762554 0.1969278 0.3297529
0.626627 0.9945816 0.72581625 0.3280433 -0.30494595 -0.16259864 0.066912636 0.7383059
-0.55046856 0.5649487 -0.65024704 -0.4957244 -0.23870763 0.3695545 0.27323753 -0.48672435
-0.012963758 0.5492129 0.84093577 -0.319758 0.3967241 0.27108195 -0.2188799 0.406085

conv2d_4/Conv2D_bias f4 [32]
00000000: 8011 e63e 90cf 43bf 8917 e53d d82d dc3e
00000010: 6b49 85bf 10e5 19bf c5cd a3be 41c5 8c3e
00000020: 02d9 95bf 535b 623e 2342 76bb a62a 69be
00000030: c330 66be c005 d5be 9913 20bf bf94 b23e
00000040: 9375 5bbf 7d59 10bf 4df9 e8be 22d2 0b3f
00000050: a2db c43e 7131 1c3f 386d 5d3e 2916 de3c
00000060: bc90 3c3e 8ce3 483f 503a 9d3d d23a 103e
00000070: 72c4 eb3e cc9b 973e 0a47 85bf d962 26bf
0.44935226 -0.7648859 0.111861296 0.43003726 -1.041303 -0.60115147 -0.31992927 0.27494243
-1.170685 0.2210515 -0.0037576042 -0.22770175 -0.22479539 -0.4160595 -0.62529904 0.3487911
-0.8572628 -0.5638655 -0.455027 0.5461751 0.38448817 0.6101294 0.21623695 0.027110176
0.18414587 0.7847221 0.07677138 0.14084938 0.46048313 0.2961105 -1.0412304 -0.6499458

conv2d_4/kernel f4 [32, 1, 1, 16]
00000000: 32f4 53bd 832f b3bd 2a78 2ebe 5695 d0bd
00000010: 3698 49bd 9d0f 1fbd 5447 47bd c1e9 d3bd
00000020: 14ff b7bd 15c3 4b3d c1d8 2abe c9e8 45be
00000030: 7142 ff3d ab7e 803d 7018 12bd 989c 00be
00000040: f654 043e d0de cdbd 7638 d93d d966 3fbd
00000050: e268 273e 7aca 573e 5724 253e bdae 343e
00000060: 3967 c53c 6962 4ebd 6348 02be e197 28be
00000070: e57e 333e 0ef2 b8bc a749 523d c7cb 223e
00000080: 626b a2bd 2a12 ebbd 6469 e93d 025b 0bbe
00000090: 89ba e8bd 853b 873c 6ff6 983e eb80 a83b
000000a0: 14a7 20be 4123 52bd 4c69 26bc a74e 3abc
000000b0: 84e4 d9be e6ee 163d bb8c 563b 7931 013e
000000c0: c1d5 acbd 3151 27be 0199 58bd 88b9 4a3c
000000d0: 539e f23d b903 c73d ba7c cb3d ec79 18be
000000e0: 26c3 06bd b072 2e3d 24da 28be 8e77 e33d
000000f0: 0359 47bd c9c1 f03d c0cb 34be 65ad 9e3c
00000100: 483e 573e 015b 383e 5788 da3d 2989 03be
00000110: 9aa3 6e3e bdbf 183e b293 16bd 37b6 be3d
00000120: 4c57 8e3d 73d8 193e e800 a8bd 00c4 283c
00000130: fffa c9bd f9fc 093d 38b8 1d3d e44b 033e
00000140: 64a6 483e 5aa3 013e 2a91 84bd 109c c7bc
00000150: 9104 ff3d 5a53 53bb 025e 4abc e0ff 783d
00000160: 750e c23d 9881 a53d 796c 43bd bcee 433d
00000170: 1c02 cb3d 09ea 163c 927e c13d bbc8 08bd
00000180: 1287 463e ff41 9e3d 23d6 2f3e a272 65be
00000190: 3c70 29bd 4aa6 c63d 0e22 d73b 8d93 54bc
000001a0: e640 f63d df40 46bc c85e f4ba fe77 9dbd
000001b0: 2844 28bc cf73 14be 9cc0 283e 9c07 bc3d
000001c0: 5260 9fbc 58e4 2dbe ea25 8c3c a58b c63d
000001d0: 652d 513d 69b0 b23d f4a1 dbbd 470e 2dbe
000001e0: 4d82 55be d5b7 1ebd b20c ddbb 5eb2 603d
000001f0: a68b f0bd 1737 a33d 0314 483d fa14 28bd
00000200: d49f 6a3e c385 01be bdc1 8ebd 3879 023e
00000210: 6255 7b3d 9b7a 683e 65a3 983d 38f0 a13c
00000220: a469 e53d 85db d63d 5c9c 2d3d 7a35 343d
00000230: a444 1b3e 4dc9 0ebe 017f b4bd 6231 433e
00000240: 44b3 7abd 4503 023e aed5 36bd 5ae2 b83d
00000250: 81a2 183d fe29 15be ad7b b3bd 44d2 b5bd
00000260: 731a b63d 6689 dfbd 7d5b 93bc 1710 1e3e
00000270: 4e4d 1dbe 14cf 8ebd a6bb 833d 68ef 54be
00000280: 712a 6ebd ae90 b13d f8d4 7c3d 8579 a93d
00000290: bc39 efbd e7e5 b93d 9675 3dbe a8fc 7c3d
000002a0: ddb9 d23c 3e21 433d 6a64 543e c9b0 a5bd
000002b0: c84a 7bbd 374c 9bbd 8430 01be 06c3 d3bc
000002c0: 31b5 d9bb 8a60 053e 4f1f 51be 2732 003e
000002d0: af5a 84bd bfcf 9ebd c298 54be 94ef e2bd
000002e0: 4bae e83d 8801 383e 1709 0a3e 23e6 a13d
000002f0: 36b0 da3d 8fd1 a4bd 7f49 42be f5f6 303e
00000300: c320 1bbd 9390 273d 1356 07be e6eb 4dbd
00000310: a957 aebd 3146 7abd e8c7 003d cff9 e23d
00000320: b2b6 c03d ee9c 11bc 13e8 e03c 2972 3fbd
00000330: 5340 3e3e 27ce cebd a579 3bbd a990 873d
00000340: fdb3 f73c 42ca 9d3d 31c3 aebd 9f8f 4a3e
00000350: eca7 10be 2262 5cbd d57a f23d 6908 913d
00000360: 92fd cebd 1518 683d 688d e93c d791 a43d
00000370: 204a e43d 0a69 85bd 6e07 a2bd 587d 453e
00000380: 656f f53d 8cd2 863c 6fdb 103c 2090 1ebd
00000390: 53c3 af3d bb9f 8cbd f1b1 723d b551 ea3d
000003a0: 2866 cd3d bc54 2f3d f8a2 47bd 5c3f a53d
000003b0: 4cb3 2c3d 528f 80bd 374e 73bd 8270 533e
000003c0: 6278 163e cdca 42be 835d 52bc 209c 843d
000003d0: 7f0d 063e fb52 1cbe 25f9 1cbe f370 8cbe
000003e0: a860 973d 8b9f dcbd 1d4c db3d 1ed8 a83e
000003f0: d5d4 98bd b284 75bd cacc b9bb 5dab b6bd
-0.051746555 -0.087492965 -0.17038026 -0.101847336 -0.049217425 -0.03883325 -0.04865201 -0.103473194
-0.08984199 0.04974659 -0.16684248 -0.19327082 0.124638446 0.0627416 -0.035667837 -0.12559736
0.12923035 -0.10052264 0.10606472 -0.046728943 0.16348603 0.21073332 0.16127144 0.17644782
0.024097072 -0.05038682 -0.12722926 -0.16464187 0.17528875 -0.022576358 0.05133977 0.15898047
-0.07930638 -0.11478074 0.11397055 -0.13608935 -0.11363704 0.016507873 0.29875514 0.0051423213
-0.15688735 -0.051303152 -0.010156941 -0.011371291 -0.42557156 0.036848925 0.003273769 0.12616529
-0.08439208 -0.16339566 -0.05288029 0.012373336 0.11846604 0.09717507 0.09935899 -0.1489026
-0.03290095 0.042589843 -0.16489464 0.111067876 -0.048668873 0.117557116 -0.1765585 0.01936979
0.21019852 0.18003465 0.10670536 -0.12845291 0.23304597 0.14916892 -0.036761947 0.093120985
0.06950244 0.15023975 -0.08203298 0.010300636 -0.09862327 0.03368852 0.038505763 0.12821919
0.19594723 0.1265997 -0.06473 -0.024366409 0.12452043 -0.0032245726 -0.012351515 0.060790896
0.09475414 0.08081359 -0.04771087 0.047835097 0.09912512 0.009211072 0.094479695 -0.033394556
0.19387463 0.077274315 0.1717153 -0.2240701 -0.0413668 0.09699686 0.006565339 -0.012974632
0.12024097 -0.012100427 -0.001864397 -0.07688902 -0.010270156 -0.14497302 0.16479725 0.09181139
-0.019455109 -0.16981637 0.017107923 0.09694604 0.051068682 0.08725054 -0.107242495 -0.16899978
-0.20850487 -0.038749535 -0.006745898 0.054857604 -0.11745386 0.07969492 0.04884721 -0.04103563
0.22912532 -0.12648682 -0.069705464 0.12741554 0.061360724 0.2270302 0.0745304 0.019767866
0.1120179 0.10491089 0.042385444 0.04399631 0.15162903 -0.13943978 -0.088132866 0.19061807
-0.061206117 0.1269656 -0.044637375 0.09027548 0.03726435 -0.145668 -0.08763824 -0.088779956
0.088917635 -0.109148785 -0.017987961 0.15435825 -0.1536152 -0.06973091 0.064322755 -0.20794451
-0.058145944 0.086701736 0.06172654 0.08275131 -0.11680934 0.090770535 -0.18501887 0.06176439
0.025723392 0.047639124 0.2074143 -0.0809036 -0.061350614 -0.07582896 -0.12616163 -0.02584983
-0.006643914 0.13025108 -0.204221 0.12519132 -0.06462609 -0.07754468 -0.20761397 -0.11080852
0.11361369 0.17969334 0.1348003 0.07905223 0.10678141 -0.08047783 -0.18973349 0.17281707
-0.03787304 0.04090936 -0.13216428 -0.0502738 -0.085128136 -0.061102096 0.031440645 0.110828035
0.09409846 -0.008887513 0.027454412 -0.04673973 0.18579225 -0.10097914 -0.045770306 0.066193886
0.030237192 0.07704593 -0.085333236 0.1978135 -0.14126557 -0.053804524 0.118398346 0.07081682
-0.101069584 0.05666359 0.02850981 0.08035629 0.11146951 -0.06514175 -0.07911573 0.19286096
0.119841374 0.016457818 0.00884138 -0.038711667 0.08582177 -0.06866404 0.05925173 0.11441366
0.100292504 0.04280542 -0.048739403 0.080687255 0.04216318 -0.06277336 -0.059400763 0.20648387
0.1469436 -0.19022675 -0.012839678 0.06475091 0.13091086 -0.1526603 -0.15329416 -0.27429923
0.073914826 -0.10772618 0.10707877 0.32977384 -0.074624695 -0.059941 -0.0056701647 -0.08919404

conv2d_5/Conv2D_bias f4 [64]
00000000: 2253 5fbe cc0c 363f 0bc9 2fbf 89b1 3cbf
00000010: e422 89bf d1da 1b3e efe3 bd3d 5df7 5fbe
00000020: 2b0d 043f fb65 073f 6ec7 9a3f 2fb3 e3be
00000030: b376 543f b302 7ebf 01d2 7bbd b2b3 75bf
00000040: e436 103f 73d9 13bf 190d 38bf 7c62 de3d
00000050: 70c4 08bf 1d0c c73e eef7 c1be d91a 143f
00000060: d1c6 02be 5c83 a63e 1ba1 a83e d0e8 273e
00000070: ce78 403e 2c36 983f 3610 ffbe 65a4 963e
00000080: 035d 15bf cfd8 743f 2361 0c3f d030 643f
00000090: 7f9f 71be 6c64 4ebe a031 573f b477 a2be
000000a0: 5d36 b53e f9aa aabe 37d8 053f 704c a83e
000000b0: b975 03bf db0a 0ebf ea62 933e 4c17 033f
000000c0: b172 f1be b6b0 8f3e 3c0b 253f 5742 babe
000000d0: 0595 023f b47a c63d 561c fdbe 57a9 2ebf
000000e0: a97e 37be cefd acbc ffdd f03e 4a7c 993e
000000f0: e566 4ebd 5446 473f 29eb 44bf 4b1f aa3f
-0.21809056 0.71113276 -0.6866614 -0.737084 -1.0713773 0.1522019 0.092719905 -0.21871705
0.5158259 0.52889985 1.2092111 -0.44472644 0.8299362 -0.9922287 -0.061479572 -0.9597732
0.56333756 -0.57753676 -0.71894985 0.10858628 -0.5342474 0.3887643 -0.37884468 0.57853466
-0.12771155 0.32522094 0.32935414 0.16397405 0.18796083 1.1891532 -0.49817055 0.29422298
-0.5834505 0.95643324 0.5483572 0.8913698 -0.23595999 -0.20155495 0.84060097 -0.3173195
0.35393038 -0.33333567 0.5228304 0.32870817 -0.51351506 -0.55485314 0.28786403 0.51207423
-0.47157815 0.28064507 0.6447027 -0.36378738 0.51008636 0.096913725 -0.4943568 -0.6822714
-0.17919411 -0.021117117 0.4704437 0.29977638 -0.050391097 0.7784169 -0.76921326 1.32908

conv2d_5/kernel f4 [64, 1, 1, 32]
00000000: df72 81bd 840f 623c 1a38 1cbd cf09 d8bc
00000010: ea07 f039 95e7 323d d1fa 933c 9fbe 913d
00000020: 391f febc ba17 933d 0d6a e33b fcb2 6fbb
00000030: 8c3b 763d 6f6e dd3b 32ae 1a3d 0bf3 bcbd
00000040: cd99 06bd 2420 ca3c 0875 91bd 913e a3bd
00000050: e21c ec3b 54be ad3a 5f48 503d a3ea 7d3b
00000060: 980b f33c e86b 793d 381a bfbd 5a03 523d
00000070: cd6c d73b 8725 93bd 05ef a13c a80b bd3c
00000080: cd50 af3c 16d3 38bd 6f16 af3a a9a3 12be
00000090: 48f7 65bd f8aa 0dbe 67b8 e6bb b523 b2bd
000000a0: 19bd 133d 261d 18be 3563 a03d 3a75 8b3b
000000b0: c6e4 48bd 5111 dbbd c708 36bc ce2f f13c
000000c0: 9416 c4bd 30aa 82bd 00c8 d73d 964a 4e3d
000000d0: 6444 0c3c 9af6 c0bd 2e0a babc 3b02 03be
000000e0: 154f dcba b461 293d 49a2 083d aa49 30be
000000f0: 2ee3 0c3d 456d 58bd c353 a0bd 094b 04bd
00000100: 7cd2 7d3d b65f bf3d 8702 bebb 9032 d4bc
00000110: f959 bfbc eb96 26bc da8d 7cbd 9f05 f83c
00000120: 4192 cf3d e96a 73bd 8bc0 a83d b361 ad3d
00000130: 0cba 8a3c dcd9 0d3c 0749 0d3d 61cd 503d
00000140: d255 a8bc 23ec b73d e998 ccbc 8e0d 91bd
00000150: ecb8 4fbd e816 a63c ad2f b3bd 7927 953d
00000160: 50da d33d 5dee 35bd 4494 a33d dce6 c63c
00000170: eda7 5b3d 1c36 ee3b 71e3 783d 6ae5 1dbd
00000180: 1162 b23c de27 f03c 06f3 aebd 343c e33d
00000190: 562a ad3d b082 9fbc 44dc 983d 8efc 943d
000001a0: 4564 233d 7da7 ad3c 5c5e 683d 4d66 c83c
000001b0: 8090 883c f24d a4bd 59f3 91bd ad84 9d3c
000001c0: 8acd 813d a82a b0bd eeed 063e b621 4bbd
000001d0: 521f ae3d 81a8 803c 85b6 3dbd 08b2 8c3d
000001e0: 8999 a6bd 2fdf c83d 9524 a43d 4036 053e
000001f0: 6a05 f3bc 3325 8c3d bee3 40bc b811 583d
00000200: cf89 c53c 4a2a d73d 25eb a73d 8fb2 de3a
00000210: 6395 d4bc 9659 d7ba d21d c53c b7dd 8d3d
00000220: a5a5 453d 6987 a23d dc11 bc3d aa7f 183d
00000230: 2013 c6bb 8cfd 663d d33b 2d3e 44a5 1fbd
00000240: 5a96 e33d 52bf bbbc 6a79 163b 0711 863d
00000250: 89b9 583d bdd3 733d 8104 27bd 9f21 203d
00000260: 65f6 e13a 4a96 d93d a27a 2d3d 5fff 4e3d
00000270: 2d18 3fbb cae4 eaba 8729 803c aa4b a9bc
00000280: 2018 123d 7788 1ebc a710 613e 34cf 9dbd
00000290: 49c5 5f3d 0aab be3d 39ea 323d c350 76bd
000002a0: 3966 5a3d ff9e b33d 9468 d03d d70f e2bd
000002b0: 140d 01be f76c a33c 43c3 2a3d 8550 fb3c
000002c0: 5a5f d33b 30a2 8ebd 0cf4 14be d5fd 87bd
000002d0: d709 b93d 642e 45bd 196c e6bd 36fd d8bd
000002e0: e002 b2bd 1ea1 b83d 6dda 0ebe 4398 98bd
000002f0: eb00 2dbd 5ce9 303d 9682 5fbd def4 0a3e
00000300: 373e 0cbd 5874 27bd 7779 4b3d f7e9 d2bb
00000310: 6bbf edbd 414e 0dbd 95a0 dbbd 6a08 8b3d
00000320: c9ad d1bd 127f 1bbd cc0d dd3d 797e b33d
00000330: 68e9 923c 3318 abbb 7e55 05bd f87c 19bb
00000340: 2682 c63c d1af c2bd 9e79 c63c 7950 6dbd
00000350: cb90 ee3d 6dad b0bc 0d32 2a3d e267 603d
00000360: d935 e6bd 4db9 133e 809c 363d 3f02 9d3c
00000370: e178 663d 24d0 55bd 3296 fb3d 3265 383d
00000380: 4970 e13c f0a5 433d b2c4 72bd dd90 d93b
00000390: 944e d6bd d2ed fa3c 0a7b f338 59af 003d
000003a0: 940a db3c 08db 71bd 64e0 063e d323 aa3d
000003b0: 7575 79bc 19f9 ec3d b9d8 8abd 9fa3 6e3b
000003c0: 5fbd 793d 3da7 e83d 9621 acbb 4618 38bd
000003d0: 96d8 723d 83be 9d3d ef09 1abd c740 83bd
000003e0: 2c27 e33d 1aa4 64bb 4656 a8bd 0536 84bc
000003f0: 4176 43bd 2d2d 9abd 0282 04bc 682f adbd
-0.06320738 0.0137976445 -0.03813944 -0.026371865 0.00045782264 0.043677885 0.018063935 0.07116436
-0.031020747 0.0718226 0.0069401325 -0.003657519 0.060115382 0.0067575495 0.03776378 -0.09226044
-0.03286152 0.024673529 -0.071024 -0.07970918 0.0072055915 0.0013255575 0.05085027 0.003874459
0.029668614 0.060893923 -0.09331173 0.051272728 0.0065742494 -0.07184892 0.019767294 0.023076847
0.021400834 -0.045123182 0.0013358126 -0.14320244 -0.05614403 -0.1383475 -0.0070410254 -0.08698217
0.03606901 -0.14854869 0.07831422 0.004255918 -0.0490463 -0.10696662 -0.011110491 0.02944174
-0.09574619 -0.06380117 0.10536194 0.0503641 0.0085612275 -0.094220355 -0.022709932 -0.1279382
-0.0016808236 0.041352943 0.033357892 -0.172156 0.034396343 -0.052838583 -0.07828476 -0.03229812
0.06196831 0.09344427 -0.005798641 -0.025903016 -0.023358332 -0.010167818 -0.061658718 0.030276118
0.101353176 -0.05942813 0.0823985 0.084659 0.016934417 0.008657899 0.034493472 0.050977115
-0.020548735 0.089805864 -0.024975257 -0.070826635 -0.050713465 0.020274594 -0.08749328 0.072829194
0.10344374 -0.044416774 0.07987264 0.024280004 0.053626943 0.007269634 0.06076378 -0.038548864
0.021775277 0.029315885 -0.08542447 0.11095467 0.084553406 -0.019471496 0.07463887 0.072747335
0.039890546 0.021198029 0.056730613 0.024462843 0.016670465 -0.080226794 -0.07126493 0.019228304
0.063380316 -0.08601886 0.131767 -0.049592696 0.085020676 0.015705349 -0.046316642 0.06869894
-0.08134753 0.09808194 0.0801479 0.13008976 -0.029665668 0.06843033 -0.011773048 0.052751273
0.024113564 0.10506113 0.08199147 0.001699047 -0.02595014 -0.0016429897 0.024062071 0.069270544
0.048253674 0.07935984 0.09183094 0.037231125 -0.0060447603 0.056394145 0.16917352 -0.03897597
0.11112662 -0.022918377 0.0022960552 0.065462165 0.052911315 0.0595281 -0.04077578 0.039094564
0.0017239569 0.106243685 0.04235328 0.05053651 -0.0029158697 -0.0017920968 0.015644802 -0.020665962
0.03566754 -0.00967609 0.21979009 -0.077055365 0.054631505 0.09309967 0.043680403 -0.060135614
0.053320143 0.087705605 0.10176197 -0.110381775 -0.12602645 0.01994942 0.041690122 0.030678043
0.006450576 -0.069645286 -0.14546221 -0.066402115 0.0903508 -0.048139945 -0.11251087 -0.10595171
-0.086919546 0.09015106 -0.1395051 -0.074509166 -0.042237204 0.0431913 -0.054567896 0.13569972
-0.03423902 -0.04088244 0.049676385 -0.006436582 -0.11608776 -0.034498457 -0.10723988 0.06788714
-0.10238225 -0.03796298 0.10793647 0.08764357 0.017933562 -0.0052213906 -0.032552235 -0.0023420434
0.024231981 -0.095061906 0.024227913 -0.057938073 0.11648711 -0.02156707 0.04155164 0.05478657
-0.112407394 0.14426155 0.044582844 0.01916611 0.056267623 -0.05220045 0.12284507 0.045018382
0.027519362 0.047765672 -0.059269615 0.0066395835 -0.10464206 0.03063098 0.00011610061 0.031417225
0.026738442 -0.059046775 0.13171536 0.08307614 -0.015225758 0.11570949 -0.06779618 0.0036413444
0.060971614 0.11360023 -0.005253027 -0.044945024 0.059288584 0.07702353 -0.03760713 -0.0640884
0.11091456 -0.0034887851 -0.0821958 -0.01613904 -0.047720198 -0.07528148 -0.008087637 -0.08456308

conv2d_6/Conv2D_bias f4 [128]
00000000: 9956 373e 04ec bcbd 832d a33e d491 5abd
00000010: f799 32be c8b4 a93c 5aef 51bf 7f45 4f3e
00000020: 7387 e1be 650a a8be 3df3 7f3e 739e 1dbf
00000030: c853 84bd 72f1 233e 4eec eb3e cd13 03bf
00000040: 9a81 923c 1ee9 da3c 60f1 edbd 63cf d7be
00000050: 3013 5e3c ebdf d2bb e356 aebe 1638 ecbe
00000060: aeb9 36be 4865 9ebc 65c7 86bd be2a c63e
00000070: 7d9e d33e bb95 09be 1f71 afbc 3bf4 d93e
00000080: 5c62 af3d 5736 643e 9b74 3d3e 9bd4 89be
00000090: 185b 253f 118a b3be b92b 0c3f e979 72be
000000a0: b3eb c9be 6844 78bf a69e d93e cba3 0d3e
000000b0: a170 73bd 45e5 e53e 3c28 063f 97e7 303d
000000c0: f02e e3be 22fd b53e a6f4 0a3d 2b33 683e
000000d0: 431e b93e 43b9 3c3d 21c4 63bd e5ed 13be
000000e0: 597e 4c3c 9907 76be 01fb 5fbc 7971 95be
000000f0: a1b8 f1bc 3bb1 c03d 7f28 773e 51ed 273d
00000100: 67d8 483e 6afa c53c f0da a43d 421d f6bc
00000110: 96a7 a9bd 056f 943e 09e1 d0bd ac2b da3e
00000120: 6cca 0d3f 5ac0 863e eeaa d83e 06e5 b2be
00000130: 6c18 893e e6fc 54be a52d 733e 1e4f 73be
00000140: 5153 31be d493 9c3e 9d1a 1d3e 82a5 833e
00000150: 45b1 9c3d 68d7 ebbe 9b52 93bb ee22 0dbe
00000160: feb5 a23e ccaf 073f b6f7 d3bd e5ea babe
00000170: fab7 bb3d 9955 353e 5eff 003d 1818 543e
00000180: d606 edbe 6553 903e 2808 983e 73cd 31be
00000190: 2fa9 ffbe f4cb 343f fba5 273e b8cf c83e
000001a0: 7a58 a53e b54d d1be ca9e 42bf 0c91 b03e
000001b0: 832e 89bd f8e1 903e c449 6d3e ddb9 b7bd
000001c0: f84c f6be 7d1c 113e 3e0e 79be beb0 0abc
000001d0: 22dc 82bd ce08 18be c74c be3d 68d5 a4be
000001e0: b272 d0be b4d0 3e3e 4787 233e 96b3 923c
000001f0: 29d6 c23e 13ba 9b3e 3bbe ccbd bb6c ca3d
0.17904128 -0.09224704 0.3187066 -0.05336173 -0.17441545 0.020716086 -0.82005847 0.20241354
-0.44048652 -0.3282043 0.24995132 -0.615699 -0.064612925 0.16010073 0.46078724 -0.5120209
0.017884064 0.026722487 -0.11618304 -0.4215041 0.013554379 -0.0064353845 -0.34050664 -0.4613654
-0.17844269 -0.019335404 -0.06581 0.38704485 0.41331854 -0.13436024 -0.021416245 0.42569146
0.085636824 0.22286354 0.18501513 -0.26920018 0.64592123 -0.35066274 0.54754215 -0.23679318
-0.39437637 -0.9697938 0.42503852 0.13832013 -0.059433583 0.4490148 0.5240514 0.04318961
-0.44371748 0.35544688 0.03392472 0.22675769 0.361559 0.046075117 -0.055606965 -0.14446218
0.0124812955 -0.24026336 -0.013670684 -0.29188135 -0.029506983 0.09408804 0.24136542 0.040997807
0.19613801 0.024167258 0.080495715 -0.030043248 -0.082839176 0.2899095 -0.10199172 0.42611444
0.55386996 0.26318628 0.4231791 -0.34940356 0.26776445 -0.20799598 0.23747881 -0.2376065
-0.17316939 0.30581534 0.15342183 0.2571221 0.07650999 -0.4606278 -0.0044959313 -0.13782856
0.31779474 0.5300262 -0.103499815 -0.36507335 0.0916595 0.17708434 0.031493537 0.20712316
-0.46294278 0.28188625 0.29693723 -0.17363529 -0.49933764 0.7062371 0.1637191 0.39220977
0.32294065 -0.40879598 -0.7602354 0.34485662 -0.066983245 0.282974 0.2317267 -0.089709975
-0.48105597 0.14171024 -0.24321839 -0.00846499 -0.06389643 -0.14847109 0.09291988 -0.32194066
-0.40712506 0.18634301 0.15969573 0.017907899 0.38054016 0.304154 -0.09997221 0.0988402

conv2d_6/kernel f4 [128, 1, 1, 64]
00000000: fb86 3abc 3e11 ce3b b46d 8f3c 12c2 86bd
00000010: dedb 63bc d9b1 143d 73db 363c 3f15 d4bc
00000020: 31c8 003d f805 863c 94e8 1fbc c0d3 853d
00000030: 1198 1bbd 3f42 c33c b4e7 2d3d e6ab 8dbd
00000040: 60e9 34bd bedb e8bc 6511 18bd c912 973d
00000050: 03b2 2abc 6d22 bebb cb13 77bd ac2d 9d3c
00000060: beab 143d 0424 27bc e072 69bb 4ac4 9ebc
00000070: 0b1f 713c eea4 82bc 22ae acbc ef4d 41bd
00000080: e892 cbbc 985f 87bc 4f27 acba 35f1 dbbb
00000090: f66e b2bc 5c81 ee3c 18c1 b43a 72d4 84bc
000000a0: 7a5f 3abd 7baa 33bc 702a 4f3d 75e3 7c3d
000000b0: 81b6 9e3c fcbe 80bd 405e 35bd 7989 f9bb
000000c0: c53c cdbc 2c89 21bb 771e 6f3c 6b17 42bd
000000d0: 0786 913b 78d0 1fbd a26a 88bc 86ec b7bd
000000e0: 1b94 30bd d8e5 e1bc 6815 1fbb 2d21 223d
000000f0: dcf4 213d 5d89 5fbd 375f fabc f446 b5bc
00000100: ec42 093c 196d 00bc 434a a2bb 8139 a63b
00000110: af74 7abb ae34 f2bc 85a1 94bb 0cdd 39bc
00000120: ed2f 02bc 8c7a 7d3b 9ca5 3a3d 400b fc3c
00000130: 8f30 723b 653a 313b 3700 8c3b 1087 6d3c
00000140: 79af 0ebc 6864 fdbb 6fb6 72bd e4d3 70bb
00000150: f3d6 e8bc 677f d33b f169 dbbc 370b 803b
00000160: 20dd 95bd eace 48bc fa4f fe3c 267c b6bc
00000170: 8eaa c2bc a019 093d bfc5 b63c c622 e03c
00000180: 5c39 29bd e4c2 fcbb 66bb 0d3c d884 333d
00000190: 4c15 d43b e30a fcbb fe09 163d a62e c93c
000001a0: 6820 76bc 28e6 b5bb 4d87 b23c 68b9 a43c
000001b0: 383a 2fbc d37d 52bd 6105 46bc 0379 893c
000001c0: ce68 03bc bce6 9dbc c21c f53c ba95 42bb
000001d0: c743 d6bb 743c 09bd d2e9 8ebb aff8 7dbc
000001e0: 7082 efbb 40f0 15bd 152d 143d 95ed a9bc
000001f0: 28bb ba3c cdb0 493d 199d 51bd 6242 2abd
00000200: f1d1 41bd 6ad8 6dbc e7fc 6d3c 77d5 b4bb
00000210: 6f18 d6bc e9da 08bd a656 72bc 660f 1c3c
00000220: 853d 07bd ce94 1abc 3145 b6bb e0ec f739
00000230: ca56 623c 707d 11bd 86c3 08bd 4851 e3bb
00000240: a8b0 ad3b e11c 50bb e5f3 15bd 90a5 9c3c
00000250: bdbc 16bb 554f e9bc 32dc f8bc 1118 7abd
00000260: 259b a8bc 8b1c afbc aa74 a83c 3968 fcbc
00000270: 0cb6 40bd a8cd 233b bb35 b8bc f2d7 a83c
00000280: 80f5 44bd 10e3 093b 7130 bd3b 6761 aebb
00000290: 57ea b43c 6f0e 1fba 5d21 ad3a 15ff da3c
000002a0: 1991 013c f0a1 013d 97cb b3bc 32ce 063b
000002b0: 5960 c0bc 5410 e2bb 7575 b4bc 6f9d 87bc
000002c0: 80fb 5ebd e082 2fbc 8386 f83c d749 ff3c
000002d0: 7d17 3d3d 02aa a23c 5eb5 94bd 0052 56bd
000002e0: 1e77 1dbc 4477 1c3d d965 17bc 0ae1 c53c
000002f0: f3c3 703b ae47 cb3c 02d4 0cbc d6aa c8bc
00000300: e254 0f3d d42d cf3c e77f 12bd a313 9abc
00000310: e9b7 1dbd 90c1 d23c 8a31 903c f4bc 0c3c
00000320: 9d50 feba 57c6 d9bc 0aa6 f23c aacb e2bc
00000330: 8caf 3cbc 6efe edbc cf21 c9bc 2060 8f3c
00000340: e6f2 7a3c 1d87 42bb 8274 47bd 0a04 c2b9
00000350: 3996 6ebc fe2d cb3c 4bde 1b3b 5809 acbc
00000360: bada 35bc 0cf6 ccbc debe 8e3c 07b0 97bc
00000370: 3039 2e3c e006 6d3b 8ea1 5fbb 89ec a4bc
00000380: db90 0fbc 8f7c a8bc 6408 d03c c315 133d
00000390: 025e 2dbc 51e2 ab3c f645 a93b 1979 413c
000003a0: 7a51 63bc 292d c93a 3235 91bb 0185 aebc
000003b0: c066 90bc fbb1 80bc ecdd 34bc 1dc0 f6b9
000003c0: 2ae6 1dbd cb93 94bc 5707 80bc 997a 3b3c
000003d0: 00d7 d0bb 47b5 bfbc 1c68 b33a ce2a 56bd
000003e0: b140 073c 9e0a 703c a656 9fbb 3dcd 023d
000003f0: e839 a9bb 6241 003d ffdd adbc e390 763c
-0.011384721 0.0062886765 0.017508365 -0.06579985 -0.013907401 0.03630242 0.011160719 -0.025889037
0.031440917 0.016360268 -0.009760041 0.06534529 -0.03798682 0.0238353 0.042457297 -0.06917553
-0.044167876 -0.028425094 -0.037125964 0.0737663 -0.010418418 -0.0058024437 -0.06032161 0.019186817
0.0362966 -0.010201458 -0.003562145 -0.019380707 0.014716874 -0.015947785 -0.021079127 -0.047193464
-0.024850324 -0.016525075 -0.0013134273 -0.0067121037 -0.021781426 0.029114418 0.0013790457 -0.016214583
-0.04550121 -0.010965939 0.05057758 0.061740357 0.019374134 -0.062864274 -0.044279337 -0.007615265
-0.025053391 -0.0024648411 0.014594666 -0.047385614 0.004441026 -0.03901717 -0.016652409 -0.0898066
-0.043109994 -0.027575418 -0.0024274234 0.03958242 0.039540157 -0.05457436 -0.03056298 -0.02212856
0.008377772 -0.007838511 -0.0049527003 0.005072773 -0.0038216521 -0.029566135 -0.004535856 -0.011344206
-0.007945997 0.003867778 0.045568094 0.030767083 0.0036955213 0.0027042862 0.0042724865 0.014497533
-0.008708828 -0.0077329166 -0.059256013 -0.003674739 -0.028422808 0.0064543965 -0.026783915 0.003907587
-0.07317567 -0.012256363 0.031043995 -0.022275995 -0.023762967 0.033471704 0.02231109 0.027360331
-0.041314468 -0.0077136625 0.008650636 0.04382786 0.0064722653 -0.0076917275 0.036630623 0.024558377
-0.015022375 -0.0055511184 0.021793032 0.02010794 -0.010695033 -0.051389527 -0.012086243 0.016781336
-0.008020593 -0.019275062 0.02992094 -0.0029691295 -0.0065388414 -0.03350492 -0.0043613696 -0.015501185
-0.0073092505 -0.036606073 0.036175806 -0.02074317 0.022794321 0.049240876 -0.05117521 -0.041567214
-0.047319356 -0.014516929 0.014525629 -0.005518611 -0.026134698 -0.033411894 -0.014791166 0.009525156
-0.033017654 -0.009434892 -0.0055624475 0.00047287997 0.013814637 -0.035520017 -0.03338959 -0.0069371797
0.0053006 -0.0031755494 -0.03660955 0.019121915 -0.002300068 -0.028480211 -0.030378435 -0.061058108
-0.020581791 -0.021375915 0.020563442 -0.030811416 -0.047048613 0.0024994407 -0.022486558 0.020610783
-0.04808569 0.002103988 0.005773597 -0.00532167 0.022084398 -0.00060675194 0.0013208796 0.02673296
0.007908129 0.031648576 -0.021947665 0.002056968 -0.023483442 -0.006898919 -0.022028664 -0.016554562
-0.054439068 -0.010712355 0.030337578 0.03116314 0.04616498 0.019856457 -0.072611555 -0.052324295
-0.009610919 0.038199678 -0.009240591 0.024155159 0.0036737889 0.024814453 -0.0085954685 -0.024495523
0.03499306 0.025290407 -0.03576651 -0.018808192 -0.03850547 0.025727063 0.017601747 0.008589972
-0.0019402687 -0.026583834 0.02962019 -0.027685005 -0.011516463 -0.029051986 -0.024552254 0.01750189
0.015316701 -0.0029682585 -0.048695095 -0.00037005573 -0.014562183 0.024802204 0.002378362 -0.02100055
-0.011099512 -0.025019668 0.017424997 -0.018516554 0.010633752 0.0036167428 -0.0034123394 -0.02013232
-0.008762564 -0.020567207 0.025394626 0.035909425 -0.010581495 0.02098194 0.0051658107 0.011808657
-0.013874406 0.0015348542 -0.00443139 -0.021303656 -0.01762712 -0.015709868 -0.011039238 -0.00047063912
-0.03854958 -0.01813688 -0.0156285 0.011442804 -0.0063732862 -0.02340187 0.0013687643 -0.052286915
0.00825517 0.014650969 -0.004862624 0.03193401 -0.0051643737 0.031312354 -0.02122402 0.015049192

conv2d_7/Conv2D_bias f4 [7]
00000000: b9df fc39 80b1 32bd c911 463c feb6 383c
00000010: baa0 9e3c f5ea b9bc d2d4 0fbc
0.00048231872 -0.04362631 0.012089201 0.0112740975 0.01936375 -0.022695044 -0.008778768

conv2d_7/kernel f4 [7, 3, 3, 128]
00000000: 63ab 4f3d f7e0 393c f4af 61ba 154e 5d3d
00000010: 79c9 133d 9af6 4f3d 2db2 b8bc a508 4d39
00000020: 6596 c03d 74be 83bc aad1 033d 375c 5e3c
00000030: c82e 0c3d 5c8a 72bd 4256 1cbd aaa6 943d
00000040: 077c 8e3d 64f2 1abd 11f4 18bd 85a4 a83d
00000050: 02d7 bb3c 809b a23d 3101 db3c 3adf b3bd
00000060: 6c6b 293e e634 783d e899 0bbc 28c5 e0bd
00000070: 4362 b3bd 0498 c5bd d092 1b3c ffee 88bc
00000080: 584f 86bd 6639 d53d c5a5 0dbd 71fd 13be
00000090: 01aa afbb 881f 31bd 68ad 043c 05fb 91bb
000000a0: b2b1 8abc 15e6 273d 8abc a9bd 67f3 dc3d
000000b0: 0d07 b7bc 4086 383c 3ef9 363d 7a67 f23d
000000c0: 2297 a5bc b723 a73d ab52 943c 30e1 283d
000000d0: 448b aa3d ab1f a63d 5d79 333d 3058 563d
000000e0: be60 a23c 2f4a 573c ccc7 613c 219d 6a3d
000000f0: 12f8 953d 3731 813d 97c5 b4bd 003d aebd
00000100: 28bb 43bb 6e27 e23c 99ad a13d fb35 803d
00000110: e0f9 4d3c b1e2 afba 6ce0 2ebd a620 fb3b
00000120: c315 a7bd 5361 cd3c d04c bc3c 0154 cfbd
00000130: f854 eebb d470 24bb 1241 513b 05c2 ad3d
00000140: 4084 0b3d 0868 1e3d 5ea1 4b3d 1568 0cbd
00000150: d6f2 aabb 7513 fabb ef5f e4bb 6a6a 8f3d
00000160: ad02 1dba caad 8d3d f970 1ebd ce4d f93b
00000170: 261b 41bd 8544 003d 94f8 0ebd c018 4bbb
00000180: fc67 ea3d a4e0 2a3d 356e 15be 20ae d43c
00000190: 90e0 d0bb 52bf c6bd 60be f53c 21ea 8ebd
000001a0: e879 e73b 8690 9c3c e0ec 03bd de24 123d
000001b0: ce4d 073d 3d44 453c 5cc6 6d3c b2de f6bc
000001c0: 455d ad3c 0d38 8d3d 6dd0 a8bd daf3 433d
000001d0: e63c 093d 14f2 e1bd c499 6f3d fd1d f53c
000001e0: 1f87 0dbe 2ba3 83bd 203c d3bb ebc5 203d
000001f0: d752 ffbd c068 a43d 8004 d8bc 047f 63bd
00000200: ae56 8e3b 8633 f13c daf5 4d3d 0ae0 9a3d
00000210: 5fb5 05bd b92e d83c 23a4 03bd 03e5 00be
00000220: e1d6 1a3d 1d6d 2bbc 18ae 803c 6a23 09bd
00000230: 129d 1abd 6d38 0fbd 9d9a 92bc 44f7 843d
00000240: 5ed1 d3bc 1523 913d df83 963c 3c38 603d
00000250: 03d1 ae3d 9bfc 063d 1d1a a93c cab6 1b3d
00000260: 3a86 183e bb6f 74bc 33a1 a9bd c786 04be
00000270: e517 d9bd 0018 b6bd b7c8 d33c 4c91 eb3c
00000280: 9094 843b 50ca 8ebc dcb0 82bd 1fd6 5c3b
00000290: ccd5 d33d 5bda 8bbc a65c 4e3c 57e9 7e3c
000002a0: 9259 47bd 4a56 773d c26e ccbd 9414 fb3d
000002b0: d991 00bd c1ad 08bd 2156 b63d 1fb9 923b
000002c0: 57d6 85bd cc9c bfb8 58db 13bb 8b46 a3bd
000002d0: 3f34 043e fd25 6c3c e49c 643d c9e4 553b
000002e0: 932e 9a3d acb1 35bd da55 71bd 0d01 7b3c
000002f0: 9504 953c 4d9f f13d 7c3d cabc fd2b aabd
00000300: c092 09bb d147 2d3c f9de 36bd dac2 b13c
00000310: 742e 1f3d ef77 65bd 314c 1a3b f0f4 6e3d
00000320: 49fd 46bd 0ac2 e13d 7968 6fbd cdb0 0d3c
00000330: 9e67 163d 7e22 f13c ede1 f0bd c673 503d
00000340: 13ee 483d fa22 103d 5c49 293d 35a5 84bd
00000350: 82f9 2d39 fe45 b7bd 6126 c73d 9abe 7a3d
00000360: 50e5 273d 5181 ee3c d088 0fbd 4158 e13c
00000370: 200f 24bd df7c 3d3d f819 4d3d 03c4 3f3d
00000380: ed47 d53d 07ed 9e3c 6078 f6bd 80b3 8dbd
00000390: 2114 423d d9e7 5dbc 9e62 913d f7f9 87bd
000003a0: 96e3 2d3d 5fc9 f73d f22d 6bbc eecb f43b
000003b0: 3139 ad3b daf3 bd3a 85a5 5c3d bd9a 32bc
000003c0: db01 14bd 2b30 2e3d 3114 43be de75 7b3b
000003d0: 81c4 1bbb beb0 8bbd 9b2d 15bc c1de 7ebd
000003e0: 2004 d8bd 5938 5ebd ba3c d53b 97d3 b73c
000003f0: 1df8 b9bd 8a86 2dbd 4cf5 423d 8f02 d8bc
0.050700556 0.01134514 -0.0008609288 0.054029543 0.03608081 0.050772287 -0.022545898 0.00019553544
0.094036855 -0.016082026 0.032182373 0.01357179 0.0342243 -0.05921398 -0.0381682 0.07258351
0.0695725 -0.037828818 -0.037342135 0.082345046 0.022929672 0.079398155 0.026733967 -0.087828115
0.16544884 0.060597323 -0.008520581 -0.109751046 -0.08758976 -0.09648135 0.009495452 -0.016715525
-0.06558102 0.104113385 -0.03458192 -0.14452149 -0.005360842 -0.04324296 0.008097984 -0.0044549727
-0.016930435 0.040990908 -0.08287914 0.10788613 -0.02234223 0.011262476 0.04467129 0.11836143
-0.020213667 0.08161109 0.018105825 0.04123038 0.08327344 0.08111509 0.043816913 0.052330196
0.01982152 0.013140245 0.013780545 0.057278756 0.07322706 0.06308215 -0.0882675 -0.085077286
-0.0029866192 0.027606692 0.07894439 0.06260296 0.012571782 -0.0013419 -0.042694494 0.007663804
-0.081584476 0.025070822 0.022985846 -0.10123444 -0.0072733127 -0.0025091665 0.0031929654 0.08484272
0.03406167 0.03867343 0.04971444 -0.034278948 -0.0052169366 -0.007631714 -0.006969444 0.07002719
-0.00059894734 0.06917913 -0.038681958 0.007608152 -0.04714503 0.031315345 -0.03490503 -0.0030990094
0.11445615 0.04171814 -0.14592822 0.025961936 -0.006374426 -0.0970446 0.029998004 -0.0697825
0.007064093 0.019111883 -0.032208323 0.03567969 0.033033185 0.012040195 0.014512625 -0.030135486
0.021162638 0.068954565 -0.08242879 0.047839977 0.033505343 -0.11032501 0.05849625 0.029921526
-0.13821076 -0.06427606 -0.0064463764 0.03925125 -0.12466972 0.08027792 -0.026369333 -0.055541053
0.004343829 0.029443514 0.05028329 0.07562263 -0.032643672 0.026389467 -0.032138955 -0.12587361
0.03780258 -0.010463026 0.015708014 -0.03348104 -0.03774745 -0.03496592 -0.017895991 0.06492475
-0.02585667 0.070867695 0.018373428 0.05474113 0.085359596 0.032955747 0.020642335 0.038016118
0.14894953 -0.014919217 -0.082826994 -0.12942038 -0.10600261 -0.088912964 0.025852544 0.028755806
0.0040460303 -0.017430454 -0.063813895 0.0033696962 0.10343513 -0.017071893 0.012595331 0.015558562
-0.048669405 0.060385026 -0.09982063 0.12259784 -0.03138909 -0.03336883 0.089031465 0.0044776346
-0.06535023 -9.1367954e-05 -0.002256116 -0.079724394 0.12910555 0.014413354 0.055813685 0.0032637587
0.075284146 -0.044358894 -0.058919765 0.015320075 0.018190661 0.11797962 -0.024687521 -0.08309171
-0.002099201 0.010576204 -0.044646237 0.021699358 0.03886266 -0.05602258 0.0023543949 0.05833906
-0.048581395 0.11023338 -0.058449242 0.00864811 0.03671991 0.029435392 -0.11761842 0.05089166
0.04905517 0.035189606 0.041329727 -0.06476823 0.00016591515 -0.08948897 0.09724117 0.061216928
0.040990174 0.029114397 -0.035042584 0.027507903 -0.040053487 0.046261664 0.050073594 0.04681779
0.104141094 0.019400133 -0.120346785 -0.069190025 0.047382478 -0.013544046 0.07098888 -0.06639474
0.04245337 0.12098955 -0.014354216 0.0074705994 0.0052863588 0.0014492229 0.05386879 -0.01090115
-0.036134582 0.042526405 -0.19050671 0.0038369815 -0.0023768249 -0.0682082 -0.0091051115 -0.062224153
-0.10547662 -0.054252956 0.0065074833 0.022439761 -0.09080527 -0.042364635 0.047597215 -0.026368408

separable_conv2d_1/depthwise_kernel f4 [1, 3, 3, 8]
00000000: 6459 98be 85db 763e 03d8 34be d504 833e
00000010: 8963 9dbe 8c4e 003d 8cbd 6a3d 9ed3 bcbe
00000020: 1630 10be b105 d23d e0ae 863e 4108 28be
00000030: 6801 42be 2429 86be 3787 993e bb7a ddbd
00000040: 9cdb 0dbe d923 163d bf52 3dbe 0587 ad3d
00000050: 15be 55be 9293 a73d 88aa 193e 3ad0 2d3e
00000060: 5307 8a3e 9dfe 083e c0a9 6d3e 4f28 833e
00000070: bf37 a93e 3eba 97be 38d7 7bbd 64dd 08bd
00000080: dd5a 993e 7691 84be 533c 23be 69d8 a8be
00000090: 4638 7a3e f9ef d5bd 556a 1dbe 57e4 18be
000000a0: 5190 1a3d 1c7c 4ebd de7e 99bd b774 3f3e
000000b0: 7e14 e3bd b21d 3dbe 7b3e f33d 39bb 9f3d
000000c0: dfe6 bf3d cdbd 54bd cb5f 1fbe b152 54be
000000d0: 227d 09be 5554 93be c333 61be 7414 7d3d
000000e0: 7f2e 253e 7186 98bd 1c85 ff3d 0402 52be
000000f0: ecb4 203e 722e e83c 23fc f8bd fb24 6c3e
00000100: 401c 79be 9e19 8a3e 136c 2dbe f824 853e
00000110: 42c5 2b3e 815e e33d 13ee 40be 502d 83bd
-0.297557 0.24107178 -0.17660527 0.25589624 -0.30740002 0.031324908 0.057309672 -0.368802
-0.14080843 0.10254992 0.26305294 -0.16409399 -0.18945849 -0.26203263 0.29985973 -0.108144246
-0.13853306 0.03665528 -0.18488596 0.084730186 -0.20873292 0.08182444 0.15006459 0.16973963
0.26958713 0.13378377 0.23209286 0.2561669 0.33050343 -0.2963428 -0.061484545 -0.03341426
0.29952136 -0.25892228 -0.1594098 -0.32977608 0.24435529 -0.10446162 -0.15372594 -0.14930855
0.037735287 -0.05041133 -0.07494901 0.18696867 -0.11087893 -0.18468359 0.118771516 0.07799382
0.09370207 -0.05193882 -0.15563886 -0.2073467 -0.1342664 -0.28775278 -0.21992402 0.061787084
0.16131018 -0.07447518 0.124765605 -0.20508581 0.15694016 0.02834246 -0.12157466 0.23060982
-0.24327183 0.2697267 -0.16935758 0.26004767 0.16774467 0.111020096 -0.18840818 -0.06405127

separable_conv2d_1/pointwise_kernel f4 [16, 1, 1, 8]
00000000: 5a47 cc3e 41dd 813f 1131 d73f 548c 043e
00000010: 68f6 7fbe fe24 c33f bb3c c13f 8a2d a8bf
00000020: d57d eabf 70be 3abf d717 46bf 7083 253f
00000030: c3ab 1740 1555 4d3e 74ba 3d3f 2b7d e2bd
00000040: 168d 923f b821 fa3d a580 b43f ddd5 b7bf
00000050: b470 c43f 8b0b 8dbe 341e b7bf 085b 80bf
00000060: 29bf e9be 0268 31bf 73f7 c13f 0c23 1ebf
00000070: 4e69 a2bf 30b8 683f 27fd e4bf 1b1b 9f3f
00000080: b8c5 a2be 8e68 adbe ea18 0840 c065 843e
00000090: fd1e f83e 1052 4f3f 7487 93bf 7711 5abf
000000a0: d368 cdbe deea febf e474 bf3d cb70 0c40
000000b0: 44ef 6cbf 1b24 aa3c dfd5 a7bf 1817 e8bf
000000c0: 1bb6 583f 87f8 ec3e 00bd b6bf b3b1 a23e
000000d0: 3cb8 10c0 62b5 7e3f 798e 07c0 6674 8dbf
000000e0: 2cbd 53bf ddfc 0f40 a090 90be 7fd5 2140
000000f0: 0228 003d 3542 c6be c125 0e40 245d c5be
00000100: f928 aa3f bad3 fbbe 83cb fd3f 71b9 913f
00000110: 62c7 7cbe e08a fdbf 91f2 4b3f 63b6 16bf
00000120: d86e bb3f 6012 4f3f c123 be3f d431 9bbc
00000130: b7cb 833e ce7a db3f 3437 a63e 7bf6 0540
00000140: da49 6dbf fed1 8ebd 3cdf 463f 56ae ad3e
00000150: c413 e5bf c8ed cd3f c135 afbe 909a 663f
00000160: a745 1340 1a2d 94be abec 703f 8efd ca3f
00000170: 9cdd debf 8530 fa3d 79ef 10bf 182d cf3f
00000180: 5b3d 0d3f 3296 bbbe d74b 9d3f 342b a8bf
00000190: 8d7f febf 1efc 873f d604 a03f a7f8 c83f
000001a0: 93f9 e03f 202f 9abd 6b92 8abf bbea 213f
000001b0: c268 2e3f 7519 1940 5240 f23e 141c 463f
000001c0: 2175 e1bf 3a4b cc3f 3c95 bc3f 32e2 0140
000001d0: 0a90 02c0 1c7b de3e 51f6 5f3e 9b04 c13f
000001e0: a352 ec3f c272 fc3f f1ec 5cbf f530 8cbe
000001f0: 611e cfbf a47d 12be ce1d 1abf bb88 4e3d
0.39898187 1.0145646 1.6811849 0.12944156 -0.2499634 1.5245664 1.5096658 -1.3138897
-1.8319651 -0.72946835 -0.77380127 0.6465368 2.3698585 0.20051987 0.7411263 -0.1105903
1.1449306 0.122134626 1.4101759 -1.4362141 1.5346894 -0.2754787 -1.4306092 -1.002778
-0.45653656 -0.6929933 1.515364 -0.6177223 -1.2688386 0.9090605 -1.7889756 1.2430147
-0.31791472 -0.3386883 2.1265206 0.2585888 0.48461142 0.8098459 -1.1525712 -0.851829
-0.40119037 -1.9915426 0.09348467 2.1943843 -0.9255259 0.02076917 -1.3112143 -1.8132048
0.8465287 0.4628336 -1.4276428 0.317762 -2.2612448 0.9949552 -2.1180708 -1.1051147
-0.8271053 2.2498085 -0.2823534 2.5286558 0.031288154 -0.38722387 2.2210543 -0.38547623
1.3293754 -0.49184972 1.9827732 1.1384717 -0.24685434 -1.9808006 0.79667 -0.5887205
1.4643202 0.80887413 1.4854661 -0.018944658 0.2574136 1.7146852 0.32463992 2.093169
-0.92690814 -0.069736466 0.7768438 0.3392207 -1.7896657 1.608819 -0.34220698 0.90079594
2.3011262 -0.2894066 0.94111127 1.5858629 -1.741138 0.122162856 -0.56615406 1.6185637
0.55171746 -0.36638027 1.228877 -1.3138185 -1.9882675 1.0623815 1.2501476 1.5700883
1.7576164 -0.0752852 -1.0825933 0.63248795 0.681286 2.3921788 0.47314698 0.77386594
-1.761387 1.5960457 1.4733043 2.0294309 -2.0400414 0.434533 0.21871306 1.507953
1.8462719 1.9722521 -0.86299044 -0.273811 -1.6181146 -0.1430574 -0.6020173 0.050423365

separable_conv2d_1/separable_conv2d/depthwise_bias f4 [8]
00000000: 0000 0000 0000 0000 0000 0000 0000 0000
00000010: 0000 0000 0000 0000 0000 0000 0000 0000
0.0 0.0 0.0 0.0 0.0 0.0 0.0 0.0

separable_conv2d_1/separable_conv2d_bias f4 [16]
00000000: e344 883e 849a fc3c 87d7 15be 64b6 0b3f
00000010: 3e3b e33e a35d bcbe 6b00 82be ab34 b0be
00000020: dc3f a2be ae69 d63e e502 fc3e b756 4cbe
00000030: 6a27 c53e fb5f d03e 2dcb 873e 1746 44bf
0.26615056 0.030835398 -0.14632998 0.5457518 0.44381136 -0.3679019 -0.25390944 -0.34415182
-0.31689346 0.41877502 0.49220958 -0.19954954 0.38506633 0.40698227 0.26522198 -0.7666945
