phone/src/main/assets/model_v6_23.tflite (tflite, 971156 bytes, 12 tensors)

conv2d_54/Conv2D_bias f4 [32]
0	0xbbb1c99f	-0.0054256464
1	0xbcfb1737	-0.030650718
2	0x3cb1c663	0.021701043
3	0xbd35f944	-0.04442717
4	0x3ced6b0b	0.028981706
5	0x3ba6952d	0.005083701
6	0x3cca26ad	0.024676645
7	0x3c8832ee	0.016625848
8	0x3d36380c	0.044487044
9	0xbcda4973	-0.026646351
10	0x3d3fd82d	0.04683702
11	0xbcb9521a	-0.022622157
12	0x3d3e8a82	0.04651881
13	0x3d3ba8cc	0.045815274
14	0x3c3f947e	0.011693118
15	0x3c1b7d1b	0.009490277
16	0x3a4a20e0	0.0007710587
17	0xbb02fc9c	-0.0019986993
18	0xba75cd92	-0.00093766407
19	0xbbc706f6	-0.006073828
20	0xbbb5c360	-0.005546972
21	0x3cf86f39	0.030326473
22	0x3d2fa5cb	0.042882722
23	0x3ceefc80	0.029173136
24	0xbbf3ae69	-0.007436563
25	0x3d26fd3e	0.040768854
26	0x3d4eec8e	0.050518565
27	0x3c75bd96	0.014998814
28	0x3c2f64f7	0.010705224
29	0x3c3642e6	0.011124348
30	0x3d25dad7	0.040491905
31	0x3ccb94d5	0.024851242

conv2d_54/kernel f4 [1, 3, 3, 32]
0	0x3d9ef71a	0.07761975
1	0xbdbd607e	-0.0924692
2	0xbdbac6f1	-0.09119976
3	0xbdee83c2	-0.116462246
4	0xbdbd54eb	-0.092447124
5	0x3d77d887	0.06050923
6	0xbda78527	-0.08179694
7	0x3dd6ee39	0.10494656
8	0xbd7f95f9	-0.062398884
9	0x3e1b69e8	0.15177119
10	0xbd0da20f	-0.03457838
11	0x3de34109	0.11096389
12	0x3e2f6dce	0.17131731
13	0x3d63d780	0.05562544
14	0xbd937013	-0.07199111
15	0xbd212ee1	-0.039351348
16	0x3c9f43e5	0.019441554
17	0xbb42f6e3	-0.0029749207
18	0xbd40341c	-0.046924695
19	0xbde31530	-0.110880256
20	0x3e01b8d8	0.12668169
21	0xbdde25a6	-0.108470246
22	0xbdc7e3b5	-0.097602285
23	0xbdd44931	-0.10365523
24	0xbdc5236e	-0.09625898
25	0xbdd42024	-0.10357693
26	0x3a4471d3	0.0007493768
27	0x3e140be7	0.14457665
28	0xbd2686ba	-0.04065583
29	0xbc20164d	-0.009770942
30	0xbdfd97f1	-0.12382496
31	0x3dc62cf0	0.0967654
32	0x3ceab7ec	0.028652154
33	0x3ddcd935	0.107836165
34	0x3c5ba47d	0.013405916
35	0x3de1d0f8	0.11026186
36	0xbdf57d02	-0.11986734
37	0xbbc9358b	-0.006140416
38	0xbdbf6d05	-0.09346966
39	0x3de9d0c7	0.11416774
40	0x3db84d1a	0.08999081
41	0xbcd3d166	-0.025856685
42	0xbcbcf231	-0.023064705
43	0x3e06177b	0.13094895
44	0x3bd1c483	0.0064016
45	0xbd8a6f39	-0.06759495
46	0xbde675b9	-0.112529226
47	0x3e047304	0.129345
48	0x3c0a5f79	0.008445614
49	0xbdc50df9	-0.09621806
50	0xbe006f09	-0.12542357
51	0x3cd9f4fb	0.026606074
52	0x3dac82fd	0.084234215
53	0xbd9a7dfa	-0.07543559
54	0xbe060c76	-0.13090691
55	0xbdbcfca0	-0.09227872
56	0xbe1300c6	-0.14355764
57	0xbd8661da	-0.065616325
58	0xbd9db856	-0.07701175
59	0xbc77ff28	-0.015136518
60	0x3d43c16e	0.04779189
61	0x3e2a92d5	0.16657574
62	0xbd4dc6ee	-0.050238542
63	0xbe4d616a	-0.20056692
64	0xbdf4f7ba	-0.119613126
65	0x3d4e16a7	0.05031457
66	0x3dc4ab7a	0.09603019
67	0x3e0ade00	0.13561249
68	0xbd491233	-0.04908962
69	0x3dff1ff4	0.124572664
70	0xbda3ed0f	-0.080042
71	0x3ceef2fa	0.029168595
72	0xbde3678e	-0.11103736
73	0x3e00e0ca	0.1258575
74	0xbe0da3f0	-0.13832068
75	0x3e1979c3	0.14987855
76	0x3e09552f	0.13411401
77	0x3e364789	0.17800726
78	0xbc0f2676	-0.008737197
79	0x3e0c8cf3	0.13725643
80	0xbdbda34e	-0.092596635
81	0x3dbdcd74	0.09267703
82	0xbcad5d0d	-0.021162534
83	0xbd4ec92f	-0.050484832
84	0xbd97a79a	-0.07405014
85	0xbddd762b	-0.108135544
86	0x3cccae00	0.024985313
87	0xbddd0c98	-0.10793418
88	0x3d798f60	0.06092775
89	0xbdad106b	-0.08450397
90	0xbd27f10a	-0.041001357
91	0xbe1fdf9f	-0.15612648
92	0xbccebe11	-0.025237115
93	0x3e01ba67	0.12668763
94	0x3dc0b1ed	0.09408937
95	0xbe3ed977	-0.18637644
96	0x3e1ca219	0.1529621
97	0x3dfb868d	0.12281523
98	0xbd87a761	-0.06623722
99	0xbc9a0ca2	-0.018804852
100	0xbdda5548	-0.10660797
101	0xbbfbf81a	-0.007689488
102	0xbd8d9d85	-0.0691481
103	0x3ddc7b57	0.10765713
104	0xbd36e518	-0.044652075
105	0xbc83f763	-0.016109174
106	0x3d867574	0.06565371
107	0xbc955e47	-0.018233432
108	0x3c8318dd	0.016003067
109	0xbde7544c	-0.11295375
110	0xbd12d454	-0.035847023
111	0xbcbedf97	-0.023299975
112	0x3d675b36	0.05648347
113	0x3df5203f	0.11969041
114	0xbd80bd75	-0.06286136
115	0x3d733064	0.05937232
116	0x3d2469be	0.040139906
117	0xbdd8d359	-0.10587186
118	0xbd9ba6d6	-0.07600181
119	0xbdb86f8b	-0.0900565
120	0x3df34629	0.11878616
121	0xbbe57a13	-0.007003078
122	0xbd08cf95	-0.03340109
123	0xbdcff24f	-0.101536386
124	0xbca81be1	-0.020521106
125	0xbd82c5fc	-0.06385419
126	0xbdd7f431	-0.10544623
127	0x3dc4d4be	0.0961089
128	0xbd87a545	-0.066233195
129	0xbdd785af	-0.10523545
130	0xbd688f66	-0.05677738
131	0xbbed86f5	-0.007248754
132	0xbddd7bd6	-0.108146355
133	0x3deb1f5d	0.114805914
134	0xbdd10c99	-0.10207481
135	0xbd668bae	-0.056285553
136	0xbd631fa1	-0.055450086
137	0x3c1f602a	0.009727517
138	0x3c926364	0.017869659
139	0xbdc6862d	-0.09693561
140	0xbdfc8548	-0.12330109
141	0xbd917b76	-0.071036264
142	0xbc617b9b	-0.01376238
143	0xbe26b597	-0.16280209
144	0xbc871c30	-0.016492933
145	0x3a025ddb	0.0004973092
146	0x3cdc5d55	0.026899973
147	0xbd3cc1ef	-0.046083387
148	0x3da552c3	0.08072426
149	0xbde8b929	-0.113634415
150	0xbd483ef5	-0.048888166
151	0xbdc9cb03	-0.098531745
152	0x3d79132d	0.060809303
153	0x3c726db7	0.014796666
154	0xbca845f9	-0.020541178
155	0x3d969633	0.07352867
156	0x3dfe79ee	0.124256
157	0xbc45a637	-0.0120635545
158	0xbdddd95e	-0.10832475
159	0xbde8fc9e	-0.11376308
160	0x3db257c9	0.0870815
161	0xbd03e5f7	-0.032201733
162	0x3e3e9f3c	0.1861543
163	0x3dccc44e	0.0999838
164	0xbdde79ac	-0.10863051
165	0xbc58f759	-0.013242566
166	0xbdb23853	-0.08702149
167	0xbd6d16df	-0.05788314
168	0x3dabffae	0.083983764
169	0x3d6e47cf	0.05817395
170	0xbde907f1	-0.11378468
171	0x3de774f7	0.11301606
172	0xbcfb2c92	-0.030660901
173	0x3e127778	0.14303386
174	0xba9e8af5	-0.0012095856
175	0x3d8f4b2e	0.06996761
176	0x3d759f8a	0.0599666
177	0xbdfa2b96	-0.122153446
178	0xbcacb5cf	-0.021082787
179	0x3e38bc59	0.18040599
180	0x3dd2cd52	0.10293068
181	0xbdda19d6	-0.10649459
182	0x3e0baa68	0.13639224
183	0xbdbd7f6f	-0.09252822
184	0x3e0bf0d9	0.13666095
185	0x3df37b29	0.11888725
186	0xbdb7952f	-0.089640014
187	0xbd92e184	-0.0717192
188	0xbcee17cc	-0.029064082
189	0x3da3062e	0.07960163
190	0x3e297bbd	0.16551109
191	0x3d5c3f58	0.053771347
192	0x3e0c049e	0.13673636
193	0x3d82f2b5	0.06393949
194	0xbdaef166	-0.08542137
195	0xbbebe643	-0.00719908
196	0xbdcb1d65	-0.09917716
197	0xbc98aff6	-0.018638592
198	0xbd2bc85a	-0.041939117
199	0xbdd16e56	-0.10226123
200	0xbdb0adf4	-0.08626929
201	0xbda9f007	-0.08297735
202	0x3d6f8816	0.05847939
203	0xbd82bb28	-0.063833535
204	0x3bb33296	0.005468677
205	0xbdf5fd79	-0.12011237
206	0x3db30d9e	0.08742832
207	0x3da53488	0.0806666
208	0x3e1fb33c	0.15595716
209	0xbdba860c	-0.09107599
210	0x3e3ba696	0.18325266
211	0xbc4bc577	-0.012437216
212	0x3dd5c23f	0.1043744
213	0xbdead65e	-0.114666685
214	0xbce3dfa5	-0.027816603
215	0xbdd3ad06	-0.10335736
216	0x3ce22693	0.027606284
217	0x3dd7d0ec	0.105378956
218	0xbdc88ae2	-0.09792115
219	0x3e081d87	0.13292514
220	0x3b820626	0.003968018
221	0xbe2e5fde	-0.17028758
222	0xbd4d5d3a	-0.050137736
223	0x3e347d06	0.17625818
224	0xbe25b41d	-0.16181989
225	0xbd2b1c1d	-0.041774858
226	0xbc6c5dad	-0.014426631
227	0x3c5d6141	0.013511957
228	0xbde1e983	-0.11030867
229	0xbdf70982	-0.1206236
230	0xbdaafbf7	-0.0834884
231	0xbdfb80d7	-0.122804336
232	0x3d81730e	0.06320773
233	0xbde9d639	-0.11417813
234	0x3d9cf107	0.0766316
235	0xbdd64bde	-0.10463689
236	0xbe0899e2	-0.13339952
237	0x3d5a8f81	0.053359512
238	0x3dcff56e	0.10154234
239	0xbe2bcd1a	-0.16777459
240	0xbc3585b2	-0.011079239
241	0x3e1173ae	0.14204285
242	0x3d03432b	0.03204648
243	0xbd8dbc19	-0.069206424
244	0x3c66c2f0	0.014084563
245	0xbdd26fbf	-0.1027522
246	0xbcaf806e	-0.021423545
247	0xbdcd3777	-0.10020345
248	0xbc1f7194	-0.009731669
249	0x3df396ff	0.118940346
250	0xbda69619	-0.081340976
251	0x3c3a0425	0.011353527
252	0x3d996a1f	0.07490944
253	0xbd863f74	-0.065550715
254	0x3e1e56a0	0.15462732
255	0x3da11b00	0.07866478

conv2d_55/Conv2D_bias f4 [64]
0	0xbc1907fd	-0.009340283
1	0x3b1d15ca	0.0023969286
2	0xba40d0a4	-0.00073553086
3	0xbc954eb1	-0.018226
4	0xbcb269e7	-0.021779014
5	0xb98a061a	-0.00026325957
6	0x3d156277	0.036470857
7	0x3c26a00c	0.010169994
8	0x3c631543	0.01386005
9	0xbc9e9885	-0.019359836
10	0x3bd92b8c	0.0066275056
11	0x3cb0d644	0.021586545
12	0xbc384509	-0.011246928
13	0xbcdf1e27	-0.027236057
14	0x3b0fd5ce	0.0021947506
15	0x3c3436f6	0.010999432
16	0x3ce7b5e2	0.02828497
17	0x3b826ffc	0.0039806347
18	0xbcd3a4ba	-0.025835384
19	0x3ccdba73	0.02511332
20	0xbb6221a7	-0.0034504922
21	0xbd025432	-0.031818576
22	0x3ccbb7a0	0.024867833
23	0xbbcd0975	-0.006257231
24	0xbad0c7c5	-0.0015928677
25	0xbc980c27	-0.018560482
26	0x3d0c0149	0.034180913
27	0xbc2d95a6	-0.010594761
28	0xba9cec76	-0.0011972326
29	0xbcc2f9f3	-0.023800826
30	0x3cfdc5cf	0.030978112
31	0x3b9cc7b8	0.0047845505
32	0x3cfccd37	0.030859573
33	0x3cc517ac	0.02405914
34	0x3b1dd619	0.002408391
35	0xbb451d5f	-0.003007732
36	0x3c8aa98d	0.016926551
37	0x3ce6cddd	0.028174335
38	0x3b5bcba6	0.0033538132
39	0x3c98dcd5	0.018659988
40	0x3d028b58	0.03187117
41	0xbc3fdb55	-0.011710008
42	0x3c89f746	0.016841542
43	0x3b05db26	0.0020424812
44	0xbb0d830c	-0.0021593003
45	0x3b70fc1d	0.0036771365
46	0x3ba1ab28	0.0049337335
47	0x3cdd65ff	0.027026175
48	0x3cb534af	0.022119848
49	0xbc297134	-0.010341931
50	0x3c3f8854	0.011690218
51	0x3cb7fa09	0.022458093
52	0xbc912711	-0.017718824
53	0x3c652128	0.013984956
54	0x3c434caa	0.011920134
55	0xbbe2287f	-0.0069018
56	0xba7b84ad	-0.00095946604
57	0xbb035a9a	-0.0020043016
58	0x3cb62558	0.022234604
59	0x3c1c8715	0.00955369
60	0x3c0a68d4	0.008447845
61	0xbb3610ab	-0.002778093
62	0xbc403788	-0.01173199
63	0x3a755408	0.000935853

conv2d_55/kernel f4 [64, 3, 3, 32]
0	0x3dd04f0e	0.101713285
1	0x3c29cb5d	0.010363427
2	0xbdc1eb4f	-0.0946871
3	0xbc7ac9dc	-0.015306916
4	0x3a97b1c3	0.0011573363
5	0x3d5fb857	0.05461916
6	0x39e2381f	0.00043147893
7	0x3dd8b585	0.10581497
8	0x3c974047	0.018463267
9	0x3ce5579a	0.027995873
10	0xbda4858d	-0.08033285
11	0x3d0036d8	0.031302303
12	0x3ca77294	0.020440377
13	0xbd56d233	-0.052446555
14	0x3cada787	0.021198047
15	0x3c1a6d14	0.00942542
16	0x3cd0464f	0.02542415
17	0xbc4aa2c4	-0.012367908
18	0x3ccbee2a	0.024893839
19	0xbcf30416	-0.029665034
20	0xbc2ded44	-0.010615651
21	0x3a061fbd	0.00051164237
22	0xbca632ad	-0.020287836
23	0x3a00f4d2	0.00049192936
24	0xbcb6ce0a	-0.022315044
25	0xbcb22557	-0.02174632
26	0x3af480ed	0.0018654146
27	0x3b06e0cd	0.002058077
28	0x3c7c1b3c	0.015387353
29	0x3aeb8a83	0.0017970357
30	0xbdb5d729	-0.08878929
31	0xbcc18888	-0.023624673
32	0xbc828811	-0.015934022
33	0x3d3a20bc	0.045441374
34	0xbc1a19d9	-0.009405577
35	0x3c3946db	0.011308397
36	0x3ab9a93b	0.0014164814
37	0x3c8d4c62	0.017248336
38	0x3aef09b5	0.0018237146
39	0x3d263cf3	0.04058547
40	0x3d0de8f7	0.034646
41	0x3d6e2172	0.058137365
42	0xbd1916de	-0.037375323
43	0x3d8b3fd2	0.06799282
44	0x3d18ca5a	0.037302352
45	0x3d4ff33e	0.050769083
46	0x3d84e4cc	0.06488952
47	0x3d22e769	0.03977147
48	0x3c2d07b3	0.010560918
49	0x3c4eeed1	0.01263018
50	0x3d88ab19	0.06673259
51	0x3bfe0c7b	0.0077529526
52	0xbc8d1d37	-0.017225845
53	0x3ab52084	0.0013818895
54	0xbde00df7	-0.109401636
55	0x3abea873	0.0014546051
56	0xbc8406b1	-0.016116472
57	0xbc72dcee	-0.014823182
58	0x3c1053c8	0.0088090375
59	0xbb19f16f	-0.0023489853
60	0xbdaaee20	-0.083462
61	0xbc933f4d	-0.01797452
62	0xbb72e99b	-0.003706551
63	0xbbc30799	-0.0059518334
64	0xbd287c55	-0.041134197
65	0x3cc52b00	0.024068356
66	0x3d65906b	0.05604593
67	0xbd85f808	-0.06541449
68	0x3b1b1672	0.0023664501
69	0x3d2ef5ac	0.04271476
70	0x3ab55ba4	0.0013836515
71	0xbc19172a	-0.009343902
72	0x3c044296	0.008072516
73	0x3d187fdd	0.037231315
74	0xbcfc1237	-0.030770404
75	0x3ce86df5	0.028372744
76	0xbd869a25	-0.065723695
77	0xbc9a00bd	-0.01879918
78	0x3d8523e6	0.06500988
79	0xbd55b9ad	-0.052179027
80	0xbd95ee47	-0.073208384
81	0x3d3ab5a3	0.04558338
82	0x3d9f8dfc	0.07790753
83	0x3c489bbf	0.012244164
84	0xbdb1695f	-0.08662676
85	0x3b202c74	0.0024440559
86	0xbdc751f2	-0.09732427
87	0x3b113906	0.0022159233
88	0xbc160248	-0.009155817
89	0xbbef4333	-0.007301712
90	0x3c781b92	0.015143292
91	0xbdab046c	-0.08350453
92	0xbd29a9f0	-0.04142183
93	0x3d502788	0.05081895
94	0x3d786164	0.060639754
95	0xbd277910	-0.04088694
96	0x3d999acb	0.075002275
97	0xbd64d897	-0.05587062
98	0xbd951808	-0.07279974
99	0xbd6cc275	-0.057802636
100	0x39e78e31	0.00044165694
101	0xbd85bd47	-0.065302424
102	0x39a6e071	0.0003182921
103	0x3d96f8fe	0.0737171
104	0xbd80931b	-0.06278058
105	0x3d5bdb94	0.053676203
106	0xbd99faa3	-0.07518508
107	0x3d4fb12b	0.05070607
108	0x3d248877	0.040169206
109	0xbda13149	-0.078707285
110	0xbcabd549	-0.020975726
111	0x3d341469	0.043964777
112	0x3dd86f90	0.10568154
113	0xbd8e2844	-0.06941274
114	0xbab4ceb4	-0.0013794512
115	0x3cfee68e	0.031115796
116	0x3d93f837	0.072250776
117	0x38f385ea	0.000116120864
118	0x3c7d1cba	0.0154487435
119	0x3989d0a9	0.0002628614
120	0x3cf9e03f	0.030502437
121	0x3c14f091	0.009090559
122	0x3a180a34	0.000579986
123	0xbd4b40aa	-0.049622215
124	0x3cfe6be9	0.031057315
125	0xbceb8d3a	-0.028753866
126	0xbdbf14bb	-0.09330126
127	0x3da301b3	0.079593085
128	0x3da4543e	0.080238804
129	0x3cb5d118	0.02219443
130	0x3c3d6dcb	0.011561821
131	0x3d1df2c7	0.03856161
132	0xbb92d5a7	-0.0044810358
133	0xb80ccbd4	-3.356843e-05
134	0xbb38cb60	-0.0028197393
135	0x3dbe5838	0.0929417
136	0xbd79840b	-0.06091694
137	0x3ca2888d	0.019840503
138	0xbc2bc2a7	-0.01048342
139	0x3b580ee8	0.003296787
140	0x3c9513ca	0.018197913
141	0xbd1fe1c6	-0.039033674
142	0x3d440d5f	0.047864314
143	0xbd539285	-0.051653404
144	0x3c73e8b3	0.014887023
145	0xbc651872	-0.013982879
146	0x3d3b5f26	0.045745037
147	0x3d73c290	0.05951172
148	0x3d28e1b8	0.041230887
149	0xbb946c00	-0.004529476
150	0xbdc1c672	-0.094616786
151	0xbb872fe1	-0.0041255807
152	0x3ceb1191	0.0286949
153	0xbd1cd318	-0.038287252
154	0x3c1f0fcc	0.009708356
155	0xbd1ccca0	-0.038281083
156	0xbd3951cb	-0.04524402
157	0x3ca50c40	0.020147443
158	0xbd274321	-0.040835503
159	0x3d6fec13	0.058574747
160	0xbdb54d9d	-0.08852694
161	0xbc23b3c8	-0.009991594
162	0x3d750e2e	0.059827976
163	0x3d341420	0.043964505
164	0x3b2cc6cc	0.002636361
165	0xbc97df39	-0.018539058
166	0x3b0c0024	0.0021362389
167	0x3da84d0a	0.08217819
168	0x3d170d8a	0.036878146
169	0xbd892626	-0.06696729
170	0xbb1da566	-0.0024054884
171	0x3c8731b0	0.016503185
172	0x3c07edad	0.008296412
173	0xbc94b87c	-0.018154375
174	0x3d13ad98	0.036054224
175	0x3d078de7	0.033094313
176	0xbd531fe3	-0.05154408
177	0x3dfd189c	0.123582095
178	0x3cb8ed4c	0.02257409
179	0x3d13a290	0.036043704
180	0xbd997c3b	-0.07494398
181	0x3b2c1816	0.0026259474
182	0xbdb5ce12	-0.088771954
183	0x3b1e42c4	0.0024148682
184	0x3d2f0578	0.042729825
185	0x3c769a1d	0.015051392
186	0x3c8ebd6a	0.017424304
187	0xbd8fe826	-0.07026701
188	0x3c1e1a90	0.009649888
189	0xbd662276	-0.05618521
190	0x3d4bb663	0.049734484
191	0xbd5d65da	-0.05405221
192	0x3d2d66fa	0.042334534
193	0x3d94dc01	0.07268525
194	0xbd95e51e	-0.07319091
195	0xbdabf3a9	-0.08396084
196	0xbc2a5291	-0.010395662
197	0xbd64ed0f	-0.05589014
198	0xbc0df8ef	-0.008665307
199	0x3e08724b	0.1332485
200	0xbd0da7f4	-0.034584
201	0xb9ab5a76	-0.0003268306
202	0xbcc62322	-0.024186675
203	0x3b59507e	0.003315955
204	0x3cd5dacc	0.026105307
205	0xbd1c48c0	-0.038155317
206	0xbd945beb	-0.072440945
207	0x3c5d8560	0.013520569
208	0x3d392b1d	0.04520713
209	0xbbca9cf7	-0.0061832624
210	0xbd36a418	-0.044590086
211	0xbc29a60d	-0.010354531
212	0x3d8f9de6	0.070125386
213	0xbc3a1e68	-0.0113597885
214	0x3d059f53	0.032622647
215	0xbc33be8f	-0.010970726
216	0xbc2059b0	-0.009787008
217	0xbd975d72	-0.0739087
218	0xbc18e1a0	-0.009331137
219	0xbca6d1a9	-0.020363646
220	0xbac07257	-0.0014682513
221	0xbd9398b5	-0.07206861
222	0xbe12c7a3	-0.14333968
223	0xbd54a06a	-0.051910795
224	0x3d3d4794	0.04621084
225	0xbc051ef0	-0.008125052
226	0x3c8e21d5	0.017350117
227	0x3c88e6b1	0.016711565
228	0xbc7acd6f	-0.015307768
229	0xbba9fed0	-0.0051878467
230	0xbc4b5d72	-0.012412416
231	0x3e38e4bc	0.18056005
232	0xbd356e77	-0.0442948
233	0x3dbd1a6b	0.092335545
234	0x3c711201	0.014713765
235	0x3d85d706	0.06535153
236	0x3d46a2b0	0.048494995
237	0x3d89e570	0.06733215
238	0x3b486a76	0.0030581034
239	0xbb176890	-0.0023103096
240	0xbbf1aaeb	-0.0073751113
241	0xbd72b714	-0.05925663
242	0xbbb2327c	-0.005438147
243	0x3cc59ae6	0.024121713
244	0xbccefce1	-0.025267066
245	0xbc8897cc	-0.016673945
246	0xbda0d65c	-0.07853386
247	0xbc8173f6	-0.015802365
248	0xbbca0fa8	-0.006166417
249	0xbd155c0a	-0.03646473
250	0xbbcb6931	-0.006207608
251	0xbc0d33f0	-0.00861834
252	0xbd893248	-0.066990435
253	0xbaff9644	-0.0019499739
254	0x3ce65a34	0.028119184
255	0x3d43623d	0.04770111

conv2d_56/Conv2D_bias f4 [128]
0	0x3c95a8d5	0.018268982
1	0x3cb96a9f	0.022633849
2	0x3c9b8140	0.01898253
3	0x3c9ba02a	0.01899727
4	0x3caedb9c	0.021344952
5	0x3c8ee66e	0.017443862
6	0x3cdc5b8c	0.026899122
7	0xbaaa5584	-0.0012995456
8	0x3d5073e6	0.05089178
9	0x3c85be4e	0.016326096
10	0x3c4ca926	0.0124915
11	0x3d32b08c	0.0436254
12	0x3cd420c6	0.025894534
13	0x3a4768a8	0.00076068426
14	0x3caaf65b	0.020869425
15	0xbc81d6cd	-0.015849495
16	0xbbb3a552	-0.005482354
17	0x3ce04288	0.027375475
18	0x3ca24c65	0.019811818
19	0xbc17bfe5	-0.00926206
20	0x3c1ac7a9	0.009447017
21	0x3d21a293	0.039461683
22	0x3c761be9	0.015021303
23	0x3ca9278b	0.020648738
24	0xb9e423c4	-0.00043514196
25	0xbad02c7e	-0.00158824
26	0x3d075e1d	0.033048738
27	0x3cdfdf54	0.02732817
28	0x3c9ce88f	0.019153861
29	0x3b62df22	0.003461786
30	0x3c758348	0.014984913
31	0xbb0493ca	-0.002022969
32	0x3d101dbb	0.035184603
33	0x3cf9999d	0.030468756
34	0x3d2590a5	0.040421147
35	0x3d05f547	0.032704618
36	0x3bc8b53a	0.0061251195
37	0x3cd83442	0.026392106
38	0xbc5fafda	-0.013652766
39	0x3c291120	0.010319024
40	0x3996d52b	0.00028769052
41	0xb8f2afde	-0.00011572217
42	0x3ca956b9	0.020671235
43	0x3cc92319	0.024552869
44	0xbc25d403	-0.010121348
45	0xbbd4f31d	-0.006498708
46	0x3c33eb0f	0.010981335
47	0xbc39fbe5	-0.01135156
48	0x3ab07810	0.0013463516
49	0xb9ba548a	-0.0003553967
50	0x3cb26393	0.021775996
51	0x3bf0805e	0.0073395213
52	0xbaa0deaa	-0.001227339
53	0xbc258f54	-0.010104973
54	0x3c1b78a3	0.009489211
55	0xbc20da71	-0.0098177055
56	0xbc100409	-0.008790025
57	0x3c40438f	0.011734857
58	0xb9a8ae6e	-0.00032173417
59	0xbc635a4f	-0.013876512
60	0xbc8b0915	-0.016972104
61	0xbb8fd915	-0.004389892
62	0xbc83fa2a	-0.016110498
63	0x3cdc1fe6	0.02687068
64	0x3c0a250e	0.008431686
65	0x3cea9954	0.028637566
66	0x3ca90a71	0.020634862
67	0xbb775cfe	-0.0037744637
68	0xbc97343e	-0.018457528
69	0xbb8792c7	-0.0041373703
70	0x3c30bea4	0.01078764
71	0xbca12104	-0.019669063
72	0x3d0d1c16	0.034450613
73	0x3c2cd0ea	0.010547856
74	0x3cbad5c1	0.022807004
75	0x3d1e256a	0.0386099
76	0x3c0d487b	0.008623238
77	0x3cb1091e	0.021610793
78	0xbba646f1	-0.005074375
79	0x3c824e26	0.015906405
80	0x3d5ae2c5	0.05343892
81	0x3b375f9b	0.002798057
82	0xbc270fc9	-0.010196635
83	0x3ca55a17	0.02018456
84	0x3c906772	0.017627452
85	0x3cd736f1	0.026271315
86	0xbb7d10ed	-0.0038614825
87	0xba7ebc66	-0.00097174046
88	0xbb83deaa	-0.0040243464
89	0xbc0c9c88	-0.008582242
90	0x3c9d761d	0.01922136
91	0xbb893d31	-0.004188203
92	0xbaa6cdc5	-0.0012726119
93	0x3b15d406	0.0022861972
94	0x3cc7d546	0.024393689
95	0xbbaad05a	-0.0052128257
96	0xbc685719	-0.014180922
97	0x3c8699c6	0.016430747
98	0xbb8a36a3	-0.004217939
99	0x3bc197d0	0.00590799
100	0xbc1d9fb6	-0.009620598
101	0x3be28d90	0.006913848
102	0xbbaf8afe	-0.0053571453
103	0x392fdfb6	0.0001677264
104	0x3b344354	0.002750595
105	0x3bb55901	0.0055342917
106	0xbc838029	-0.016052322
107	0xbc36b3ba	-0.011151249
108	0x3b9bc884	0.004754128
109	0x3c2975d8	0.010343038
110	0x3c0b58b4	0.008505035
111	0x3d07cb08	0.03315261
112	0x3cbfea23	0.023427075
113	0x3be15b66	0.0068773506
114	0x3cb376d6	0.021907251
115	0x3cfea623	0.03108508
116	0xba386af4	-0.000703498
117	0x3caa8062	0.02081317
118	0x3c449ceb	0.012000303
119	0x3c30829a	0.010773325
120	0x3ce1dc84	0.02757097
121	0x3c94c529	0.01816042
122	0xbc4c282b	-0.012460749
123	0x3d0a6626	0.033788823
124	0x3956ea6e	0.00020495962
125	0xb92a180d	-0.00016221423
126	0xbadc7d9a	-0.00168221
127	0xbc041522	-0.008061679

conv2d_56/kernel f4 [128, 3, 3, 64]
0	0xbd74a8e8	-0.059731394
1	0xbc497166	-0.012295103
2	0x8d11f4a1	-4.4976036e-31
3	0xbc9300d5	-0.017944733
4	0xbd2a57a9	-0.041587505
5	0x8bef27fe	-9.2119625e-32
6	0x3cf62f4c	0.03005185
7	0xbc3e98f0	-0.011633143
8	0x3baabb0a	0.005210285
9	0xbbc79d69	-0.006091763
10	0xbd6121ad	-0.054963756
11	0x3bc02f9b	0.00586505
12	0xbd0a122b	-0.033708733
13	0xbd4935ac	-0.04912345
14	0xbcd9f0b4	-0.026604034
15	0xbd33ac9a	-0.043865778
16	0x3b915294	0.004434893
17	0xbd5b81f6	-0.053590737
18	0xbc191972	-0.009344446
19	0xbc8ae021	-0.016952576
20	0x8cd30d92	-3.2517865e-31
21	0xbd9870ad	-0.07443366
22	0x3d15da34	0.036585048
23	0xbcf6ba40	-0.030118108
24	0xbb799fa8	-0.0038089547
25	0xbd28b79f	-0.04119074
26	0xbd2ab098	-0.04167232
27	0xbcf402d8	-0.029786512
28	0x8c9dfbbc	-2.4341187e-31
29	0xbbfd1c80	-0.0077243447
30	0x3ca34831	0.019931884
31	0xbc110e55	-0.008853515
32	0x3d106c36	0.035259448
33	0xbd128146	-0.035767816
34	0xbd739c21	-0.059475068
35	0x3b0c78dd	0.0021434345
36	0xbc21340d	-0.00983907
37	0x3ceb49ce	0.028721716
38	0xbb7fa63b	-0.0039008993
39	0x3d02b021	0.03190625
40	0x3d03eac3	0.032206308
41	0xbd35e18c	-0.04440455
42	0xbce411d0	-0.027840525
43	0xbc422538	-0.011849694
44	0x0cb0e1a1	2.725289e-31
45	0xbc061195	-0.008182903
46	0x3cd0eb8d	0.025502944
47	0x3d10e625	0.035375733
48	0x3be4f4c5	0.0069871866
49	0xbd1de08b	-0.03854422
50	0xbd8f1493	-0.06986346
51	0xbc6b9bd3	-0.014380413
52	0xbd8f95b3	-0.07010975
53	0x3c9d3227	0.019188954
54	0xbbc82a49	-0.0061085564
55	0x3bd740ed	0.006569019
56	0xbd2d5342	-0.04231573
57	0x8cc81134	-3.0825233e-31
58	0x3d0562a7	0.032564785
59	0x3b6ac1cd	0.003582108
60	0xba3a61d7	-0.0007109916
61	0x8c638f8e	-1.7530643e-31
62	0x3d9b09cd	0.07570229
63	0x3b4d5f02	0.0031337147
64	0xbd8a5f3a	-0.06756444
65	0xbc235c78	-0.009970777
66	0x0c9a7065	2.3795102e-31
67	0xbc9ecc64	-0.01938457
68	0x3b9278d7	0.0044699716
69	0x8c591b9d	-1.6725381e-31
70	0x3c9dcf1d	0.019263798
71	0xbc88e91f	-0.016712723
72	0x3d14d5d9	0.036336754
73	0x3d029be6	0.031886958
74	0xbd564946	-0.052315973
75	0x3cbb6965	0.022877404
76	0xbcbfb15e	-0.023400005
77	0xba9d9b95	-0.0012024516
78	0xbd1103b6	-0.03540393
79	0xbcee4bd2	-0.029088888
80	0x3bebb47c	0.0071931463
81	0xbd0703bc	-0.032962546
82	0x3bd2c6fa	0.0064324113
83	0xba8b7e40	-0.0010642484
84	0x0c87bb41	2.0912743e-31
85	0xbd6d4cae	-0.057934456
86	0x3d34aed5	0.044112045
87	0xbc46952c	-0.012120526
88	0xbc2eef56	-0.010677179
89	0xbcdcf227	-0.026970936
90	0xbcd6d3b2	-0.026223991
91	0xbcb5b8c3	-0.022182828
92	0x0cd380a6	3.2587125e-31
93	0x3c24d251	0.010059909
94	0xbb6bd5f9	-0.0035985692
95	0x3aaf7509	0.001338632
96	0x3d2fe8df	0.042946693
97	0xbd14b572	-0.036305852
98	0xbc51dfda	-0.012809718
99	0xbc149237	-0.009068063
100	0xbccba3ad	-0.02485832
101	0x3c3df003	0.011592868
102	0xbbcfc5db	-0.006340725
103	0x3c86b8bc	0.01644551
104	0x3c3f7a1f	0.011686831
105	0xbccb955d	-0.024851495
106	0xbbdfe908	-0.0068331994
107	0xbb315a3c	-0.002706184
108	0x8d099141	-4.2391227e-31
109	0x3c86cd43	0.016455298
110	0x3d43679d	0.047706235
111	0x3c1f6558	0.009728752
112	0xbba6603c	-0.00507739
113	0xbd348371	-0.044070665
114	0xbd80d66b	-0.06290897
115	0x3bff57e9	0.007792462
116	0xbd927c6a	-0.07152636
117	0x3c08a057	0.008339009
118	0x3d161ea9	0.036650334
119	0x3cbbbd15	0.02291731
120	0xbc861d35	-0.016371349
121	0x0c996fcb	2.3640665e-31
122	0x3ca2d386	0.019876253
123	0xbba67a3f	-0.005080491
124	0xbc65b3fb	-0.0140199615
125	0x8c80fe82	-1.98747e-31
126	0x3d7e5c23	0.062099587
127	0xbca8c472	-0.020601485
128	0xbd961f02	-0.07330133
129	0x3af3e860	0.0018608682
130	0x0bad90b5	6.6854907e-32
131	0xbcb6758e	-0.022272851
132	0x3c50cb00	0.0127437115
133	0x0ce2f0ed	3.4965815e-31
134	0x3d0094d3	0.03139193
135	0xbbf41f34	-0.0074500088
136	0x3d1f18c5	0.03884198
137	0x3d243efc	0.04009913
138	0xbce000d7	-0.02734415
139	0x3ceaa88e	0.028644826
140	0xbc560ad7	-0.013064108
141	0x3b9bab60	0.004750654
142	0xbd0904e8	-0.033451945
143	0xbca09ec5	-0.019606957
144	0x3c00b154	0.007854778
145	0xbcea3583	-0.02858997
146	0x3cabdec8	0.020980254
147	0x3cbafb70	0.022824973
148	0x8c07f319	-1.0473176e-31
149	0xbc825305	-0.015908727
150	0x3d5adf06	0.053435348
151	0x3bd19936	0.006396438
152	0xbbfb741a	-0.0076737525
153	0xbd2429f3	-0.04007907
154	0xbbc222a5	-0.00592454
155	0xbc6a4339	-0.014298254
156	0x8c95fc70	-2.3109015e-31
157	0xbc5ec0ca	-0.013595769
158	0xbc0fedd8	-0.008784734
159	0x3c26d20c	0.010181915
160	0x3ccbe5e1	0.024889888
161	0xbd021f13	-0.031767916
162	0xbca882b9	-0.020570146
163	0xbcdcc244	-0.026948102
164	0xbce70c2d	-0.028204048
165	0x3caa7cc3	0.020811444
166	0xbc4287e6	-0.011873221
167	0xbb9f390c	-0.0048590954
168	0x3b8de92b	0.0043307743
169	0xbc523b34	-0.012831498
170	0xbbc61df3	-0.0060460507
171	0x3c0287d6	0.007966956
172	0x0d2e3c4f	5.3690483e-31
173	0x3cbae646	0.022814881
174	0x3d1e63ae	0.03866928
175	0x3b7de6d4	0.003874232
176	0xbc04e0cd	-0.008110237
177	0xbd3bb6a8	-0.04582849
178	0xbd4087b1	-0.047004405
179	0x3caa4303	0.020783907
180	0xbd3ce12f	-0.04611319
181	0xbc13bbd0	-0.009016946
182	0x3d5d3741	0.054007772
183	0x3cec4dd6	0.028845709
184	0xbd04d301	-0.03242779
185	0x0cf982cc	3.8443245e-31
186	0x3c228e7c	0.009921666
187	0xbc2f954e	-0.010716749
188	0xbc40f9f2	-0.011778342
189	0x0cf37a7c	3.7513796e-31
190	0x3d7bbe96	0.061461054
191	0xbc8e9e75	-0.017409543
192	0xbcdeff2f	-0.02722129
193	0x3d1e6242	0.038667925
194	0x0d0fe447	4.4340056e-31
195	0x3c073877	0.008253208
196	0xbd627e99	-0.055296514
197	0x8c1f7ef0	-1.2287113e-31
198	0x3d31982b	0.04335801
199	0xbc3958ee	-0.011312706
200	0xbb3d1aed	-0.002885516
201	0xbb9fa1a7	-0.0048715654
202	0xbd6fa263	-0.058504473
203	0x3c5e94c8	0.013585277
204	0xbd4a4ff3	-0.04939265
205	0xbc9caa2d	-0.019124115
206	0x3c9205cf	0.017825035
207	0xbc8c469e	-0.017123517
208	0x3b80594f	0.0039168964
209	0xbd32c2c9	-0.043642793
210	0x3b117316	0.002219384
211	0xbc197b11	-0.00936772
212	0x8c53d873	-1.6319984e-31
213	0xbd563d8f	-0.0523048
214	0x3d26c330	0.04071349
215	0xbca3fecf	-0.020018963
216	0x3cd6bc85	0.02621294
217	0xbcd1e28a	-0.025620718
218	0xbd0ecfe3	-0.034866225
219	0xbd2d6453	-0.042332005
220	0x0c906d65	2.2252552e-31
221	0xbc2a310a	-0.010387668
222	0x3cb87e15	0.022521058
223	0x3d0d9164	0.034562483
224	0x3d3834eb	0.04497234
225	0xbc8940d1	-0.01675454
226	0xbd4b2f07	-0.049605396
227	0x3cc089fa	0.023503292
228	0xbcbda178	-0.023148283
229	0x3ca6613b	0.020310035
230	0x3b5aa097	0.003335988
231	0x3ced4896	0.028965276
232	0x3cb615f5	0.022227267
233	0xbc9b1e15	-0.018935243
234	0xbcb4ae2a	-0.022055704
235	0x3d29f1e7	0.04149046
236	0x8c1e25a6	-1.2183207e-31
237	0x3a9265d0	0.0011169259
238	0x3c8d584b	0.017254015
239	0x3cd9d26e	0.026589599
240	0xbbe56f33	-0.0070017814
241	0xbbe6cfb9	-0.0070438054
242	0xbd55d1c0	-0.052201986
243	0x3c17d3a7	0.00926677
244	0xbcfc0d40	-0.030768037
245	0xbc512b6e	-0.012766702
246	0x3c8b4f6d	0.017005647
247	0x3ccfb584	0.025355108
248	0xbcb00428	-0.021486357
249	0x0ca366d1	2.5176007e-31
250	0x3d31b3ff	0.04338455
251	0x3cce2b6f	0.025167195
252	0x3d1be7ad	0.03806274
253	0x8ca28bbc	-2.5044152e-31
254	0x3d86403c	0.065552205
255	0x3d3b93e3	0.045795333

conv2d_57/Conv2D_bias f4 [128]
0	0xbc6b7537	-0.014371208
1	0x3be0ba2e	0.006858132
2	0x3d030050	0.03198272
3	0xbad18d6b	-0.001598758
4	0xbb53d485	-0.0032322716
5	0xbb15de81	-0.0022868218
6	0xbb31d941	-0.002713755
7	0xbb63442f	-0.0034678092
8	0x3cc3ddd4	0.023909487
9	0x3d340a1e	0.04395496
10	0x3b892a98	0.004185986
11	0xb9e96005	-0.00044512763
12	0xbc8f5dd2	-0.017500792
13	0xbb7d10dd	-0.0038614788
14	0xb9a2e4bf	-0.00031069477
15	0xbb8e3df1	-0.00434088
16	0xbaeb5f29	-0.0017957437
17	0xbb4a4670	-0.0030864738
18	0x3b35765b	0.0027688954
19	0xbb57e678	-0.0032943767
20	0xb9ca8bd0	-0.0003863261
21	0xba01bca8	-0.00049490714
22	0xb9ea031e	-0.0004463428
23	0xb975f162	-0.00023454943
24	0x3d352476	0.044224225
25	0xbaef7c93	-0.0018271379
26	0x3c95bbd0	0.018278033
27	0x3bb76a5b	0.0055973954
28	0xbb3a7279	-0.0028449579
29	0xbc00015c	-0.007812824
30	0xbb463b51	-0.0030247758
31	0xbacde126	-0.0015707358
32	0xba6b6a18	-0.0008980348
33	0xbb8167d7	-0.0039491463
34	0xba563432	-0.000817123
35	0xbb3e0c4d	-0.002899903
36	0x3c6e2a85	0.014536505
37	0xbb1a7017	-0.0023565346
38	0xbc2af012	-0.010433214
39	0x3d952a3a	0.07283445
40	0xbc0e35c4	-0.008679811
41	0xbca84aad	-0.02054342
42	0x3a785f39	0.00094746385
43	0xbb792092	-0.0038013798
44	0xbb3616a6	-0.0027784496
45	0x3c568fc4	0.0130958
46	0x3c3b4b58	0.011431538
47	0xbaa7e2da	-0.0012808696
48	0x3bf59676	0.007494743
49	0xbb85d650	-0.004084386
50	0xbb34e6b8	-0.002760334
51	0x3c9c3b38	0.019071206
52	0xbac0345c	-0.0014664042
53	0x3cd72f7f	0.026267765
54	0x3d46f38e	0.048572116
55	0xbb216203	-0.002462507
56	0x3d2e1e95	0.042509634
57	0x3c9068cf	0.017628102
58	0xba0bfd01	-0.000534013
59	0xbb0984c0	-0.0020983666
60	0xbb4af657	-0.0030969584
61	0x3cbf61d3	0.023362076
62	0xbafd0776	-0.0019304592
63	0xbb1b4f41	-0.0023698362
64	0x3cd63215	0.026146928
65	0x3cdd0421	0.026979508
66	0xbc15d666	-0.009145355
67	0xbb89d25b	-0.0042059845
68	0xbc89656f	-0.016772
69	0x3bf0c8a8	0.007348139
70	0xbb267ae5	-0.002540284
71	0xbc2d3143	-0.010570827
72	0x3bdf9af7	0.006823893
73	0xbb8d44e5	-0.0043111914
74	0x3d73abea	0.059490122
75	0xb9d10bb0	-0.00039872294
76	0xbb1c1651	-0.0023817013
77	0xbb8fbda2	-0.0043866197
78	0xbba7da7b	-0.0051224804
79	0xbcbe8d81	-0.023260834
80	0xbb55d642	-0.0032628928
81	0xbb41046e	-0.0029452103
82	0x3c1ede96	0.009696623
83	0xba052a92	-0.0005079891
84	0xbab747b0	-0.0013983157
85	0x3bd4cf01	0.0064944034
86	0xbbc67535	-0.0060564526
87	0xba4a1de2	-0.00077101414
88	0x3cd3678c	0.025806211
89	0x3d0ba132	0.034089275
90	0xba551519	-0.0008128449
91	0x3c0bb8d4	0.008527953
92	0x3c4d48d6	0.0125295725
93	0xbba0da00	-0.0049088
94	0xbb25dcc1	-0.0025308582
95	0xba11e2fa	-0.0005565133
96	0x3cadfc52	0.02123848
97	0xbb9361ce	-0.004497743
98	0xbbc2931d	-0.0059379474
99	0x3c8fa4ee	0.0175347
100	0xba0b4d30	-0.0005313931
101	0xbb9550f6	-0.0045567704
102	0x3c342bc1	0.01099676
103	0xbb712e66	-0.0036801337
104	0xba96d34f	-0.0011507067
105	0x3cfb8fb1	0.030708166
106	0xbad75b64	-0.0016430435
107	0xb836f06d	-4.3616095e-05
108	0xbb070d1b	-0.0020607177
109	0x3c32fe54	0.010924894
110	0xbb946bd9	-0.004529458
111	0xbbae2974	-0.005315
112	0xba9e11a2	-0.0012059698
113	0xbca2372c	-0.019801699
114	0xbb829d14	-0.0039860103
115	0x3c917e09	0.017760294
116	0xbcaf9d4a	-0.021437306
117	0xbc642b98	-0.013926409
118	0x3ca14f32	0.019691084
119	0x3a4d15a7	0.0007823356
120	0xbbef4077	-0.007301386
121	0xbc1555f4	-0.009114731
122	0xbb92af60	-0.0044764727
123	0xbb0608c7	-0.002045201
124	0x3c780c32	0.015139626
125	0x3cbb3743	0.0228535
126	0xb8d80b6c	-0.0001030181
127	0x3c9afc17	0.018919034

conv2d_57/kernel f4 [128, 3, 3, 128]
0	0xbc370bb5	-0.011172225
1	0x3cdaf860	0.026729763
2	0x3d59a9d0	0.05314046
3	0x3d884941	0.06654597
4	0x3d257cf1	0.040402357
5	0x3d5002f1	0.050784055
6	0x3c826762	0.015918437
7	0x0c92f622	2.2642998e-31
8	0x3caac161	0.020844163
9	0x3ab2e9bb	0.0013649979
10	0x3d98629d	0.07440684
11	0x3d2245ac	0.039617226
12	0xbd1bb33a	-0.03801272
13	0xbc67cc4c	-0.014147829
14	0xbd03e9af	-0.03220528
15	0x3d2a8e0d	0.041639376
16	0x3b590b4e	0.003311831
17	0x3c7491db	0.014927353
18	0x3d27dd6e	0.040982656
19	0x3e0f811e	0.14014098
20	0xbd121c93	-0.03567178
21	0x3c3b1a96	0.011419913
22	0x3ccbc603	0.024874693
23	0xb8d54ae3	-0.0001017058
24	0xbdd35f5c	-0.10320923
25	0x0c6518c0	1.7648966e-31
26	0x3bd6c151	0.006553807
27	0xbb3b387b	-0.00285676
28	0x3d3a0c0f	0.045421656
29	0x3d848308	0.06470305
30	0xbd7e1097	-0.06202754
31	0x0caf7889	2.7035564e-31
32	0x3d00a2e2	0.031405337
33	0x3c75f913	0.015012997
34	0xbb863a9d	-0.0040963427
35	0xbc328bc9	-0.010897585
36	0xbd280e60	-0.041029334
37	0x3d4c65e2	0.04990185
38	0x3cb6d21a	0.022316981
39	0x3dc1ada0	0.094569445
40	0xbcad5fd7	-0.021163864
41	0x0cac30af	2.6530096e-31
42	0x3d05d6bb	0.032675486
43	0x3c1a1d0e	0.009406341
44	0xbcbfab5f	-0.023397146
45	0xbd157586	-0.036489032
46	0x3d2c54d9	0.042073105
47	0xbcc67ddd	-0.024229938
48	0x3db782d4	0.089605
49	0x0d0fe392	4.4339205e-31
50	0xb9fba0b7	-0.00047994193
51	0x3d81dda2	0.06341101
52	0x0cbee78a	2.9413488e-31
53	0xbc796852	-0.015222626
54	0x3d7dabb0	0.061931312
55	0x3b033d26	0.002002546
56	0xbcb39d56	-0.02192561
57	0x3d59560d	0.05306058
58	0x0c52ffed	1.6254826e-31
59	0xbdb8d4a5	-0.09024934
60	0xbd271012	-0.04078681
61	0x8cc17aa0	-2.981016e-31
62	0xbdc4a15b	-0.096010886
63	0xbd0ea28f	-0.034822997
64	0x3ac9c661	0.0015394205
65	0xbd34060c	-0.04395108
66	0xbb85babc	-0.0040810984
67	0x8cc12b2d	-2.9762344e-31
68	0x3d8d9b72	0.069144145
69	0x8c5410b3	-1.6336911e-31
70	0x3c7ac2f7	0.015305272
71	0x3bf4c015	0.007469187
72	0x3cf919f2	0.03040788
73	0x3c6baa1e	0.014383821
74	0xbbeacdf9	-0.007165667
75	0x3d6cc717	0.057807054
76	0x3c6fc0f1	0.014633403
77	0x3c508b37	0.012728504
78	0xbd039537	-0.032124724
79	0x3d53faa0	0.051752687
80	0x3ce351cd	0.027748967
81	0xbcd835b7	-0.0263928
82	0xb872272a	-5.773377e-05
83	0x3d2e8685	0.042608757
84	0x3d37f8bb	0.044914942
85	0x3d9d28e2	0.076738134
86	0x8c9cc632	-2.415489e-31
87	0x3ccae319	0.024766492
88	0x3cd43310	0.025903255
89	0x3da3105a	0.07962103
90	0x3cd30872	0.025760863
91	0x0cc96138	3.1027465e-31
92	0xbc164cf6	-0.009173622
93	0xbcbfc7e4	-0.023410745
94	0x3a531901	0.0008052737
95	0xbb70497e	-0.0036664899
96	0x3c4a2c9f	0.01233974
97	0x3d1405e7	0.03613844
98	0x8cba95da	-2.8748026e-31
99	0x3ceaa529	0.028643208
100	0xbce48775	-0.027896622
101	0x3d472639	0.048620436
102	0x8cbdbd6a	-2.923406e-31
103	0x3ba274d3	0.004957774
104	0x39b752b6	0.00034966104
105	0xbd9370d2	-0.07199253
106	0xbc51f7ea	-0.012815455
107	0x3c18965f	0.009313195
108	0xbcbc0471	-0.022951337
109	0x3c9a8d66	0.018866252
110	0x3c0bd315	0.008534213
111	0x3cb1d926	0.02170999
112	0xbb17e82f	-0.0023179164
113	0xbd6496b9	-0.055807803
114	0xbc7ad4c2	-0.0153095145
115	0xbb81486b	-0.0039454005
116	0x3c8071d8	0.015679285
117	0x3d23ec41	0.04002023
118	0x3c970901	0.01843691
119	0x3c3ca4c4	0.011513893
120	0xbc1822f3	-0.009285676
121	0xbc762b50	-0.015024975
122	0x3c026c8b	0.007960449
123	0x3c533725	0.012891565
124	0xbd366956	-0.04453405
125	0x8ca8c269	-2.6001505e-31
126	0x8a72a5a0	-1.1683027e-32
127	0x0d251997	5.0875353e-31
128	0x3ce92f6e	0.028464999
129	0x3c398290	0.011322632
130	0x3d939593	0.072062634
131	0x3d4ad6ef	0.049521383
132	0x3d70822a	0.058717884
133	0xbc5e7c95	-0.013579507
134	0x3c095551	0.008382157
135	0x8cadf037	-2.6799444e-31
136	0x3cc0d21f	0.023537694
137	0x3ca2a423	0.019853657
138	0x3d3f2c91	0.04667336
139	0x3d754575	0.059880693
140	0xbc0ca702	-0.00858474
141	0xba665c80	-0.0008787587
142	0xbb125a99	-0.0022331832
143	0x3d96fba4	0.073722154
144	0x3c3fafc3	0.01169962
145	0x3d5ce255	0.053926785
146	0x3d80e2c2	0.062932506
147	0x3e1b1197	0.15143429
148	0xbd853b15	-0.0650541
149	0x3d1c5e6b	0.03817598
150	0x3bdf049a	0.0068059685
151	0x3d1e44f7	0.03863999
152	0xbdc3eeed	-0.09567056
153	0x8d1e5073	-4.8784346e-31
154	0x3cb589de	0.022160467
155	0x3a1c1166	0.00059535203
156	0x3d7b30f7	0.061325993
157	0x3d9073fa	0.07053371
158	0xbd25db0a	-0.040492095
159	0x0c2ff63e	1.355561e-31
160	0x3c721c27	0.01477722
161	0x3cfcd4e9	0.030863242
162	0x3d666650	0.056249917
163	0xbc0b2107	-0.008491761
164	0xbd92d598	-0.07169646
165	0x3d11d70f	0.035605486
166	0xbc7cefef	-0.015438064
167	0x3d5f1f04	0.05447294
168	0xbb05d4e7	-0.002042109
169	0x0cda527c	3.3637862e-31
170	0x3d1feadb	0.039042335
171	0xbbcc25dd	-0.0062300996
172	0xbd450626	-0.048101567
173	0xbd33cd93	-0.043897223
174	0x3c1df0f2	0.009639965
175	0xbc44ccb5	-0.012011697
176	0x3d934b9e	0.07192157
177	0x0cb32d9d	2.760677e-31
178	0x3ca0b372	0.019616816
179	0x3ca73603	0.020411497
180	0x0c51523d	1.6125522e-31
181	0xbc40fdfd	-0.0117793055
182	0x3cdc10c3	0.026863461
183	0x3b667173	0.0035162836
184	0xbd0bb9db	-0.034112792
185	0x3d775849	0.06038693
186	0x8cd9e5d7	-3.3572474e-31
187	0xbdf022fb	-0.11725422
188	0x3c20caa6	0.00981394
189	0x8cb6db2e	-2.8173454e-31
190	0xbd1ff3b9	-0.03905079
191	0x3c834315	0.016023198
192	0xbbfd3778	-0.0077275597
193	0xbd1c3fb0	-0.038146675
194	0x39de2f0d	0.00042378195
195	0x8cbdecf0	-2.9262662e-31
196	0x3d008fbf	0.031387087
197	0x0c9a6cc9	2.379293e-31
198	0xbc3e7c85	-0.011626367
199	0xbca5ba17	-0.020230336
200	0xbcd8b3e2	-0.026452962
201	0xbafa35bd	-0.0019089502
202	0xbb830716	-0.0039986474
203	0x3d9ab083	0.07553198
204	0x3c4d9af9	0.012549155
205	0x3cac83b7	0.0210589
206	0xbd47385c	-0.048637733
207	0x3d721d8c	0.05911021
208	0x3b80caeb	0.0039304397
209	0x3bfc2788	0.007695142
210	0x3ac72c90	0.0015195776
211	0x3d1efb88	0.038814098
212	0x3cd83df7	0.026396735
213	0x3d93ca4f	0.07216322
214	0x0d0f7a1c	4.421226e-31
215	0xbc687f27	-0.014190472
216	0xbc8036ab	-0.015651068
217	0x3dac0819	0.08399982
218	0x3d655d98	0.05599746
219	0x0cb1c263	2.738816e-31
220	0xbce936ec	-0.028468572
221	0x3cc3736f	0.023858754
222	0x3c389810	0.011266723
223	0x3cb04ddb	0.0215215
224	0x3c5ab7f1	0.013349519
225	0xbbc22e10	-0.0059259012
226	0x8cb52bb3	-2.7913766e-31
227	0x3d427da6	0.04748311
228	0xbd15fcc2	-0.036618
229	0x3dc1e5ae	0.09467636
230	0x8cb3f97f	-2.7729477e-31
231	0xbc1e83a5	-0.009674941
232	0xbce2f266	-0.027703475
233	0xbb227b8e	-0.0024792883
234	0x39eda968	0.0004533038
235	0xbc8f72d2	-0.017510805
236	0xbbc5bf41	-0.006034762
237	0x3d51c565	0.05121364
238	0x3bc832c7	0.0061095688
239	0x3ccebc74	0.025236346
240	0x3c330759	0.010927045
241	0xbd41b9ae	-0.04729622
242	0x3c229d65	0.009925221
243	0x3a323208	0.00067976164
244	0x3d2ec28f	0.042666014
245	0x3d79877f	0.060920235
246	0x3c92a529	0.01790102
247	0x3c2ba412	0.010476129
248	0x3c6ddaad	0.014517468
249	0xbd8ad592	-0.067790166
250	0xbc4825da	-0.012216056
251	0x3cf7e2ef	0.030259578
252	0xbc3110f5	-0.0108072655
253	0x8ca57639	-2.5493428e-31
254	0x8c9b6018	-2.3939366e-31
255	0x0c399aa9	1.4298423e-31

conv2d_58/Conv2D_bias f4 [7]
0	0x3c112ccf	0.008860781
1	0x3a45982e	0.000753763
2	0x3ccac531	0.024752231
3	0x3d4bdd46	0.04977157
4	0x3c447901	0.01199174
5	0xbc873086	-0.01650263
6	0x3cd64ae6	0.026158761

conv2d_58/kernel f4 [7, 1, 1, 128]
0	0xbee3f310	-0.4452138
1	0xbdf8076b	-0.1211079
2	0x3d832e57	0.06405323
3	0x0ce6e1f7	3.5573109e-31
4	0x0cd30f9e	3.2519097e-31
5	0x8cd00de1	-3.2055827e-31
6	0x0b3d657a	3.6476418e-32
7	0x0b4bf50e	3.9280737e-32
8	0x3c983d67	0.018583966
9	0x3dd00e9a	0.10159035
10	0xbdd9c34a	-0.106329516
11	0x0cc917c3	3.0983255e-31
12	0x3e5119b5	0.20419963
13	0x0ccf4703	3.1936139e-31
14	0x3dad07f2	0.08448781
15	0x8cb946c4	-2.8546354e-31
16	0x0d25aa15	5.104928e-31
17	0x8cd576c0	-3.2889316e-31
18	0xbda21c90	-0.07915604
19	0x8ce949bf	-3.5943718e-31
20	0x0ccc4510	3.1472742e-31
21	0x0cefa5e3	3.692362e-31
22	0x8d37a881	-5.659406e-31
23	0x2a0d34d2	1.2541641e-13
24	0xbd853f76	-0.06506245
25	0x0ce44ca2	3.5175084e-31
26	0x3ce407b1	0.027835699
27	0x3e4f0b98	0.20219266
28	0x8cc8d2b1	-3.0941684e-31
29	0x8ce04ad2	-3.4557695e-31
30	0x0ccc3976	3.146576e-31
31	0x0ce0ea25	3.4653585e-31
32	0x0cdc82f2	3.3975177e-31
33	0x0be4a413	8.8069277e-32
34	0x0c32907a	1.3756098e-31
35	0x8cbd03b3	-2.9122287e-31
36	0xbe530e97	-0.20611034
37	0x0cca539f	3.1173356e-31
38	0x8ce11b1c	-3.4683055e-31
39	0x3d48f26f	0.049059328
40	0xbd26ff25	-0.04077067
41	0x3e28477b	0.16433518
42	0x3dba7f1a	0.09106274
43	0x0cc8c7d4	3.0935146e-31
44	0x0cccd61b	3.1560037e-31
45	0x3e1420c6	0.14465627
46	0x3d49d881	0.04927874
47	0x8ccf5b0f	-3.1948204e-31
48	0x3e172c30	0.1476295
49	0x0ac87aee	1.930554e-32
50	0x8c84b6e2	-2.0447889e-31
51	0x3e16c1a0	0.147223
52	0x8ce8a512	-3.5844608e-31
53	0x3e1126ab	0.14174907
54	0x3b257886	0.002524884
55	0x0c4518f5	1.5183838e-31
56	0x3ce538b5	0.027981142
57	0x3d84f8e2	0.06492783
58	0x0c943097	2.2832254e-31
59	0x8cc6aff5	-3.061263e-31
60	0x8cdb7068	-3.3809945e-31
61	0xbe170abf	-0.14750193
62	0x0ce7cae7	3.5713303e-31
63	0x0cd07e26	3.2123397e-31
64	0xbde08f84	-0.109648734
65	0xbdb43bde	-0.08800481
66	0xbda40f3e	-0.0801072
67	0x8cdf9552	-3.444846e-31
68	0xbd2b6a98	-0.041849703
69	0xbe40b2c2	-0.1881819
70	0x0cfe7bc7	3.9209392e-31
71	0x8ce38c3d	-3.505929e-31
72	0x3e6bc9dd	0.23026223
73	0x8cd8207c	-3.329962e-31
74	0x3a4cf8ba	0.00078190456
75	0x8ce96137	-3.5957843e-31
76	0x0c071536	1.0406405e-31
77	0x0c7c7eca	1.9451528e-31
78	0x3e2cfb3b	0.16892712
79	0x3d251809	0.040306125
80	0x8cbb008b	-2.8812239e-31
81	0x3dbbec2f	0.09175908
82	0x3e2c0bee	0.16801426
83	0x0cdc8783	3.3977925e-31
84	0x0cd9ba5e	3.354631e-31
85	0xbe4fd998	-0.20297849
86	0x8cf1490f	-3.71759e-31
87	0x37838eb2	1.5682865e-05
88	0x3d15b68a	0.036551036
89	0x3ddfe3de	0.10932134
90	0x0ccdc8d8	3.170613e-31
91	0x3dab7b0a	0.08373077
92	0xbe3f4e16	-0.18682131
93	0x8cc35f9e	-3.0102055e-31
94	0x0ccc9269	3.1519294e-31
95	0x0ca08aa1	2.4735338e-31
96	0xbd124242	-0.03570772
97	0x8cd0cfd1	-3.217255e-31
98	0x8cd72b7f	-3.3152173e-31
99	0xbe398c15	-0.18119843
100	0x3a065914	0.0005124968
101	0x0d05f312	4.1276374e-31
102	0x3e3ff45d	0.18745561
103	0x0c5e4a3d	1.7124598e-31
104	0xbdbe333d	-0.09287117
105	0x3e39b7c3	0.18136506
106	0x0cf0b366	3.7085826e-31
107	0x0c33f930	1.3864646e-31
108	0x8ce4f1b9	-3.5274444e-31
109	0xbe4c8eb6	-0.19976315
110	0x0b943c0b	5.709787e-32
111	0xbe055863	-0.13021998
112	0x392d0d4b	0.00016503518
113	0x3e13fd1c	0.14452022
114	0x8d3c1ff6	-5.7970444e-31
115	0x3e244530	0.16042018
116	0x3d74fabf	0.059809443
117	0xbe088c44	-0.13334757
118	0x3e29a902	0.16568378
119	0x3cfbf99a	0.030758668
120	0xbe4bbf7b	-0.19897263
121	0x8ce5913e	-3.537045e-31
122	0x8ca53b5f	-2.5458008e-31
123	0x8c9ff649	-2.4646056e-31
124	0xbe17e736	-0.14834294
125	0x3de7edf2	0.11324681
126	0x8cf8b9cf	-3.832228e-31
127	0x3e327429	0.17427124
128	0xbe86ed34	-0.26352847
129	0xbc5cb6f3	-0.013471353
130	0x3da629d1	0.081134446
131	0x8cd517cc	-3.2832168e-31
132	0x8cd708f5	-3.3131386e-31
133	0x8ccef713	-3.1888028e-31
134	0x0b779cd2	4.7688448e-32
135	0x8cbde40d	-2.9257314e-31
136	0x3df2fe2b	0.11864885
137	0x3d56bf76	0.052428685
138	0xbd2a44f9	-0.041569684
139	0x8ce6ee28	-3.5580446e-31
140	0xbd5548ab	-0.052071255
141	0x0b39fa93	3.5818215e-32
142	0xbcc76e0c	-0.024344467
143	0x0c6e006f	1.8334984e-31
144	0x0cd76a69	3.3190038e-31
145	0x0d35acfe	5.5983163e-31
146	0xbcb513cc	-0.022104166
147	0x0c775150	1.9052657e-31
148	0x8ce63737	-3.5470342e-31
149	0x0d0f15c5	4.409148e-31
150	0x8bc5a78f	-7.6133754e-32
151	0x8ce74c31	-3.5637041e-31
152	0x3e0165ce	0.12636492
153	0x8ce2477f	-3.4863844e-31
154	0x3e2d23cb	0.16908185
155	0xbcad9ac1	-0.021191956
156	0x0cc5bdd3	3.0466902e-31
157	0x8cdaf552	-3.3735865e-31
158	0x8c921ae1	-2.251104e-31
159	0x0c599185	1.6760863e-31
160	0x8ccc8b5b	-3.1515048e-31
161	0x8c5fee73	-1.7251051e-31
162	0x0cc3265e	3.0067599e-31
163	0x0c4033a8	1.4806687e-31
164	0xbc582d4d	-0.013194394
165	0x8cc063cc	-2.9642347e-31
166	0x8cdc4c4d	-3.394229e-31
167	0x3aca0caf	0.0015415157
168	0xbca09c00	-0.019605637
169	0xbde2403d	-0.11047409
170	0x3dcf3972	0.10118379
171	0x8cda5970	-3.3642046e-31
172	0x8ba25f3a	-6.254341e-32
173	0x3de1401f	0.10998558
174	0xbd7bcd67	-0.061475184
175	0x0cbfef05	2.9572064e-31
176	0xbbde5002	-0.00678444
177	0x8cf8d249	-3.833701e-31
178	0x0cd71112	3.313627e-31
179	0x3e16aea0	0.14715052
180	0x8ce64b6e	-3.5482509e-31
181	0x3deaa42b	0.11457094
182	0xbc43eb23	-0.011957916
183	0x8beb798c	-9.070159e-32
184	0x3cef1f01	0.029189589
185	0x3ddf7b13	0.109121464
186	0x0cff62cb	3.934843e-31
187	0x0c2a8908	1.313756e-31
188	0x0ce680f3	3.551472e-31
189	0x3df54c32	0.11977424
190	0x0ce29c72	3.491497e-31
191	0x0cc79622	3.0751163e-31
192	0x3d888366	0.06665687
193	0x3e50ef4a	0.20403782
194	0x3e32ad4d	0.17448922
195	0x0ce11ed7	3.46853e-31
196	0x3e6d7ec3	0.23192887
197	0xbc4b0dfc	-0.012393471
198	0x8ceb6458	-3.6267875e-31
199	0x0cef29de	3.6848978e-31
200	0x3d0504c8	0.032475263
201	0x8cba24be	-2.867995e-31
202	0xbe1bc320	-0.15211153
203	0x0cda8f69	3.367453e-31
204	0x0d2257b0	5.0025654e-31
205	0x0cd9025e	3.3435569e-31
206	0xbcc1af03	-0.023643022
207	0xba5b667e	-0.00083694595
208	0x0cb09ce2	2.7211514e-31
209	0x3cf0e0a4	0.029403992
210	0x3cf79bc6	0.030225646
211	0x8ccfd522	-3.2021675e-31
212	0x8cdc5c54	-3.3951935e-31
213	0x3dbeaeb5	0.093106665
214	0x0d1157f3	4.478744e-31
215	0xad3060db	-1.0025948e-11
216	0xbe0ff84e	-0.14059564
217	0x3e4729fb	0.19449608
218	0x8cfab327	-3.8626422e-31
219	0xbddc3949	-0.10753114
220	0x3db8695d	0.090044715
221	0x8d22003e	-4.9920396e-31
222	0x0cd4bd87	3.277784e-31
223	0x0cd5e8c1	3.295793e-31
224	0x3e5e415f	0.21704625
225	0x8cd16b25	-3.2266034e-31
226	0x8cc99fc6	-3.1065114e-31
227	0x3e381b91	0.17979266
228	0xb09d1043	-1.1427875e-09
229	0x0cda8a39	3.3671408e-31
230	0x3e09405b	0.13403456
231	0x8cd8a5f2	-3.3379944e-31
232	0x3e5bfce8	0.21483195
233	0x3e2c38e2	0.16818574
234	0x8cdf319f	-3.4388455e-31
235	0x8c7b59ab	-1.936332e-31
236	0x8cda8fa0	-3.367466e-31
237	0xbd96bf51	-0.073607095
238	0x8ce02a7f	-3.453824e-31
239	0xbe3419c4	-0.17587954
240	0x3416cce9	1.4044384e-07
241	0x3de22049	0.11041314
242	0x0d245571	5.063925e-31
243	0xbd9e0248	-0.07715279
244	0xbe2ac948	-0.16678345
245	0xbe581152	-0.21100357
246	0x3dfa4e99	0.122220226
247	0x3dbf39f2	0.09337224
248	0xbda96155	-0.08270518
249	0x8ce68f26	-3.5523265e-31
250	0x0cc680c3	3.0584226e-31
251	0x8d1c7810	-4.821573e-31
252	0xbe3d438b	-0.18482797
253	0x3e54b792	0.20773152
254	0x0d01c0bf	3.9983204e-31
255	0x3e01af2f	0.12664483

conv2d_59/Conv2D_bias f4 [7]
0	0xbbe0b780	-0.0068578124
1	0xbc4f8fa5	-0.012668525
2	0x3cb0d29a	0.021584798
3	0x3d18fda2	0.037351258
4	0xbc361e59	-0.011115634
5	0x3d4334d8	0.047657818
6	0x3d1a1609	0.03761867
